cnn_lstm_inst.pt (torch, 448579 bytes, 17 tensors)

cnn.0.weight f4 [32, 1, 5]
00000000: f447 a93e 08a1 a73e aa66 9dbd 13e1 ed3e
00000010: 9e4d 25bd e611 413d a7ef 87be 2e2f 753e
00000020: 18f6 c43e edbf a8be c5b6 da3e e67e bb3c
00000030: 6aac 7e3e 4af1 9f3d bac7 6e3e cfec c6bd
00000040: e54a a43e 3be7 6e3c 5bf2 72be ca53 c23d
00000050: 7719 1cbe 5c88 20bc ac72 36be a339 913e
00000060: 4a58 ccbe a84f f6bd 4441 1cbd 7b74 5cbe
00000070: 377d 923c 957e 06bf c673 e33e 2a68 bcbe
00000080: 0190 a93e 5eb3 b33d 668d 03be 3769 953e
00000090: 8b0d 3b3d d2b2 963e 2ee4 c1bc 0a5c 46be
000000a0: 7af3 803d fa3b 01be b3f1 593e 6410 c43e
000000b0: 3fc4 b63e 46ac 51be 71f9 773e 6f62 ab3d
000000c0: dd27 523e eec2 97be c29b d2be 1da3 23be
000000d0: 90a2 b4be e0f9 b93e 49a2 293e 3ecd 4c3e
000000e0: dba7 153e 20ad 963c 889c ac3e b007 a5be
000000f0: b3e3 8d3d a2a8 88be f215 483e 3f14 02be
00000100: 2abb 1d3e dc51 abbc e64d e13e 5f63 49be
00000110: e1e8 47be 4d51 74be dda3 c03e 0ab4 103e
00000120: 2f54 d63e 0468 c4be 714c eebe 5794 b9be
00000130: e525 a4be 4a3f 173e 4125 193e fe7b bb3e
00000140: 82aa 77be 040b aabe 969c 423e de96 3ebe
00000150: f65a 913e 131a 38bd 8573 a23e fc06 9ebe
00000160: 1623 4dbe 0cb0 023e dcb5 7f3d 574a fbbd
00000170: 0f3e 6e3e d31e 7b3e 37d6 c1be 1be2 38be
00000180: 8311 f13e 288f c5bd 1133 d1bd 4298 cdbe
00000190: 01f2 0bbe f3e9 463e dc5b 86bb d718 ccbe
000001a0: dbaf 29bd 0572 87be 4f91 a2be b09d 4cbe
000001b0: 8c47 dabe ae9d b6be 006f e53e 08e2 d53d
000001c0: 54f9 203e 60c6 cebe a252 98be 6f20 c5bd
000001d0: 4d33 ec3d da40 cdbe c83b 83be 19a9 88be
000001e0: 655e 8b3d ad67 bcbd 8196 e23c 10dc abbe
000001f0: ef82 b2be 643a 8bbe f0c4 30be bf61 acbe
00000200: 506e c23e 3cbb d6bd 59fa a33e 864b a63d
00000210: 63fd e1be 93e4 873e e400 23be e0cb e2bd
00000220: 1465 9cbe a8cf f4be 80f6 b93d d3e7 37be
00000230: be28 553e ffbd aebe 38a8 c13e ea50 8cbe
00000240: 8ffc 1ebc 7ebf 243e 8b49 6d3e bb22 953e
00000250: 3ace d63e 54b0 afbe 1294 c83d 2277 4abe
00000260: 1803 85bd 66d3 a5be f19d d53e 1c9b 9dbe
00000270: 2746 7a3e e5ef 3a3e 93ca 1a3e 9b15 7abe
0.33062708 0.32740045 -0.07685597 0.4646078 -0.040357225 0.04713621 -0.26550028 0.23943779
0.38469005 -0.32958928 0.42717567 0.022887658 0.24870458 0.07809694 0.23318377 -0.097131364
0.3208839 0.014581497 -0.23725264 0.09488638 -0.15244089 -0.009798136 -0.17817181 0.28364286
-0.3991111 -0.12026912 -0.03814818 -0.21528809 0.017881973 -0.525369 0.44424266 -0.3679822
0.3311768 0.08774446 -0.12846908 0.29181835 0.045667212 0.29433304 -0.023668375 -0.19371048
0.062964395 -0.12620535 0.21283607 0.38293755 0.356966 -0.20475873 0.24216248 0.08368384
0.20523019 -0.29640907 -0.4113446 -0.15980192 -0.35280275 0.36323452 0.16565813 0.20000169
0.14614813 0.0183931 0.33713174 -0.32232428 0.06928196 -0.26691157 0.19539621 -0.12703036
0.15403429 -0.020913057 0.44004744 -0.19666813 -0.1952243 -0.23859139 0.37625018 0.1413118
0.41861102 -0.38360608 -0.46542695 -0.36245987 -0.3206016 0.14770237 0.14955617 0.36618036
-0.24186137 -0.3321153 0.19005045 -0.18612239 0.2838971 -0.04494674 0.3172876 -0.30864704
-0.20032915 0.12762469 0.062429294 -0.122700386 0.23265861 0.24523477 -0.37858745 -0.18055002
0.47083673 -0.096464455 -0.10214818 -0.40155226 -0.13666536 0.19425182 -0.004100306 -0.398627
-0.041427474 -0.26454177 -0.31751487 -0.19982028 -0.4263271 -0.35667175 0.4481125 0.10443503
0.15720111 -0.40385723 -0.29750544 -0.09625327 0.11533222 -0.4008854 -0.25631547 -0.2669151
0.06805114 -0.09199462 0.027659656 -0.33566332 -0.3486552 -0.27192986 -0.17262626 -0.33668324
0.37974787 -0.10484931 0.32026938 0.08119874 -0.4413863 0.26541576 -0.15918308 -0.11074042
-0.30545866 -0.4781468 0.09080219 -0.17959528 0.20816323 -0.3412933 0.37823653 -0.27405483
-0.009703769 0.16088673 0.23172586 0.2912806 0.41954213 -0.34314215 0.09793867 -0.19772008
-0.06494731 -0.32387847 0.41722062 -0.30782402 0.24440823 0.18255575 0.15116338 -0.24422304

cnn.0.bias f4 [32]
00000000: 9a42 cb3e c191 963d 20c6 533d 0cb3 b5be
00000010: bf8d 2a3e 88b0 89bd 3053 50be 4c33 cc3e
00000020: 4cc0 bc3d a466 8bbe a691 6cbe fcaf 7bbd
00000030: da89 7b3e 03e0 e0bd dd27 77be 0121 07be
00000040: f02d 9dbe a60c 0e3e 4d2f b23e c882 debe
00000050: 90e6 b43d 28ab 653e 777c b93d da33 3cbe
00000060: f788 503e 6557 803e eb0d 423e 48a3 88bd
00000070: 3fea f1bd 37c1 063d 6a33 6ebd d05a fabd
0.3969925 0.07352019 0.05170262 -0.35488164 0.16655634 -0.06723124 -0.20344234 0.39882886
0.09216365 -0.27226746 -0.23102435 -0.06144713 0.24564305 -0.10980227 -0.241363 -0.13196184
-0.3069911 0.13872012 0.34801713 -0.43459153 0.08833039 0.22428572 0.09056943 -0.18379155
0.20364748 0.25066677 0.18950622 -0.066717684 -0.11812257 0.032899108 -0.0581545 -0.12224352

cnn.1.weight f4 [32]
00000000: 3828 753f b8f0 783f d154 773f 83fa 7a3f
00000010: 3a54 7e3f f17b 793f 7d6b 723f d67c 743f
00000020: 4a57 713f cd07 7f3f 7402 813f d645 753f
00000030: d6ed 7c3f 734a 813f f604 873f 1cbb 8b3f
00000040: 2d4d 7d3f de9d 7f3f c917 713f 2a45 803f
00000050: 3fee 773f 235b 743f 2ba8 823f 70d8 6d3f
00000060: 6bab 793f b4f7 693f b301 803f 7a96 763f
00000070: 7efd 893f bd07 743f 19bc 833f 64d4 833f
0.95764494 0.9724231 0.96613795 0.980385 0.9934727 0.97454745 0.94695264 0.95502985
0.9427382 0.9962128 1.0078874 0.95809686 0.9880041 1.0100845 1.0548389 1.0916476
0.98945886 0.9985026 0.9417692 1.0021107 0.9684791 0.95451564 1.0207571 0.9290838
0.9752719 0.9139359 1.0000519 0.9632336 1.0780485 0.9532431 1.0291778 1.0299191

cnn.1.bias f4 [32]
00000000: f807 7dbd f9a9 9dbd 435a 82bd 55a1 d23a
00000010: d6a1 96bc 4ba5 22bd eec0 41bd bfcf 6dbd
00000020: a683 b4bd d6f0 dbbd 14de 8a3c bd68 26bd
00000030: 0a9e 4abd 0e36 f0bc d58d 13be 198e 253e
00000040: a5ce 533c f63b fabc 651d e4bd 1182 e5bc
00000050: 5e36 31bd ca93 35bd 67f3 26be 3730 82bd
00000060: a3a2 10bd 7b5b 85bd c8ee 043d 00f3 34bd
00000070: 271c 39bc 414a 94bd 9eae 993d 5cbd 3abd
-0.061775178 -0.07698435 -0.06364872 0.0016069809 -0.018387716 -0.039708417 -0.047303133 -0.05805945
-0.088141724 -0.10739295 0.016951598 -0.04062723 -0.049467124 -0.02932265 -0.14409573 0.16167487
0.012927686 -0.03054617 -0.11138419 -0.028016122 -0.04326474 -0.044330396 -0.16303788 -0.063568525
-0.035311352 -0.06511589 0.032454282 -0.044177055 -0.011298216 -0.07240725 0.07504009 -0.045590743

cnn.1.running_mean f4 [32]
00000000: df4e 623f bc86 eb3d 0c8c 083f 1855 9dbe
00000010: 46b7 46bd e018 fabe d01d e0bc 8942 1a3f
00000020: 5218 053f 4c64 82be 1852 d9be 3882 fa3d
00000030: b122 813e 756a 57be b856 3ebe 3c28 0fbe
00000040: eda1 e2be 0252 ac3d 028c bf3e deee 14bf
00000050: c5b4 c8bd 4348 06bf 691a ce3d 6f34 1fbf
00000060: 5011 fdbd 008b 683a 74d8 5e3e 0c08 0bbf
00000070: 3ca1 0abe 33c5 cf3e 1f81 c5bd 46e5 dabd
0.884016 0.11500308 0.53338695 -0.30728984 -0.048514627 -0.48847103 -0.027357966 0.60257775
0.51990235 -0.25467145 -0.42445445 0.122318685 0.2522178 -0.21036704 -0.18587768 -0.13980192
-0.44264165 0.08414079 0.37411505 -0.5817698 -0.09800104 -0.5245401 0.10063631 -0.6218938
-0.12356818 0.000887081 0.21762258 -0.54309154 -0.13538069 0.4058014 -0.096437685 -0.10688262

cnn.1.running_var f4 [32]
00000000: 91b2 3e3d 3611 0f3b 1310 3c3d 63fd bf3a
00000010: cb0f 233c 19c5 153d 45de f33b 4c43 163c
00000020: aabb 213d e9bd b53a 5130 453c f8e5 f53b
00000030: aa0a 343a 307c c63b 7b1d 163c 8049 083c
00000040: bb14 e03b d636 0e3b e5e5 b33a 6828 053c
00000050: 9981 053c ccd9 e23d ca7e 073c f08f 203d
00000060: 995a c53c 12a7 623c 54c9 543b eca0 353d
00000070: a51a a03a 879c e03c 31bd e13a 3c02 073b
0.046557013 0.0021830327 0.045913767 0.0014647659 0.009952496 0.03656492 0.007442268 0.009171318
0.03948561 0.0013865802 0.012035445 0.007504221 0.0006868044 0.006057285 0.009162302 0.008318305
0.0068384088 0.0021700165 0.001372513 0.008127309 0.008148574 0.11076698 0.008269975 0.03919977
0.024091052 0.013833778 0.0032468634 0.04434292 0.0012214972 0.027418388 0.0017222521 0.0020600697

cnn.3.weight f4 [64, 32, 5]
00000000: d201 723d 01ba a53d b8e9 d43b 66aa 52bc
00000010: fc8c c4ba bc18 0abd e87f 903a 32cf 2b3d
00000020: 6767 4abd 0832 6dbd fc21 a13d 8df8 3a3d
00000030: f367 a83b 9adb 37bd 09e6 56bd b069 aabd
00000040: 19f1 36bd 779d 063b 2e92 6b3d 61ce 263d
00000050: 8972 01bd 1bb9 d1bc 622b 2a3c 5c86 c93d
00000060: 0137 1d3d 7f49 803c 3897 6f3d 7c1f 0cbc
00000070: 9336 f9bc 1b40 ac3d 8c0f 1dbd 1534 88bc
00000080: 360b 88bd ae2b 853d bc4a 4a3d 7125 d23c
00000090: 4927 56bd 9918 60bd 9298 08bd 471d 843d
000000a0: 26dd 553d dff4 a73d a80f 1c3d c2e8 b83b
000000b0: cf2b 61bc 14b1 87bd 88ae acbd 73c3 57bd
000000c0: c1db 4a3d 5f53 5abd 4c2f 0d3d 7e37 5cbc
000000d0: 07ed 923c 0065 85bb 838b 213c 8e55 8d3c
000000e0: 9db3 91bc e705 b03d f9bb 633b 0304 87bd
000000f0: 3fc4 153c b967 b2bc 06ff c4bc e46c 07bd
00000100: d7ed 923d 0b08 16bd 771d 653d bbba 353d
00000110: e0b7 5c3d ec6e 50bd 47a3 733d 407a 07bd
00000120: 06eb 623d 57f6 f53d 0a7a be3c 6e4e 153d
00000130: 9ab5 063c c617 8dbd 72fa 9a3d adb3 443d
00000140: 5d3d c93d f849 c73d 6d77 c23d 6fe1 123d
00000150: b0b3 88bb 04b9 003d e5fe 8a3d 8850 50bd
00000160: b709 efbb ebab 0abd 0088 cbbc 66ce 6cbd
00000170: 35cd 45bb a59f 0e3c 743b cebd c061 b83d
00000180: 2bd3 ae3d dbff 47bb 0803 a7bb 4658 82bc
00000190: 20d7 25bd ea6a 37bd d86c 3d3d 08c6 edbc
000001a0: ddbf c9bc 71c9 ff3c 2acc 9e3b 441e d3ba
000001b0: a74d d83c 6095 593c ab2d aebc e49f 28bd
000001c0: d08a 6abd 0327 c93d c629 12bc 3834 5d3d
000001d0: b595 193a d04f ee3c 1774 bb3d 2a3f 783d
000001e0: c046 16bd e4b4 663d a527 ba3d a6bb 1d3d
000001f0: 0d8c 983d c672 f53d bb4b 683c 35a9 333d
00000200: a54b 89bc fe29 e53c 83aa 5d3d 6ed5 923c
00000210: cb91 6bbd 4e28 abbd 41fd 67bd 233b 1fbd
00000220: 8ad1 fcbc 2a20 123c df4d a43d 4911 333d
00000230: 5fce 74bd 4444 94bd bfb7 953c 7c83 35bd
00000240: 2f1a 40bc e5a7 133d abfd cebc 2d5b bb3c
00000250: ed64 1d3c 0c51 fcbc 98e0 d3ba dbc4 4f3c
00000260: 5036 a43b 7ff9 2e3d ff7c c73d 5d96 05bd
00000270: 933a 86bd cefd c33c 7b60 f83c 920a 863d
00000280: fb28 573d ed54 143d 77c9 a2bd 411b 3e3c
00000290: e09c 3b3d 3477 983c a889 69bd 6394 673d
000002a0: 33c8 efbb 42ef 07bb fe32 a6bd b672 4839
000002b0: 3d00 133d bee9 ad3c 3260 683c 1062 5bbd
000002c0: 4f8f 62bd ff66 653c 4680 803d 3807 323d
000002d0: 3e69 1cbd 9658 0abc 2692 13bd 65a5 89bc
000002e0: e5e5 163d e8e9 4b3d c72e 943d 589a 61bd
000002f0: af9f 8f3d c371 0fbd 7d5f 103d e675 803d
00000300: 6d9f 43bc da6c a63d a94c 50bd 5476 10bd
00000310: 391c 283d 7435 07bd 5453 d4bc cf70 06bd
00000320: 62ac 593d f6be 0d3d 9253 ac3c 6131 17bd
00000330: 7314 67bd 875c 4b3d bcce 11bb 4d7a 92bd
00000340: ee1c 52bd 5246 dc3d 52a1 1abc 5567 20bc
00000350: d4db 0abd c876 cebd f207 ebbd 0e72 13bd
00000360: ae09 70bd bb85 9d3b 863a b5bc 15bc b4bc
00000370: 1543 a23d 53a3 f33c 6486 753d 8306 2dbd
00000380: 3446 45bd 55e3 723d 2883 84bc ecd6 c9bc
00000390: 8847 143d d8a1 e33c 0dc3 46bd b728 993c
000003a0: 553c 103c 6b7c 05bd 7000 6ebb e5f1 bfbd
000003b0: 3c5d 7cbd 79da e2bc 7eb2 eebc 9d16 05be
000003c0: db93 28bd db94 f83c 5a32 bcbd 17a8 403c
000003d0: 8f4b a4bd 1210 2a3c ea9b 503c 983b fa3c
000003e0: 83fe 7bbb d8b2 a03d 807d ac3c 580c 3c3d
000003f0: 0b22 573d 2bf2 d7bc 87d5 5cbc ad74 bc3d
0.059083767 0.08092118 0.006497588 -0.012858009 -0.001499563 -0.033714995 0.0011024447 0.041945644
-0.04941502 -0.05790904 0.0786781 0.045647193 0.005139345 -0.044887163 -0.052465472 -0.083209395
-0.044663522 0.0020540634 0.057512455 0.040724162 -0.03160337 -0.02560096 0.01038632 0.0984008
0.038382534 0.015660046 0.058493823 -0.008552428 -0.03042153 0.08410665 -0.038344905 -0.016626397
-0.06642763 0.06502472 0.04938768 0.02565262 -0.05228356 -0.05471096 -0.033348627 0.06450897
0.052212857 0.08201002 0.03810087 0.0056429813 -0.013743355 -0.06625572 -0.08431727 -0.05267663
0.04952598 -0.053302165 0.034468934 -0.013440965 0.01793529 -0.004070878 0.009859922 0.01725271
-0.017785842 0.08594876 0.0034749492 -0.06592562 0.009141027 -0.021777974 -0.024047386 -0.03306283
0.071742706 -0.036628764 0.055936303 0.044367533 0.053886294 -0.050887033 0.059481885 -0.03307557
0.055399917 0.12009876 0.023251552 0.03645175 0.008222008 -0.068893 0.075673 0.048022915
0.09826157 0.09730905 0.09495435 0.03585952 -0.004171811 0.031426445 0.067868985 -0.05085805
-0.0072948593 -0.03385536 -0.024845123 -0.057814024 -0.0030182127 0.008705054 -0.100699335 0.09003019
0.08536371 -0.0030517492 -0.005096797 -0.015911233 -0.040488362 -0.044779696 0.04624638 -0.029025093
-0.02462762 0.031223984 0.0048461156 -0.0016107042 0.026404215 0.013280243 -0.02126201 -0.04116811
-0.05726129 0.09821894 -0.008921092 0.054004878 0.0005858795 0.029090792 0.09153002 0.060607113
-0.036688566 0.056324854 0.09089593 0.038509034 0.074485876 0.11984782 0.014178212 0.04386254
-0.016759703 0.027974125 0.05411769 0.017924037 -0.057512086 -0.08357297 -0.056638006 -0.038874757
-0.030861635 0.008918801 0.08022665 0.043717656 -0.059767123 -0.07239583 0.018276094 -0.044314846
-0.011724993 0.03604879 -0.025267443 0.022870624 0.009606582 -0.030800365 -0.0016164957 0.012681211
0.0050113574 0.042718407 0.09740638 -0.0326141 -0.06554141 0.023924734 0.030319443 0.06544985
0.052529316 0.036213804 -0.079485826 0.0116031775 0.045803905 0.018611528 -0.057016045 0.056537997
-0.007317567 -0.0020741974 -0.08115195 0.0001911622 0.0358889 0.021229621 0.014183091 -0.053560317
-0.05531245 0.014001607 0.06274466 0.043463916 -0.038186304 -0.008443972 -0.03602805 -0.0168025
0.03684034 0.049783617 0.072354846 -0.055078834 0.07012879 -0.0350206 0.035247315 0.06272487
-0.011939866 0.081262305 -0.05085436 -0.035269096 0.04104254 -0.03300996 -0.02591864 -0.032822426
0.053142913 0.034605943 0.021035943 -0.036912326 -0.056415986 0.049648788 -0.0022248467 -0.07152233
-0.05129712 0.107556 -0.009437876 -0.009790261 -0.03390105 -0.100812495 -0.11476125 -0.035997443
-0.05860298 0.0048072017 -0.022122633 -0.02206234 0.07922951 0.029740965 0.059942618 -0.04224254
-0.048162654 0.059298832 -0.016175821 -0.024638616 0.03620103 0.027787134 -0.04852586 0.018696172
0.008803447 -0.032589357 -0.0036316179 -0.093723096 -0.061612353 -0.027692067 -0.029137846 -0.12996908
-0.04115663 0.030344417 -0.09189291 0.011758826 -0.08022224 0.010379808 0.012732485 0.030545995
-0.0038451261 0.07846612 0.021055937 0.04591021 0.0525227 -0.026360592 -0.013478643 0.09201942

cnn.3.bias f4 [64]
00000000: 46e3 3a3d ca2a 03bd 4cb3 2ebd 4ccb 963c
00000010: 3b87 99bc a8e6 0d3c ed8f c53d 21ba 7e3d
00000020: 808d 893a dd03 99bd 8e72 ebbc 272e 11bd
00000030: fc53 abbd 5915 823d b7f2 043d 12b9 a4ba
00000040: 9b27 bbbc abff 29bd cdf7 df3c 0ae9 f33a
00000050: 4fa4 f1bc a66e 0c3d 6e20 1f3a eb92 1a3d
00000060: a814 143d 4335 47bd 45bb 72bd be9b 2c3d
00000070: 042c 59bd db24 0c3d a104 05bd 3116 3c3d
00000080: ca72 0ebd 58b2 5ebc 49a4 b3bd 22e4 6f3c
00000090: 5b40 92bd 426d 4f3d 2c48 823d 3f66 e4bc
000000a0: c635 6bbd fd43 173d 15f5 80bc 5225 e7bc
000000b0: 668a 1f3c a1f4 7ebd a6b3 74bd d890 d2bd
000000c0: 2136 cc3b e754 a03c 0c18 623c e890 003d
000000d0: 9fa4 163c 8e04 04bd cafd 7b3d 9f9e b53c
000000e0: 4325 bfbb 4faa 1abd c227 84bd ac80 89bd
000000f0: 9188 8bbc 528f 3c3d 62bc fc3b 1659 113d
0.0456269 -0.03202323 -0.04265146 0.018407486 -0.01874124 0.00866095 0.09646592 0.062189225
0.0010494441 -0.0747144 -0.028741147 -0.035444405 -0.08365628 0.06351728 0.032458033 -0.0012567362
-0.022846034 -0.04150359 0.02733984 0.001860888 -0.029497294 0.03428521 0.0006070201 0.03773777
0.03615251 -0.04863478 -0.059260625 0.042140715 -0.053020492 0.034214836 -0.032475118 0.0459196
-0.03477744 -0.013592325 -0.08771569 0.014641793 -0.07141181 0.050641306 0.06361422 -0.027880786
-0.05742433 0.036930073 -0.015741864 -0.028216038 0.009737587 -0.062245015 -0.05974164 -0.10281533
0.0062320386 0.019571735 0.0137996785 0.031388193 0.009194522 -0.032230906 0.06152133 0.022170363
-0.0058332994 -0.037760075 -0.06452896 -0.06713995 -0.017032893 0.04603512 0.0077128867 0.03548535

cnn.4.weight f4 [64]
00000000: 6e46 7f3f ac2c 813f ee9d 813f bfee 803f
00000010: 7ba9 7a3f 9b94 7c3f 6ac0 803f e330 793f
00000020: cf1c 823f 9154 7c3f 7f02 843f 3cc6 803f
00000030: 0c76 823f 2938 833f 3b3a 803f 54ae 7f3f
00000040: 58a5 823f becd 803f f96f 7f3f 9219 813f
00000050: 948c 823f a5a9 7f3f 3684 803f 99c1 7e3f
00000060: 66b8 7d3f 1f8b 803f 7e9d 7d3f ba2a 7f3f
00000070: 7f5b 813f 8a27 7c3f c113 803f 4892 7c3f
00000080: 71c4 7d3f d068 833f 0e3f 7c3f d421 813f
00000090: 2574 803f 32f9 803f af76 783f be7f 7e3f
000000a0: 681b 803f 0b20 813f a589 803f 83f2 7e3f
000000b0: cb6c 813f 7858 803f 7c80 7f3f ce03 7f3f
000000c0: 35c1 823f 8b3f 813f 94a8 803f 147a 813f
000000d0: 4f58 853f 140b 813f 0a9a 823f 19cc 783f
000000e0: ff8e 803f 1a61 7d3f 15b8 7d3f 6686 763f
000000f0: 92ba 823f ba4f 7c3f 93fa 803f 26a9 803f
0.9971684 1.0091758 1.0126321 1.007286 0.97914857 0.98664254 1.005872 0.9734022
1.0165042 0.9856654 1.0313262 1.0060496 1.0192275 1.0251514 1.001777 0.9987538
1.0206709 1.0062788 0.9978023 1.0085928 1.0199151 0.9986823 1.0040348 0.99514157
0.99109495 1.0042456 0.9906844 0.9967457 1.0106047 0.9849783 1.0006028 0.9866071
0.9912787 1.0266361 0.98533714 1.0088449 1.0035444 1.0076048 0.97056097 0.9941367
1.0008364 1.0087904 1.0042006 0.99588794 1.0111326 1.0026999 0.99805427 0.9961518
1.0215212 1.0097517 1.0051446 1.011538 1.0417575 1.0081506 1.0203259 0.9718643
1.0043639 0.9897629 0.9910901 0.96298826 1.0213187 0.98559153 1.0076469 1.005162

cnn.4.bias f4 [64]
00000000: b589 10bc 6af2 8fbc 6b36 adbc 20e1 b4bc
00000010: fda6 12bd c150 cabc 7e13 adbc 6d7c febc
00000020: 39a6 88bc 60e3 15bd 1927 2abc 2e82 dbbc
00000030: 6d88 c7bc cd84 7abc 2112 69bc 0d4a d8bc
00000040: ac1c 89bc 7812 a7bc 4210 bcbc 173a 213b
00000050: 59d3 f1b9 dcae b1bc 4834 b5bc 11e2 e6bc
00000060: 4637 1bbc 9adc bfbc 5afb 15bc 4344 ccbc
00000070: 1e43 45bc d31e 1dbd 9f22 fbbc e4e2 10bd
00000080: 054f afbc 469b 95bc 11e4 a0bc 00fe f1bb
00000090: efe8 afbc d618 89bb 6fe5 c3bc b076 b0bc
000000a0: a759 b9bc 0b14 8dbc 42ca c1bc efa5 a3bb
000000b0: 3ebe d7bc 042c babc 8a17 bfbc 4e4b 5dbb
000000c0: 0089 b8bb c997 9dbc 3e43 83bc 2173 a9bc
000000d0: ba34 ee3b 96d7 abbc f501 33bb b1c9 9fbc
000000e0: 6e10 96bc cc64 05bd 67ce c2bc 9280 2ebd
000000f0: 656a bebc b93e 2ebd 18bd 3c3b a7e8 a13b
-0.008821894 -0.017571647 -0.021144113 -0.022080004 -0.035803784 -0.02469671 -0.021127459 -0.03106519
-0.016680824 -0.036593795 -0.010385298 -0.026795473 -0.024357045 -0.015290451 -0.014225514 -0.026402498
-0.016737305 -0.020394549 -0.022956971 0.0024601275 -0.00046124568 -0.021689825 -0.022119656 -0.028183969
-0.009473627 -0.02342062 -0.009154165 -0.024934893 -0.012039928 -0.038359474 -0.030656157 -0.03537263
-0.021399984 -0.018262517 -0.01964 -0.0073850155 -0.021473376 -0.004183869 -0.023913113 -0.02154097
-0.022625757 -0.017221471 -0.023656014 -0.004994146 -0.026335832 -0.022726066 -0.023326654 -0.003376681
-0.005631566 -0.019237416 -0.016023275 -0.02068478 0.007269469 -0.020976823 -0.00273144 -0.019505354
-0.018318381 -0.03256683 -0.023780061 -0.042603083 -0.023244092 -0.042540286 0.0028799232 0.0049410644

cnn.4.running_mean f4 [64]
00000000: 0828 0f3f 64c7 873d c0d9 6c3f 7848 2b3f
00000010: 642f fe3d fcbe 3a3f ef07 2e3f 96ee 2e3e
00000020: fa19 2f3f 3081 083f c31f cbbd 04c9 e43e
00000030: 1187 1b3f 9ef1 fcbd e2e8 cf3d 4bf6 07be
00000040: 5b5a 393f 0a93 ad3e 3321 8d3e 6d6a 89be
00000050: 5eea b53d 1928 da3e f419 243f 51c0 073f
00000060: b45f 39bf 4365 e73e 82d0 54bf ada2 2b3e
00000070: 0a12 333f 36a4 d73d f53e 173f 5916 0a3f
00000080: 7175 553e f834 3dbd 51b5 3e3e b4ab bc3d
00000090: 91ce a13e 5ffe 6a3e c836 1ebf 9cfd 6ebe
000000a0: f0d1 b13e d4d2 633f cec9 d03e 23ee 78bf
000000b0: 109b 663f bfd1 193f 2214 923d 444d 58bf
000000c0: ff30 353f 7577 193f 84a5 8f3e 7b4c 3d3f
000000d0: d461 7abd fd04 9b3e 00c9 dc3e 69aa a0be
000000e0: d746 fb3e 3e1a 6fbe 05e8 e63e 6897 a6bd
000000f0: 31a0 c53e c457 513f f056 c1be 0f5e bcbe
0.5592046 0.066298276 0.9251976 0.66907454 0.12411383 0.7294767 0.67980856 0.17083201
0.6839901 0.53322124 -0.099181674 0.44684613 0.6075297 -0.12350772 0.10151841 -0.13277547
0.72403497 0.33901244 0.27564391 -0.2683901 0.088825926 0.42608717 0.641021 0.53027827
-0.72411656 0.45194444 -0.8313066 0.16761275 0.699494 0.105293676 0.5908044 0.5394035
0.20845582 -0.046193093 0.18623854 0.09212437 0.3160291 0.22948597 -0.6180234 -0.23338932
0.34730482 0.88993573 0.40778965 -0.9723837 0.90080357 0.6008567 0.07132746 -0.844929
0.7077789 0.599479 0.28055966 0.73944825 -0.061128452 0.30277243 0.431221 -0.31380013
0.49077484 -0.23349854 0.45098892 -0.08134347 0.3859878 0.81774545 -0.3776164 -0.3679051

cnn.4.running_var f4 [64]
00000000: 3554 353f 80c4 7b3e 44e1 c93e 89da 0c3f
00000010: 7019 543e 3383 5a3f 2658 fe3e e5b1 2d3f
00000020: 9e7f ac3e c01d 0d3f 1de4 a23d 52cb 803e
00000030: 443f 8b3e e2e6 ab3d e436 963e d6ee 733e
00000040: 8f5d c43e 7247 b33e 8be4 813e 9a80 5a3e
00000050: 3f0e 713e b5aa b33e b7e3 0d3f 7e14 ca3e
00000060: b9b7 683f 3ca7 d53e 756f 8f3f 3916 593e
00000070: 2ca0 cd3e d16f ce3e 7a13 303f 53db 973e
00000080: 29a7 823e 7252 da3d 519a 683e a345 903e
00000090: fb65 bc3e 606c 2a3e b53f 773f 7d65 dd3e
000000a0: 2fd3 b73e 8896 b83e d6c3 1e3f fba8 923f
000000b0: e5cb e53e c45b dc3e 58b6 8c3e 2994 743f
000000c0: 8a30 833e 0646 143f 25fe 963e 2d42 1c3f
000000d0: 30ab 1b3e 3575 af3e 53f3 383e 34d8 9e3e
000000e0: 22d3 ae3e f95d a93e dfef e83e d5ee d43e
000000f0: 5d0e 253e d124 d73e 4bbf c23e 7aa9 bc3e
0.70831615 0.24586678 0.39429677 0.5502096 0.20712829 0.85356444 0.49676627 0.6784957
0.33691114 0.5512352 0.079536654 0.2515512 0.27196705 0.08393647 0.29338753 0.23821577
0.3835263 0.35015446 0.25369677 0.2133812 0.2354059 0.35091177 0.5542559 0.3946876
0.9090534 0.41729152 1.1205889 0.21199884 0.40161264 0.40319684 0.6877972 0.2965952
0.25518158 0.106602564 0.22715117 0.2817813 0.36796555 0.16642904 0.96581584 0.43241492
0.35903308 0.36052346 0.6201757 1.1457819 0.44882122 0.43038762 0.27482867 0.95538574
0.2562297 0.5791935 0.29490772 0.61038476 0.15202022 0.3426911 0.18061571 0.31024325
0.34145457 0.33079508 0.45495507 0.41588464 0.1611876 0.42020276 0.3803657 0.3684805

lstm.weight_ih_l0 f4 [512, 64]
00000000: e92a d33d 7142 d83a ae10 29bc 50e1 e83c
00000010: c2b8 a53d f8d8 953d cf53 ae3c 469c 0a3c
00000020: 7fe8 1fbd 29b0 0b3c 1f17 d0bc 048d d5bd
00000030: c91e 1f3d 90a2 5bbd 8120 82bd df94 15bc
00000040: e6ad 77bc bed0 b83c 1e03 813d e190 d13c
00000050: 24bf 793d 8f24 36bd 1e64 833d bda5 913d
00000060: f9c0 95bd b78a f43c 164f 08bc d1e6 053d
00000070: f375 273d 0603 dd3d 9bfd e43d a421 363d
00000080: a842 6f3d ff60 4a3d 4b4b adbd 44e5 a73d
00000090: 2ffb ba3c 86bf 2a3d 57b6 abbd c39d 9a3d
000000a0: a3fd 383d 6f83 72b9 dcf3 4dbd 87e0 f6bc
000000b0: dcf7 80bd afc4 dc3d 0c21 75bd b935 35bd
000000c0: ab19 77bd e8f9 1cbd ba89 6e3d 12ae eabc
000000d0: cb18 1b3d 621b 043d a7e1 64bd 73cb 26bd
000000e0: 642a 183d ff17 b5bc b88f 02bd d765 0abd
000000f0: 2ef4 58bc 2415 dbbd 5261 f23c 2ef2 103d
00000100: e9ec ae3d 57fe 553d d940 f2bc 176d 73bd
00000110: 90d5 4e3d 4169 b6bc efe1 c2bd f49b 4ebd
00000120: e141 ba3d 0d58 93bd 780b 933d 0777 47bd
00000130: 4666 ab3d 7a64 803d 4726 103d fb01 a3bc
00000140: ab4c 973d e3d5 3b3d fb3d 04bd 91a5 9cbd
00000150: 5808 2bbd 2f8b 083d 12c3 a8bd b2eb c1bd
00000160: c7a4 9bbd fa95 7cbd 11af 4d3c fad3 d2bd
00000170: 635b e5bc afc0 843d 7d6b 36bd 44fb 5cbd
00000180: 0420 df3c 4906 e7bd ea5b 80bd dd19 fdbb
00000190: c541 303b b037 8ebd 999d a43d 4933 75bd
000001a0: dc33 27bc 3a54 ae3d ceaf f03b f2d8 c83c
000001b0: 6966 65bd e937 d9bd b651 593c 115f 3dbb
000001c0: c71d a03d 758c 8d3c dd48 c3bd 37cf 9ebb
000001d0: 3349 fabc eb49 9bbd a277 3f3d 2155 6dbc
000001e0: fe72 a5bd 8690 403d def8 463d 09fb bbbd
000001f0: b66c e13d b8f2 8a3d 67cf 88bc 1dd8 bbbd
00000200: 4877 3abd cfc4 e73c 0375 bcbc c196 d2bc
00000210: 7e0f 06bd 4300 8c3d a46d a53d 5042 89bd
00000220: 4ba7 22bc 705e ac3d c3ea 83bb 1b98 abbc
00000230: 7c29 c43c fd73 923d 094e 81bb b65e a3bd
00000240: 6a61 dfbb 5eb9 4d3d 21f7 28bc cb01 743d
00000250: 4654 023d be5b a839 2d47 1b3d 6e41 0dbc
00000260: 367d 96bd 21d3 92bd 0c0c 8bbd d16b 0dbc
00000270: 1a91 63bd 7236 2a3c 0e07 793c 5216 943d
00000280: cd85 c7ba 748f 103d 4f91 6a3d 2561 9fbc
00000290: d8d6 36bd a2a6 88bd 3a55 a8bd 08f9 3f3c
000002a0: 7368 19bd 7650 1d3d 32c4 c33c 3552 8e3d
000002b0: 5f24 343b b24a 073c 4d89 853d 8265 583c
000002c0: 6a2f 603d 7e07 22bd 935e 7abd 10fd 8d3d
000002d0: 46d4 853d e630 adbc 8b9b df3c a0ad a3bd
000002e0: 9bd9 4b3c 3b7f c7bd fdd5 683d c9da c3bd
000002f0: 3706 b6bb 7f81 c13d 075b f9bc b788 4dbd
00000300: 029e a33d c114 23bd 8854 403d 6e35 683d
00000310: 4e15 e63c a5d1 84bd 85b1 b73d fa7b 4a3d
00000320: 720c f0bc 95fa 33bd 5699 9cbc b7a4 653d
00000330: bab4 7e3d 7c9d 753c 8f2c 8b3d 16e4 b93d
00000340: 999d 453d c82f 313d 2c19 703d 3f7c 883c
00000350: c5d1 543c e433 aa3d fb2e 8d3d 5250 833d
00000360: ca4f f9bc 0544 0fbd 6355 32bd fdc5 8bbd
00000370: fde0 133c d943 4e3d 24ed ac3c 41c7 b9bc
00000380: fca7 41bc 64c7 59bd dba1 d5bc 4308 7c3c
00000390: 54b7 41bd 2652 0c3d 879a a33d f8fa e73c
000003a0: 534f 9b3d 3f6b 04bd 79e1 f53b 93d1 aebd
000003b0: 8768 d93c 0243 58bd aeb9 b83d 6125 a0bd
000003c0: 5f1a 673d bb4d 30bd 8185 013d d2e8 ab3b
000003d0: a4e7 6ebc b1bf b0bc 39a5 983d e0c6 4bbc
000003e0: de79 973c d545 0cbd 1e9e 5fbd 6822 32bd
000003f0: 14be da3d 92e6 dc3d 976e 23bd 467c 263c
0.10310919 0.0016499293 -0.010318918 0.02842775 0.080918804 0.07316774 0.021280197 0.00846011
-0.039040085 0.008525887 -0.02540165 -0.10427287 0.03884772 -0.05362183 -0.06353856 -0.009129732
-0.015117144 0.022560474 0.06299423 0.025581779 0.0609733 -0.04446846 0.0641558 0.0711169
-0.07312197 0.0298513 -0.008319637 0.032690827 0.04088397 0.10791592 0.11181184 0.044465676
0.058413178 0.04940891 -0.084616266 0.08198026 0.022824852 0.041686557 -0.08384388 0.07549622
0.04516376 -0.00023127881 -0.05028139 -0.03013636 -0.062972754 0.10779702 -0.05984597 -0.044240687
-0.060327213 -0.038324267 0.058236815 -0.028647456 0.03786544 0.032252677 -0.05587926 -0.040721368
0.0371498 -0.022106169 -0.031875342 -0.03378853 -0.013241811 -0.10697392 0.029587422 0.03538721
0.08541281 0.05224451 -0.029571937 -0.059430208 0.050496638 -0.022266986 -0.0951575 -0.050441697
0.09094597 -0.07194529 0.07179922 -0.048697498 0.083691165 0.062691644 0.035192754 -0.019898405
0.0738767 0.045858275 -0.03228567 -0.07648767 -0.041756004 0.03333586 -0.08240332 -0.094687834
-0.07599788 -0.061666466 0.012553946 -0.102943376 -0.027997678 0.06482064 -0.044536103 -0.053950563
0.027236946 -0.11280496 -0.06267531 -0.0077240304 0.002689467 -0.06944215 0.08037872 -0.059863362
-0.010205235 0.08512159 0.0073451763 0.02451751 -0.05600587 -0.10606367 0.01326411 -0.0028895775
0.078181796 0.01727889 -0.09535382 -0.0048464793 -0.030552482 -0.07582458 0.04674495 -0.014485628
-0.08078574 0.04701283 0.048577182 -0.091787405 0.11007063 0.06784576 -0.01670046 -0.0917208
-0.04552391 0.028292088 -0.023005014 -0.02570665 -0.03272962 0.068359874 0.08077553 -0.06702101
-0.009927581 0.0841645 -0.0040257885 -0.020946553 0.023945563 0.07151029 -0.00394607 -0.07977049
-0.0068170326 0.050225608 -0.010312826 0.059572022 0.03181865 0.0003211181 0.037909675 -0.008621557
-0.07348101 -0.07169176 -0.06789407 -0.008631662 -0.0555583 0.010388957 0.015199436 0.0723082
-0.0015222371 0.035293058 0.057267483 -0.019455502 -0.044638485 -0.06672408 -0.08219381 0.0117170885
-0.037453126 0.03840681 0.023897264 0.069492735 0.00274875 0.008257555 0.06520329 0.013207795
0.054732718 -0.039557926 -0.06112535 0.069330335 0.065346286 -0.02114148 0.027295848 -0.07992101
0.012442018 -0.09741064 0.0568447 -0.09563214 -0.00555494 0.094485275 -0.030438913 -0.05017921
0.07989122 -0.039814714 0.046955615 0.05669158 0.02808633 -0.06485299 0.08969406 0.04943464
-0.02930281 -0.043940146 -0.019116085 0.056065287 0.062184073 0.0149911605 0.06795608 0.09076707
0.048246 0.04325846 0.058617756 0.016660808 0.012989466 0.083106786 0.068937264 0.06411804
-0.030433554 -0.034976978 -0.043538462 -0.06824873 0.009025809 0.050357673 0.021109171 -0.02267802
-0.011819836 -0.05316867 -0.026078155 0.015382829 -0.047293976 0.03425803 0.07988458 0.028317913
0.07583489 -0.03232884 0.007503685 -0.08536067 0.0265391 -0.05279828 0.090197906 -0.078196295
0.056421634 -0.04304288 0.03162146 0.00524626 -0.014581595 -0.02157578 0.07453389 -0.012437552
0.018490728 -0.034246285 -0.05459415 -0.043489844 0.10680786 0.10786165 -0.03990039 0.010161465

lstm.weight_hh_l0 f4 [512, 128]
00000000: e119 d13d 84ac c5bc 8b00 9f3d d956 593d
00000010: 4982 0bbd fbdf 963d ab46 d0bd 4a11 f93c
00000020: 631b 53bd 5828 393c ad32 213b 0291 a73c
00000030: a357 d7bc f94a 67bd 72d2 ffbb 569c 1e3d
00000040: 65ca a8bc 2d80 32bd 5e7e 603d f650 483c
00000050: ab5b 833d d78a 0d3d 194a acbc bc0a 5dbc
00000060: 8ff9 84bd 5b5a 023d 493b 8f3d 5ee5 c9bc
00000070: 2f61 c63d da05 bbbc ae45 1c3d 3e51 013d
00000080: 877e 273d ef09 703d f7a9 44bc 3b0a a6bd
00000090: 8b12 a4bd 2c45 9a3d af52 173d 6701 1aba
000000a0: 4fe6 103c afe9 27bd e812 88bd ecac fc3c
000000b0: 720a 97bd 14ff b3bb 84a6 9bbd aa4c 713d
000000c0: 0423 80bd 2f77 183d 675a eeba 7318 113d
000000d0: 5e57 cb3d 6f8d 653d 5ce2 2bbd 02aa 1d3d
000000e0: b7a2 9f3c d65c 64bd d3a9 593c 6995 ad3d
000000f0: f5d9 adbd 5dd5 51bd e2e0 96bd fb5c 5e3d
00000100: cf69 87bd 0bec 6ebc b7bf 3cbd 883d a33d
00000110: 9b09 d9bc 3324 8b3d 9e7c 0dbd c383 72bd
00000120: aa4e b23b fdba 1cbd 748f 4dbd 9706 c2bd
00000130: 462d 31bd 8c3b 07bd de70 b43d 112d 3b3d
00000140: 02e3 53bd 499c 2a3c a001 583d 6d63 7ebd
00000150: 2432 aa3d 18e9 ae3b 6db2 cdbd 2a83 0f3d
00000160: 540a 653d eac7 733d fb74 5bbd ff66 3ebd
00000170: 9dad 8b3c 37cf a1bd 8aa3 e33c 5058 66bd
00000180: 0f31 7a3c 2260 68bc 7418 873d 7af1 e0bd
00000190: ee94 1cbd 7ebc a33d 1ab5 21bd 9728 8d3d
000001a0: df9c 96bd 3fb6 f73c 8ec7 003c 1726 a93d
000001b0: 5a19 a53d 2431 b03c eb9f 62bc 56c3 003d
000001c0: ab40 a53d 8ec7 7ebd df05 fcbd c0d8 dfbb
000001d0: 58ac a0bd 7f73 903c 410d bc3b b063 873d
000001e0: e7cf 973d 304f 8fbd a2b4 9e3d 8323 bfbd
000001f0: 7f9e adbd 916d d23b b728 f33c e6e4 50bd
00000200: 28b2 d9bc b60f beba cb57 f3bb 94cd 88bd
00000210: 9564 1b3d bfdc ef3c 3f58 89bc 60fb e43c
00000220: afb9 393d d20a 94bc 1462 12bd 8590 d93c
00000230: 5fa8 febb 77a1 3f3d 4dd4 ad3d 6dde c0bd
00000240: 4c23 19bd 03bb b1bd bd89 0f3d 6473 b33d
00000250: b875 053d c28a aebb 8298 a73c c68a 623d
00000260: b093 42bd 6a09 f03c 7ce2 6cbc 4c3c d53c
00000270: 739b bdbc beae 5a3d b2bf 543d 6d29 8dbc
00000280: ba37 babc 85c1 95bd bc48 96bd 4bb2 c4bc
00000290: 9562 8dbd b28d 8bbb 48b8 603d 0696 643c
000002a0: 67ed 66bd 71d2 65bb 1a53 9abd c6dc 4dbd
000002b0: e667 adbd 007c 9b3d c48e fbbc 7ab9 ddbc
000002c0: 96a1 78bc f82d 613b e7bd ac3d 8bec dd3c
000002d0: ff37 723d c4eb 88bd 36eb 1f3d 8451 b2bd
000002e0: d324 cdbc 1e59 b3bd 0e2a 6d3c 1c76 923d
000002f0: 586d acbd 183a 4abd 2086 ba3d 6419 9bbd
00000300: b779 b6bd 3edc f13b c66a ac3c ebf7 ea3c
00000310: ff7d c7bb bd26 a6bd 2756 3dbd 8e93 bb3d
00000320: 724f b43d 1a29 fb3c af9c 23bd a17a 8a3d
00000330: ed11 7dbd 313e 94bd 6fe1 5dbc cce4 443d
00000340: 20e5 7f3d 8d75 673d f68d 39bd 5691 87bd
00000350: 4461 973d e89f 873d 5829 963d 80f9 a3bd
00000360: ad91 cd3d f754 043d 6ac6 913d 257f 823d
00000370: e20b d7bc 60a3 a43d 306b 07bc d9ef 14bd
00000380: 9cfe a83d d29b 013d 889d 9e3d 091a d23c
00000390: 6966 353c 4e56 8a3d 578c 9d3d 2f4a 3e3d
000003a0: 7a2d b5bc 62b0 15bd 417c fa3c bf69 abbd
000003b0: 3ffa 06bb 78b5 ac3d 8c80 7fbd 1986 13bc
000003c0: 378c 2cbd e58d 203d 433c 87bd 5fd2 133d
000003d0: 0045 7abd d4b6 b8bd 0166 01bd 5662 b4bd
000003e0: e61f ab3d a145 173d 3aa0 b63c e32d 16bd
000003f0: e161 1fbd 386b c13c cfd9 efbc 8c38 dabc
0.10210014 -0.024130113 0.077637754 0.05306134 -0.034059796 0.0736694 -0.10169729 0.030403752
-0.05153979 0.011301123 0.0024596856 0.020454887 -0.026286906 -0.056467984 -0.0078070695 0.038723312
-0.020604322 -0.04357927 0.054808013 0.012226334 0.06413969 0.034556236 -0.021031426 -0.013491329
-0.06492912 0.03182445 0.069937296 -0.024645504 0.09686505 -0.022829939 0.03815239 0.03157162
0.04089215 0.058603223 -0.012003413 -0.0810742 -0.08011349 0.07532725 0.036944088 -0.0005874843
0.008843972 -0.040994342 -0.06644231 0.030844174 -0.07375039 -0.005493054 -0.0760012 0.058911003
-0.06256679 0.037223037 -0.0018184901 0.035423707 0.09928773 0.056043085 -0.04196392 0.03849221
0.019486768 -0.055752598 0.013285118 0.08475763 -0.08488838 -0.05122887 -0.07367112 0.05428789
-0.06611978 -0.014582644 -0.04608127 0.079707205 -0.026493838 0.06794014 -0.034542672 -0.05920769
0.0054415064 -0.038264263 -0.050185636 -0.09473913 -0.043256067 -0.033015773 0.0881059 0.045697276
-0.051730163 0.010413238 0.052735925 -0.06210654 0.08310345 0.0053378455 -0.10043798 0.035037197
0.055918053 0.059516825 -0.05357836 -0.046484943 0.017050559 -0.07900851 0.027787942 -0.056236565
0.015270486 -0.014183076 0.06596461 -0.10983558 -0.038227968 0.079949364 -0.039479353 0.068925075
-0.073541395 0.030238269 0.007860078 0.08259218 0.08061476 0.021507807 -0.013832073 0.031436287
0.08068975 -0.06220203 -0.12305807 -0.0068312585 -0.07845372 0.017633198 0.0057388847 0.06610811
0.07412701 -0.06997526 0.07749297 -0.09332945 -0.08477496 0.0064217527 0.0296825 -0.050999545
-0.02657421 -0.0014500532 -0.007426237 -0.06679836 0.03793772 0.029280065 -0.016765712 0.027951896
0.045343097 -0.018071566 -0.035738066 0.02655817 -0.0077715362 0.046784844 0.08487759 -0.09417424
-0.037387177 -0.08678248 0.035043467 0.087622434 0.03258297 -0.0053266 0.020458464 0.055308126
-0.047504127 0.029301364 -0.014458295 0.026029728 -0.023145413 0.053389303 0.051940627 -0.017231667
-0.02273165 -0.073123015 -0.07338092 -0.024010798 -0.06903569 -0.0042588348 0.054863244 0.013951784
-0.05637875 -0.003506806 -0.075353816 -0.050259374 -0.08467083 0.075920105 -0.030707724 -0.027065981
-0.015175244 0.0034359675 0.084346585 0.027090332 0.059135433 -0.06685594 0.039042674 -0.08706954
-0.025041973 -0.08757232 0.014475359 0.07151434 -0.08419293 -0.04937181 0.091076136 -0.07573202
-0.08909934 0.0073809912 0.021047007 0.02868267 -0.006088018 -0.081128575 -0.04622474 0.09159003
0.088042155 0.030659247 -0.039944347 0.06761671 -0.061784673 -0.072384246 -0.013542517 0.04806976
0.06247437 0.05650859 -0.0453014 -0.066195175 0.07391599 0.066222966 0.073321044 -0.08006573
0.10037551 0.03230759 0.071179226 0.06371907 -0.026250783 0.08038974 -0.008265302 -0.03636155
0.08251688 0.031642742 0.077448905 0.02564718 0.01107178 0.067547426 0.07692783 0.046457466
-0.022116411 -0.036545165 0.030576827 -0.08369779 -0.0020595936 0.0843305 -0.06237845 -0.009004139
-0.042125907 0.03919782 -0.06603291 0.036089297 -0.06110096 -0.09019247 -0.03159142 -0.088078186
0.083556935 0.036931638 0.022293199 -0.036664855 -0.038911704 0.023610696 -0.029278664 -0.026638292

lstm.bias_ih_l0 f4 [512]
00000000: e585 04bc 0fb2 3fbd 180d 963a 8752 14bd
00000010: 7ec5 d2bc a371 a1bc 4cdf e33c 967d c53b
00000020: 5789 cabc ce5b 5bbb 25ee 323c 607e e83c
00000030: 4812 a43c 254d 9e3d 8b96 993c c94b 09bc
00000040: 4aac a0bd 59d1 4bbd 101a b43d 672b bc3c
00000050: 8ed1 a6bc ad3f a13c e41d 5e3d 1167 3dbc
00000060: 6a8d 5dbd b583 aa3a 1ffd b8bd 139c c8bc
00000070: 17e6 a7bd 420f 9ebd 7c87 a63d 7433 933c
00000080: 393a 7d3d 30b3 8a3d 41bf a7bd b2c5 d0bd
00000090: 51ea 96bc 1c9a a63d 40c9 c83d e36c edbc
000000a0: 3005 e0bd 381f 423a 37e5 c73d 4bdf 05bd
000000b0: 8d2e 113d 3456 13bc f2f0 56bd ecbb 503d
000000c0: 015d 2e3d 9c75 93bd fea6 8f3d 1ecb cf3c
000000d0: 05ca 8bbc 2afa b9bd 3fab 8f3c 8c2f 79bd
000000e0: a962 043d edb5 62bd a405 31bd c374 06bd
000000f0: 77b8 ff3c d9bd 3f3d 76bb 883d 91ab 83bd
00000100: 2c1f e9bc 9450 703d c960 3fbd 7399 7b3d
00000110: 98dd 80bd 4953 5fbd 6615 18bc 03e9 b63d
00000120: 404d 823d 0a2c 433d 1109 2d3c 65cc a63d
00000130: db31 74ba 9fba 91bd 3452 aebd 175d b7bc
00000140: 7c4d 6cbd 54f2 37bd 383c 89bd 7eea c1bd
00000150: 1295 19ba f31d 9a3c 055c 65bd 8a2c e8bb
00000160: e943 8c3d c3ad 233d 5d5c 2c3d 75a7 313d
00000170: dbc2 863b f9f9 a63c 62f4 22bd 90c7 d8bc
00000180: 4ce0 543c feea e13b 42bf 4f3c 4837 70bd
00000190: c91e 21bd a4a5 52bd 77de 523d 1c39 73bd
000001a0: f743 a53b 2062 813d 0905 9b3d f6d1 fbbc
000001b0: 0a01 cbbd b870 16bd 650c 543c eadc a83d
000001c0: 66a4 b1bd 4df6 8ebc 127e a2bd 72e0 9ebc
000001d0: 91b6 6fbd 5aff 2bbc 29a9 0c3d ae54 9fbd
000001e0: eb68 d1bd 9a27 dc3c 05b3 3ebd 4f3a 723d
000001f0: 5a93 33bd d858 de3d 262d 253d dbf5 45bc
00000200: 3653 443d 1bf8 b4bc 5edc 3cbd 5570 0bbd
00000210: ce80 063d 2baf 513d 07d6 f53c 5aca 093d
00000220: 987d b83c 29e7 84bd 02ca 743d 9320 b73c
00000230: 7e43 893d 8fd1 e53d 20e6 82bd b436 00bd
00000240: ace0 18bb e068 11bd c315 273d 6c2a a33d
00000250: 4d52 91bd 22a4 b53d 2e04 04bd 4ad0 73bc
00000260: 6e72 adbd f6d0 53bd 56e5 d3b9 86a4 d4bb
00000270: 1319 95bd 586a 013d a4c7 523c 9ad7 833d
00000280: 6bb4 1b3d 48c7 22bd 815b 8f3d ebdb 493d
00000290: 71b1 81bc cd3f 0c3d 3720 a23d ac9f eb3c
000002a0: 3050 ccbd cce7 de3c 666f bb3d 8cb6 8a3c
000002b0: 5dae 993c 0afc fdbc fe9f f93c 6663 94bd
000002c0: 3fba 18bd 95d4 91bd 4c09 c0ba d092 65bd
000002d0: fe4f 9bbd 115e fcbc 71cd 903d 1bda 37bd
000002e0: d89b b13c fb87 81bc 872d d73d 7f6b 6fbc
000002f0: 5462 22bd 4721 9bbd 8a6f 933d a1b4 3e3d
00000300: e9fd 953d 8dc8 14bc b1bb 503d ddff 9ebd
00000310: 110d c13c 69f8 243d 7aa1 1bbd ccb0 6e3d
00000320: 7635 6abc ec1c 44bd 693f f33c 2cb0 45bc
00000330: 5032 913d a3fc efbc 57a6 e33b 2077 6bbc
00000340: d532 96bd 2b80 c53d 6517 8a3d ccf8 333d
00000350: 9a5a 893c b569 86bd 85c6 913d c530 97bd
00000360: 4f65 323d 90dc b03d 2381 99bc 305e 9dbb
00000370: 1d0f a7bd c2c5 babd 29ff 0a3d 14f8 343d
00000380: a3a5 9fbd aee6 0f3d 1b42 863d de66 bfbc
00000390: 6278 833d 2140 2bbd 008b 6e3c cfc9 0abd
000003a0: d115 c6bd c67c cb3d 7576 86bd 5018 98bd
000003b0: a606 7e3d a615 443b ab64 1abd 0abe d3bc
000003c0: bef7 c93c 2d00 2b3d 1a0a 0e3d 1e02 903d
000003d0: 2fdc f9bc 65b2 963c 43d6 81bc 1474 423d
000003e0: a0fb dcbc a6d4 8fbc 3361 90bd c625 133c
000003f0: 64fa 9abd 6a3d ec3d 8394 e1bb 2948 ae3d
-0.008088564 -0.04680067 0.0011447994 -0.036211517 -0.025728937 -0.019707507 0.027816437 0.006026934
-0.024723692 -0.0033471468 0.010921036 0.028380573 0.020028248 0.07729558 0.018748542 -0.008379885
-0.078453615 -0.049760196 0.087940335 0.022969915 -0.020363595 0.019683683 0.054227725 -0.0115602175
-0.05408994 0.0013009222 -0.09032654 -0.024488484 -0.08198183 -0.07717754 0.0813131 0.01796887
0.061823104 0.067724586 -0.08190776 -0.101939574 -0.018422278 0.08134863 0.098040104 -0.028982585
-0.109384894 0.00074051647 0.09760516 -0.032683652 0.035444785 -0.00899272 -0.052475877 0.050960466
0.042569164 -0.072001666 0.07014273 0.025365409 -0.017064104 -0.09080918 0.017537711 -0.06083636
0.032320652 -0.05534928 -0.04321827 -0.032826196 0.03121589 0.046811912 0.0667638 -0.06429208
-0.028457247 0.058670595 -0.04672316 0.061425637 -0.06292266 -0.054522786 -0.009282446 0.08931162
0.063623905 0.04764942 0.010561244 0.08144454 -0.00093152904 -0.07115673 -0.08511773 -0.022383256
-0.057691082 -0.044908836 -0.06700939 -0.09468554 -0.00058587 0.018813109 -0.05599596 -0.0070853876
0.0684889 0.039960634 0.042080272 0.04337259 0.004112584 0.020382868 -0.039783843 -0.026462346
0.01299293 0.0068944683 0.012679877 -0.05864647 -0.039336 -0.0514275 0.05148169 -0.059380636
0.0050435024 0.06317544 0.0756932 -0.030739766 -0.099123076 -0.03672859 0.012942408 0.08245261
-0.08673935 -0.01745143 -0.07934202 -0.019394133 -0.05852372 -0.010497892 0.03434101 -0.07779823
-0.1022509 0.026874352 -0.046557445 0.05913764 -0.043841697 0.10856789 0.04032626 -0.012082542
0.04793092 -0.022090962 -0.046108596 -0.034042675 0.03283768 0.051192444 0.030009283 0.033640243
0.022520825 -0.06489403 0.059762962 0.0223544 0.06702326 0.11221611 -0.06391549 -0.03130217
-0.0023327274 -0.035500407 0.040792238 0.07967076 -0.07095776 0.088691965 -0.03223055 -0.014881203
-0.08469091 -0.051712953 -0.00040415925 -0.0064893393 -0.07280173 0.031595558 0.012864981 0.06437607
0.038013857 -0.03974083 0.06999875 0.049281996 -0.015831681 0.034240533 0.07916301 0.02876266
-0.09976232 0.027210139 0.09152107 0.016932748 0.0187599 -0.03100397 0.030471798 -0.07245521
-0.037286993 -0.07120625 -0.0014651208 -0.056048214 -0.07583617 -0.030806573 0.07070435 -0.044885736
0.021680757 -0.01581191 0.105067305 -0.014613031 -0.039644554 -0.075747065 0.07199009 0.04655898
0.0732382 -0.009081018 0.050960246 -0.07763646 0.0235658 0.040275965 -0.037995793 0.058274075
-0.014294973 -0.047879145 0.029693322 -0.012065928 0.070896745 -0.029295271 0.0069473195 -0.014371663
-0.07333914 0.09643587 0.067427434 0.043938443 0.016766835 -0.06563131 0.07117943 -0.07382349
0.043553647 0.08635819 -0.018738335 -0.004802488 -0.081571795 -0.091197506 0.033934746 0.0441819
-0.077952646 0.035132103 0.06555577 -0.02336448 0.064194456 -0.041809205 0.014559507 -0.033883866
-0.0967213 0.09935908 -0.06565563 -0.07426512 0.06201806 0.002992013 -0.03769366 -0.025847454
0.024654265 0.041748215 0.034677602 0.07031654 -0.0305005 0.018395612 -0.015849238 0.047473982
-0.026975453 -0.017557453 -0.07049789 0.008981174 -0.075672895 0.11535151 -0.006884159 0.08509857

lstm.bias_hh_l0 f4 [512]
00000000: 2721 98bd e22e 7fbd 03ba 5f3d 9aa5 b53d
00000010: f9b2 2b3d d113 a53c 4b3d 02bd da10 7b3d
00000020: 662e 78bd 6de6 b1bc 8e34 2ebd eac0 21b9
00000030: 872a 24bd f7e7 dabc 9bbd 773d ddd8 593d
00000040: 9fba 91bc ea66 2e3d 699c 823d 4a8e bd3d
00000050: 6049 62bd fce3 bebc dadb 28bd 22b3 303d
00000060: 724f 62bd f08b bbbd cdcf 9e3d 6171 a13d
00000070: a23a 95bc 6715 493d e1e2 7bbc bcad 4a3d
00000080: 9834 8cbd 8772 0c3d e0e3 413c a86e 603d
00000090: c167 6bbd 670e f1bc 9f81 853d b89d 04bc
000000a0: fb4a 6cbd 6513 7a3d dfc1 83bc 60d5 5dbd
000000b0: 3461 653d 209d 473d e29e 643d a401 5bbc
000000c0: cf04 633d b7b5 803d 0863 493c 7f37 b5bd
000000d0: 0238 dc3c e854 e73c 313a 523d b9b6 0a3d
000000e0: d5f8 0bbd 1c05 09bd c6eb eb3d 3b7a 153c
000000f0: 54a0 6d3d 11c9 b03c dfec d73c 117b d7bc
00000100: dca3 77bd ffba 8bbd 0187 bebd 0fe2 95bc
00000110: 8a25 473d eca1 f23c 2e4d c6bc 076f 45bd
00000120: 02ae 18bd 2e3d 3c3d 5e95 083d 5941 ae3d
00000130: b61c af3d 8c1f c33c 89b6 8cbd 679e ef3c
00000140: a653 8cbc 8623 14bd 4285 a5bc 12f2 bfbb
00000150: e20e d93b 5c4e bb3c fd96 0dbd 7055 623c
00000160: d20c aa3d 9bf4 183d 8273 57bd 4f33 fc3c
00000170: fbf7 76bd 7916 b7bc 0626 45bd 0a89 903c
00000180: 8507 cabc c673 b13d be71 acbd 5828 b7bd
00000190: d6bb f93b 6880 863c ea69 173c e42f 0abd
000001a0: 0ec4 e4bc 0761 353c 88ad e63c e7c2 ab3b
000001b0: 4598 88bd c4df 80bd 86bb 833d f6c6 a3bc
000001c0: 2093 dd3a 8c0b 9b3d 57a0 1fbd 88fb b23d
000001d0: 69b5 1c3d 387f 7a3d 7963 4d3c fc00 48bd
000001e0: acdd aabd 84f6 ad3c a615 dcbc a079 903d
000001f0: 6a21 523d fec1 0e3e 682a ddbc ff95 e63b
00000200: 07d7 073d b40a ab3d efda cdbb b4c0 d23c
00000210: 475f 97bd 870b 6bbd 60dc 36bd 8837 b33c
00000220: 32bc 49bd be87 a0bd 3680 3a3d debb e73c
00000230: 4580 ca3c 6830 97bb 1e8c f5bb fed1 a53c
00000240: 97d2 8f3c 5e1f 74bd f17b 07bd 264b 46bd
00000250: d718 6cbc 2181 bd3d 0c8b 883d d7e0 57bd
00000260: 2552 6a3d 4fd7 65bd 6f68 c7bd 3b3e 873b
00000270: ed03 823d ab6a 663d a516 4f3d b5fa 3a3d
00000280: 5ea8 a6bd 9832 adbd 1f0f a83d 45ab 053c
00000290: ba7b 27bd 8685 8ebd ea50 a53a 66b6 94bc
000002a0: ed66 d7bc 4eee 583d 5737 c73d 31b2 583d
000002b0: 3e90 b83a a4d1 85bb b5ad 853d 6f4a 19bc
000002c0: 2bed 173d 150b 933d f192 3f3b 2233 38bd
000002d0: f257 073d a30d a5bd 80ec 273d ad63 24bc
000002e0: 3539 55bc 1c18 babd 3a0f a2bc f093 903d
000002f0: 7346 753c 6094 24bd 946b 6cbc 2019 8fbc
00000300: 98e7 0b3d 7323 2d3d 40ea 8fbd c458 0d3d
00000310: 18b8 51bd aaae 073d 45d5 6dbd 5661 9c3d
00000320: edbf bf3d ad8c 70bd 5aa6 8f3a 699c 653d
00000330: bcc8 3ebc 0d36 823d 96d8 dd39 5db2 3abd
00000340: 40b0 c3bc 7f5e a83d 33e3 553c 870f 87bd
00000350: 93c9 0b3d b4d8 2f3d a458 c2bd 07b6 9d3d
00000360: 9fa0 663d 2457 51bd b087 b6bd 6fdb 653d
00000370: 03f0 fbbc db84 03bd 5bc1 833d c7ff 893b
00000380: 7b1e 9bbc 30dc 5c3d a9ec 47bd 3646 52bd
00000390: 1d81 c73c 5e06 383c 8f31 c2bb 06fe 6a3d
000003a0: 9300 013c 81f2 73bd af16 903d aba9 a53b
000003b0: 337f 293d 842c 9f3c 993f af3d 9570 bc3d
000003c0: 0979 eabc 17f6 14bd 6082 893d 1594 e6bb
000003d0: b4d7 993d a3e4 abbc 47aa 83bd a4fe b5bd
000003e0: eac5 e13c 016c 963d 1152 ab3b 9212 073c
000003f0: 9735 833b bedb a4bc 06cb 863d f274 733c
-0.07428198 -0.06230057 0.054620754 0.088694766 0.04191873 0.02015105 -0.031796735 0.061295368
-0.060591124 -0.02171632 -0.04253059 -0.00015426023 -0.04007962 -0.026721938 0.060483556 0.053185333
-0.017789183 0.042578615 0.06377489 0.09255655 -0.055245757 -0.02330207 -0.04122529 0.043139584
-0.055251546 -0.0915755 0.077544786 0.078829534 -0.018216435 0.049092676 -0.015373916 0.049482092
-0.06845969 0.03428891 0.011834115 0.05479303 -0.057471994 -0.029425813 0.06518864 -0.008094244
-0.057688694 0.061053652 -0.016083656 -0.05415857 0.056000903 0.04873383 0.055815585 -0.01336709
0.055424508 0.06284659 0.012291677 -0.08848476 0.026882175 0.028238729 0.051325027 0.033865664
-0.03417285 -0.03345214 0.115195796 0.00912338 0.05801423 0.021580251 0.026358066 -0.0263038
-0.060459003 -0.06822776 -0.09303094 -0.01829627 0.048619784 0.029618226 -0.024206724 -0.048201587
-0.03727532 0.045956783 0.033345573 0.08508558 0.08550398 0.023818754 -0.06870753 0.029250337
-0.01712973 -0.03616669 -0.020205144 -0.0058577145 0.0066240886 0.022864513 -0.03456782 0.013814315
0.083032265 0.03734265 -0.05260039 0.030786185 -0.060295086 -0.022349583 -0.048131965 0.01764347
-0.024661789 0.0866466 -0.08420132 -0.08943242 0.0076212687 0.01641865 0.0092415605 -0.03373708
-0.027925517 0.011070496 0.028158918 0.00524174 -0.06669668 -0.0629268 0.06432252 -0.019992333
0.0016904809 0.07570562 -0.03897127 0.08739382 0.038258944 0.06115648 0.012535923 -0.048829064
-0.08343062 0.021235712 -0.026865792 0.07054448 0.051301397 0.1394119 -0.02699776 0.007036924
0.03316405 0.08351651 -0.0062822024 0.025726654 -0.073912196 -0.05738404 -0.04464376 0.021877065
-0.049251743 -0.07838391 0.045532428 0.028287824 0.024719367 -0.004613925 -0.00749351 0.020241734
0.017556472 -0.059600227 -0.033077184 -0.04841151 -0.014410219 0.09253145 0.06667146 -0.05270466
0.057207245 -0.056113537 -0.09736716 0.0041272915 0.06348405 0.05625407 0.050558705 0.04564925
-0.08137582 -0.084569156 0.08206009 0.00815851 -0.04088948 -0.06959061 0.0012612615 -0.01815338
-0.026294196 0.05296164 0.09727352 0.05290431 0.0014081073 -0.004083829 0.065272726 -0.009356125
0.037091415 0.07179848 0.002923187 -0.04497064 0.033042856 -0.080592416 0.04099703 -0.01003353
-0.0130141275 -0.0908663 -0.019782651 0.07059467 0.01497041 -0.040180564 -0.0144299455 -0.017468035
0.034156412 0.042270135 -0.070271015 0.03450848 -0.051200956 0.033125557 -0.058064718 0.07635753
0.09362779 -0.05872791 0.0010959611 0.056057367 -0.0116445385 0.063579656 0.00042313774 -0.045580257
-0.023887753 0.08221149 0.013054657 -0.065947585 0.034127783 0.042931274 -0.09489563 0.077007346
0.056305524 -0.051108494 -0.08912599 0.05611747 -0.030754095 -0.032109123 0.06433364 0.0042113992
-0.018935433 0.053920925 -0.04880968 -0.05133649 0.024353558 0.011231987 -0.005926318 0.057371162
0.007873672 -0.05955744 0.070355766 0.0050556264 0.041381072 0.019430406 0.08557052 0.09201161
-0.028622167 -0.036367502 0.0671432 -0.0070366957 0.07511845 -0.020983046 -0.06428962 -0.088864595
0.027560193 0.07344819 0.005228289 0.008244174 0.004004191 -0.020124312 0.065816924 0.014859425

head.weight f4 [1, 128]
00000000: 3396 993d d017 99bd 5fd5 92bd 8b13 bc3d
00000010: cd8e 9d3d 39aa 973d bd2f 94bc 88a9 313d
00000020: 32fa 39bd 59c7 633d c04e a23d bf01 59bd
00000030: 82de 8f3d 2879 a53d 835e 4d3d 4b94 f03b
00000040: d551 b13d e3af 983c c056 703a 6089 ebbd
00000050: 72e9 ef3b d256 3bbc 8f68 a1bd 72c7 87bd
00000060: 383a fb3b 7917 57bd 9dc7 31bd 6e9d cebd
00000070: 3a37 383d 405c 873d f898 f5b7 b9db d1bd
00000080: 9978 9cbd c91e 133d 1c7b 80bd c1bb 22bd
00000090: 9253 84bd fd6c cfbd d956 dd3d 825c 0a3d
000000a0: ccc7 a43b a39e c5bd 6a5e a53d dc49 e0bd
000000b0: d512 183d 4b22 b5bd 523c c9bd 8135 f1bc
000000c0: 1657 a93d 729d ad3d dd54 86bd 8410 e33c
000000d0: 3853 8dbc 0656 823c 7194 0e3d 4e2c 59bc
000000e0: 0f8f 01bd 31ab 883d 157b a2bd b6e6 d4bd
000000f0: 66d9 e33a 1eff debc f713 33bd 4086 e03d
00000100: 5164 a63d 41dd bfbc 53fa cf3c ac02 053c
00000110: b119 f53c 4c20 cb3c 8c20 bb3c 2cab 4bbc
00000120: 6e86 c0bd f36a 67bd 0c35 0bbc 3ab6 bc3d
00000130: 1708 c4bd 8614 bcbd ff8c 113d bbde 533d
00000140: d266 9e3d 102b bb3d 527b 5d3d 7e61 383d
00000150: ebe8 cfbd df47 85bd 40fe aebd 430e 863c
00000160: 99cd 3abd 7181 af3d 4c2b 55bd 594f bd3d
00000170: e0d2 09b9 7702 37bd 8b91 dfbd ce59 a6bb
00000180: e5b8 893d 94d9 8e3d 9a32 b0bd e5a4 02bd
00000190: 7361 6b3d 14de 673d 372e d8bd 8570 eebd
000001a0: 31ff 633d d940 283d 93c0 903d 097a b6bc
000001b0: e834 c23d 6489 e13d 4601 523d bf62 743d
000001c0: c6c7 613d 0edb d93d b9f3 acbd 5e7a 50bd
000001d0: d5bf b4bd da14 543d 54e2 3bbd 4bc6 143d
000001e0: 4a1c f53b 402d eabb 5373 c1bd b749 0dbd
000001f0: 1acd 96bd 525b f5bd 7667 ea3b eec0 c6bd
0.07499351 -0.07475245 -0.071696036 0.09183415 0.07693253 0.07405514 -0.01808917 0.04337457
-0.04540462 0.055610035 0.079251766 -0.05298018 0.07024862 0.08079749 0.05013896 0.0073418966
0.08658186 0.018638557 0.00091682 -0.115008116 0.00732153 -0.011434274 -0.07881271 -0.06629838
0.0076668523 -0.05251262 -0.043403257 -0.10088621 0.044974543 0.06609392 -2.9277508e-05 -0.10246987
-0.0764019 0.03591803 -0.06273481 -0.039729837 -0.06461252 -0.1012821 0.108075805 0.03377963
0.0050287005 -0.09649398 0.08074649 -0.109515876 0.037127335 -0.088444315 -0.09825958 -0.029444458
0.082685634 0.08477296 -0.06559155 0.027717836 -0.017251596 0.01591016 0.034809534 -0.013255192
-0.031630572 0.06673277 -0.07933632 -0.10395567 0.0017383515 -0.027221259 -0.04372021 0.10963106
0.081246026 -0.023420932 0.025387919 0.008118313 0.029919477 0.024795674 0.022842668 -0.012430947
-0.094006404 -0.05649848 -0.008496534 0.092144445 -0.095718555 -0.09183602 0.035534855 0.051726084
0.07734455 0.09139073 0.054072686 0.04501485 -0.101518475 -0.06507849 -0.08544588 0.016364222
-0.04560623 0.08569611 -0.052043244 0.0924365 -0.00013143895 -0.044680085 -0.10916432 -0.0050766235
0.06724719 0.069750935 -0.086034015 -0.031895537 0.05746598 0.056608275 -0.1055569 -0.11642555
0.05566329 0.04107747 0.070679806 -0.022274988 0.09482747 0.11012533 0.051270746 0.059664484
0.05512216 0.106374845 -0.08444924 -0.05089795 -0.088256516 0.051777698 -0.04587014 0.03632192
0.007480179 -0.0071465075 -0.094458245 -0.034494128 -0.07363339 -0.119803086 0.007153447 -0.09704767
