cnn_lstm_inst.pt (torch, 448579 bytes, 17 tensors)

cnn.0.weight f4 [32, 1, 5]
000000 61 76 a0 3e b3 5e a7 3e 04 01 98 bd 98 fe f2 3e
       0.31340316 0.32689437 -0.07422069 0.47459865
000010 5b 59 6c bd 6c 93 2a 3d 61 0c 84 be 5d 40 7c 3e
       -0.057702404 0.0416445 -0.25790694 0.24633928
000020 39 8b c4 3e ef 1c aa be fc e1 e8 3e a4 55 ad 3c
       0.38387468 -0.332252 0.45484912 0.021159
000030 96 1a 63 3e ac f2 2d 3d 85 06 3e 3e be 06 ca bd
       0.2217811 0.042467758 0.18557175 -0.09864567
000040 7f 24 aa 3e 42 cf 8e 3c 0b ec 70 be 8e 5f b0 3d
       0.3323097 0.017432813 -0.23527543 0.086119756
000050 f1 46 42 be 4f d5 bd bc f5 34 16 be 28 c2 98 3e
       -0.18972374 -0.023173003 -0.14668639 0.2983563
000060 17 d3 c0 be 9a db 15 be 55 b4 9f bd b3 70 5f be
       -0.3766105 -0.14634553 -0.077980675 -0.21820335
000070 4a 2b 5e 3d 8a 6d 00 bf 57 5f d9 3e 04 4e b8 be
       0.054240502 -0.50167143 0.4245555 -0.3599702
000080 79 bc b7 3e 48 db ce 3d 6e 4d 06 be 81 01 9c 3e
       0.3588598 0.10100418 -0.13115475 0.30469897
000090 b9 25 94 3c f6 92 9c 3e a4 af c2 bb 6f 2b 3e be
       0.018084394 0.30580872 -0.005941348 -0.18571256
0000a0 e2 1e a7 3d 14 2e f8 bd d9 55 43 3e 85 78 c5 3e
       0.08160187 -0.12118164 0.19075717 0.38568512
0000b0 fb f4 aa 3e f6 f9 52 be e2 09 75 3e 37 8c 9f 3d
       0.3339003 -0.20603165 0.23929551 0.07790416
0000c0 2b 47 4e 3e f8 f6 99 be cc ae e4 be cd 6b 1d be
       0.20144336 -0.30071235 -0.4466461 -0.15373154
0000d0 99 a4 b3 be 79 b4 b3 3e 25 f2 28 3e 21 b2 4f 3e
       -0.35086516 0.35098627 0.16498621 0.20282795
0000e0 69 63 05 3e 3a 22 92 bc 7e a1 a7 3e 6c ef a9 be
       0.13026203 -0.017838586 0.32740396 -0.33190477
0000f0 68 57 7c 3d 64 e0 93 be ba a1 3b 3e 2e 31 09 be
       0.061606795 -0.28882134 0.18323413 -0.13397667
000100 53 2c 12 3e 1a d5 10 bd 32 5c de 3e 10 a4 53 be
       0.14274721 -0.03535948 0.43429714 -0.20668054
000110 fb b3 4b be 92 0d 5e be 6f 73 ba 3e 68 5a 03 3e
       -0.19892876 -0.21684864 0.36416194 0.12827456
000120 6b d8 cf 3e 38 f0 c9 be 95 ca f4 be 6e 89 b8 be
       0.405948 -0.39441085 -0.47810808 -0.3604235
000130 de 3e a4 be 1f b3 15 3e a6 1d 18 3e 09 46 bc 3e
       -0.32079214 0.1461911 0.1485506 0.36772183
000140 ec a6 6e be 4c c3 9c be 3e e4 5c 3e 6c c0 2c be
       -0.23305863 -0.3061775 0.21571442 -0.16870278
000150 5c 89 98 3e 5e fa 60 bd 53 91 9a 3e 39 e1 a2 be
       0.29792297 -0.05492627 0.30189 -0.31812456
000160 61 77 51 be a6 0f 09 3e d5 a3 99 3d 77 cc 0a be
       -0.20455696 0.13384876 0.075019516 -0.1355456
000170 66 1c 5d 3e 15 9c 81 3e bc d2 bf be 71 8a 38 be
       0.21592864 0.25314394 -0.37465465 -0.18021561
000180 1f 24 f2 3e 9b 9c c7 bd 9f ff cc bd c6 f6 c6 be
       0.47293183 -0.09746667 -0.10009693 -0.38860148
000190 13 55 2d be 3f 2c 36 3e 19 f5 51 bc 6d c8 c9 be
       -0.16926984 0.17790316 -0.0128147835 -0.39410725
0001a0 9f d7 2d bd 3a d0 91 be 15 ad bd be 3a 99 79 be
       -0.04244196 -0.28479177 -0.37046114 -0.24374858
0001b0 12 e6 d0 be bf f3 9c be 55 1f e3 3e ca ec c9 3d
       -0.4080053 -0.30654714 0.44359842 0.09859617
0001c0 d0 5c 17 3e b9 4b d2 be 04 f9 9a be d2 82 a1 bd
       0.14781499 -0.41073397 -0.3026811 -0.0788628
0001d0 13 8d fe 3d 28 58 d0 be 92 65 75 be ff f2 88 be
       0.124292515 -0.40692258 -0.23964527 -0.2674789
0001e0 f2 5d 97 3d 08 22 b8 bd ed 2f fa 3c 5e ff 98 be
       0.073909655 -0.08990866 0.03054043 -0.2988233
0001f0 39 98 b8 be ae 8a 74 be 58 dd 70 be 22 a2 b8 be
       -0.36053637 -0.23881027 -0.23521936 -0.36061198
000200 42 bb bb 3e f0 72 c4 bd c2 66 a9 3e fa 60 b1 3d
       0.36666304 -0.09592235 0.3308621 0.08661075
000210 37 a5 de be 47 b9 8b 3e 78 7d 19 be 68 80 1f be
       -0.43485424 0.27289793 -0.14989269 -0.15576327
000220 62 87 a6 be 92 b8 ea be 18 33 c6 3d 6a 45 16 be
       -0.32525164 -0.4584394 0.09677714 -0.14674917
000230 a1 27 56 3e e4 60 ad be 57 88 c3 3e f7 92 89 be
       0.20913555 -0.33862984 0.38189957 -0.26869938
000240 ca 31 a2 3b 1c 6f 27 3e fd cb 87 3e b8 7a 9b 3e
       0.004949783 0.16350979 0.26522818 0.30367064
000250 0b b3 d7 3e 80 79 a6 be 10 2d df 3d 0e 88 41 be
       0.42128786 -0.32514572 0.10897267 -0.18899557
000260 74 0d 5c bd e2 5b a3 be ca 64 d8 3e 4f 8b 98 be
       -0.053723767 -0.3190604 0.42264396 -0.29793784
000270 e9 3b 81 3e a8 4d 3f 3e f0 14 15 3e 1a f8 81 be
       0.2524102 0.18681967 0.14558768 -0.253846

cnn.0.bias f4 [32]
000000 82 0e e7 3e 8f be 56 3d 14 b6 78 3b 92 d7 cd be
       0.45128256 0.052427825 0.0037950324 -0.4020353
000010 e4 65 57 3e 1b 78 9c bd 27 59 4a be 0e 8e bd 3e
       0.21034962 -0.07640096 -0.19760571 0.37022442
000020 11 d2 8c 3d be 42 79 be 3d 8e 65 be 37 c7 95 bd
       0.068760045 -0.24341866 -0.22417541 -0.07313388
000030 73 a1 7b 3e 3a db 04 be 08 8b 6e be b0 2d f7 bd
       0.24573307 -0.12974253 -0.23295224 -0.12069261
000040 a8 0e b2 be 5b d3 21 3e c9 4d be 3e db ef c9 be
       -0.34776807 0.15803282 0.3716872 -0.39440808
000050 e2 5f 92 3d 72 f7 6f 3e ad 99 d7 3d 8c 8f 16 be
       0.071471944 0.23434237 0.10527358 -0.14703196
000060 81 30 73 3e cd e8 8a 3e 97 3a c6 3d 43 e4 cd bd
       0.23748972 0.27130738 0.09679144 -0.10053303
000070 97 91 02 be 83 0f 65 3c 3a 2e 8f bd cb ba 26 be
       -0.1275085 0.013980749 -0.06991239 -0.16282193

cnn.1.weight f4 [32]
000000 a4 8a 74 3f 87 cb 77 3f cb 55 7b 3f 91 5b 7c 3f
       0.9552405 0.96794933 0.98177785 0.9857722
000010 b9 9d 7b 3f 9f 1a 70 3f 76 66 73 3f d8 5f 77 3f
       0.9828754 0.9379062 0.9507822 0.9663062
000020 bb b8 73 3f 5b 68 82 3f 1b 8a 7c 3f 1c ae 71 3f
       0.9520375 1.0188097 0.9864823 0.94406295
000030 6f d6 7e 3f 61 48 7e 3f c6 24 8b 3f 79 85 8e 3f
       0.9954595 0.9932919 1.0870597 1.1134483
000040 98 c1 7b 3f 7f 85 7f 3f 2f 31 78 3f c7 00 7f 3f
       0.98342276 0.99813074 0.9695005 0.9961056
000050 e0 61 74 3f 40 74 68 3f ac 2d 87 3f b8 c1 71 3f
       0.95461845 0.90802383 1.0560813 0.94436216
000060 d3 0b 76 3f e7 e2 69 3f b6 ab 80 3f 52 6e 67 3f
       0.9611179 0.9136185 1.0052402 0.9040271
000070 2c fd 8b 3f 2b ae 73 3f f0 12 82 3f e2 b6 83 3f
       1.0936637 0.95187634 1.0162029 1.0290186

cnn.1.bias f4 [32]
000000 77 be a4 bd 95 0b d9 bd 35 17 91 bd fb 5e 02 bc
       -0.08044141 -0.10597912 -0.070845045 -0.007957215
000010 91 63 21 bb 10 1b 29 bd 8c 59 81 bd 85 de 8d bd
       -0.0024625997 -0.041285574 -0.06315908 -0.06927208
000020 59 8d ad bd 56 f1 c0 bd 5a 7f 28 3c 55 3a cf bc
       -0.084742256 -0.09421031 0.010284269 -0.02529637
000030 2e d6 21 bd e3 82 fe bc 98 61 fb bd e6 06 12 3e
       -0.0395109 -0.031068271 -0.12274474 0.14260444
000040 48 ac 5c 3c 48 86 ab bc de ce 70 bd a1 ae df bc
       0.013468809 -0.020938054 -0.058791034 -0.02730495
000050 e0 f6 56 bd 8c cd 00 bd 7a 23 1e be 5d 15 9e bd
       -0.052481532 -0.031446025 -0.1544322 -0.077189185
000060 63 61 0e bd 90 be 83 bd 2f 46 d8 38 a7 32 fd bc
       -0.034760844 -0.06432831 0.00010312755 -0.030907942
000070 84 67 ba bb 9c 9b a3 bd 35 73 88 3d 00 be 1c be
       -0.0056886096 -0.079886645 0.06662599 -0.15306854

cnn.1.running_mean f4 [32]
000000 c5 5a 64 3f c0 b3 bd 3d fd 88 d8 3e 32 40 b4 be
       0.89201003 0.092628 0.42292014 -0.35205227
000010 0b fd 94 3c 7b 54 f1 be ff 0e 89 bc 33 eb 12 3f
       0.018187067 -0.47134766 -0.016730784 0.57390136
000020 0a 72 e9 3e 5a 50 71 be 6e 65 da be d1 5e 8d 3d
       0.45594817 -0.23565808 -0.4265551 0.069028504
000030 28 b6 6b 3e 66 02 67 be 7a 4f 59 be 39 7f 0b be
       0.23018706 -0.22559509 -0.21221724 -0.1362275
000040 ef 91 e1 be 6b 0f cd 3d 9f a4 c8 3e da 47 05 bf
       -0.4405665 0.10012706 0.39188096 -0.5206276
000050 3d 0d f8 bd f5 a5 f9 be d9 6e d3 3d fe ef 08 bf
       -0.121119 -0.48759428 0.10323877 -0.534912
000060 92 7f 38 bd 45 a6 42 3c 31 31 13 3e b8 bc 0b bf
       -0.045043536 0.011880462 0.14374234 -0.54584837
000070 6b 04 0b be b5 cc c8 3e a2 79 b2 bd 30 fd 13 be
       -0.13575904 0.3921868 -0.08714606 -0.14452052

cnn.1.running_var f4 [32]
000000 2f de 73 3d 61 fe 0e 3b 9a 0d 52 3d 2b 63 d8 3a
       0.059538063 0.0021819102 0.051282503 0.0016509047
000010 69 0e 45 3c 30 30 44 3d 6e 20 2d 3c fb 71 52 3c
       0.012027361 0.047897518 0.010566814 0.012844558
000020 5a f7 44 3d db 78 9f 3a 4d 60 8b 3c 64 ba f1 3b
       0.048087455 0.0012166755 0.017013693 0.007376956
000030 af a3 4d 3a 62 82 c9 3b 62 3a 04 3c ae bd f9 3b
       0.000784452 0.006149576 0.00807056 0.0076214885
000040 2a cc b7 3b 2d 39 26 3b 1b fd 9a 3a 10 bd 05 3c
       0.005609055 0.002536367 0.0011824699 0.008162752
000050 51 5a 4a 3c 3f 85 20 3e 29 73 fa 3b 0f eb 41 3d
       0.012350635 0.1567583 0.0076431227 0.04734331
000060 90 5a dd 3c 01 ac ae 3c bf 52 62 3b 07 ef 74 3d
       0.027020723 0.021322252 0.0034534184 0.059798267
000070 ff f4 84 3a e4 d0 2f 3d 91 1a b9 3a bc b1 fc 3a
       0.0010143815 0.042923823 0.0014122297 0.0019279043

cnn.3.weight f4 [64, 32, 5]
000000 1b 4d 10 3d 0c 62 5b 3d dc cc 94 bc e8 4f c1 bc
       0.035229784 0.0535603 -0.01816409 -0.023597673
000010 1b 1c 59 bb 4a c0 f4 3c 02 57 25 3d 46 2b 6b 3d
       -0.0033128324 0.029876847 0.04036618 0.057414316
000020 54 19 03 bd ff 72 8c bc e2 d6 54 3d 81 d9 8b 3c
       -0.032006577 -0.017144678 0.05196274 0.017071487
000030 78 a8 60 bc 39 ea 62 bd 3b f5 54 bd b1 89 83 bd
       -0.013712041 -0.055399153 -0.051991682 -0.06422747
000040 b0 d3 6e bc 64 da 15 3d 98 5e 99 3d 6f 7f 9c 3d
       -0.014576837 0.036585227 0.074887455 0.076414935
000050 d3 86 a1 bd 15 7c 88 bd 17 00 bc bc 75 5a 87 3d
       -0.07887044 -0.06664292 -0.022949262 0.0660905
000060 b1 8d e1 3a 53 ab 14 bd fc dc 6a 3c 64 74 42 bd
       0.0017208365 -0.0362962 0.014334913 -0.04747428
000070 cf f2 8d bd a5 59 1b 3d 6a 31 51 bd b2 32 08 bd
       -0.06931078 0.03792729 -0.051072516 -0.03325147
000080 69 79 b0 bd 50 79 3f 3d 98 c1 69 3d 6e c3 75 3c
       -0.08616907 0.046746552 0.05706939 0.015000207
000090 1b 2e 91 bd b0 da b4 bd c7 22 8c bd 77 8a 6c 3d
       -0.07088872 -0.08830774 -0.06842571 0.057749238
0000a0 06 08 03 3d bd de 83 3d 46 c5 2e 3d ee 14 42 3c
       0.031990074 0.06438968 0.042668603 0.01184581
0000b0 6a 72 66 bc 64 ec 0c 3d 56 88 4e 3c 84 1d d9 bc
       -0.014065364 0.034405127 0.012605747 -0.026503332
0000c0 25 6b c6 3d 31 79 22 3d 25 3f 4a 3c 91 7f 3a bc
       0.09688405 0.03966636 0.012344156 -0.011382953
0000d0 45 b7 b4 3c 8f 8b 0a bd 94 d6 14 bd 8f 08 92 3c
       0.022060046 -0.0338245 -0.03633745 0.017826347
0000e0 ce c3 11 bd 63 3a 40 3d 8a bf 9d bc e5 a8 5e bd
       -0.035587125 0.046930682 -0.019256372 -0.05436029
0000f0 d6 4b 19 3d eb 6c fd bb b6 e0 8f 3c 16 b3 42 bc
       0.03742584 -0.0077339313 0.017563205 -0.011883518
000100 35 99 d0 3d 92 21 0e bd e0 f9 65 3d 76 e1 ef 3c
       0.10185472 -0.034699984 0.056146502 0.029282313
000110 50 d7 72 3d 01 90 7b bd e1 b9 27 3e 83 09 a9 3c
       0.05928737 -0.06141663 0.16379501 0.020634418
000120 b9 04 5f 3d fe af da 3d 55 99 1a 3d 46 c6 8e 3d
       0.054447863 0.10678099 0.037743885 0.069714114
000130 90 1f 4e 3d e8 d9 4e 3c 2e 55 00 3e cb c7 68 bb
       0.05032307 0.012625195 0.12532493 -0.0035519477
000140 04 7e ae 3d 91 f3 c3 3d 76 33 ee 3d bb 18 0b 3d
       0.08520129 0.09567941 0.11630909 0.03395913
000150 7e e0 aa bc 9b 09 1c 3d 00 37 93 3d 6b 87 82 bd
       -0.020859 0.038095098 0.07188225 -0.06373485
000160 48 1a 74 38 f6 31 c3 bc 1b b8 4e 3c b1 5d 14 bd
       5.819861e-05 -0.023827534 0.012617136 -0.036222164
000170 28 fd ca bc e0 1b 66 bb d8 ba 77 bd db a0 9e 3d
       -0.024778917 -0.003511183 -0.060480922 0.077455245
000180 88 e9 6c 3d ff 9a 1f bd bd cc b5 bc bf 61 1b bd
       0.0578399 -0.038966175 -0.022192353 -0.037935015
000190 f5 78 a0 bd f1 e6 a5 bd 91 72 40 3c 76 bf 6b bd
       -0.07835571 -0.08100689 0.011746065 -0.05755564
0001a0 e9 03 8b bd 8f 15 bf bc f7 3c 2b bd 1a 82 22 bd
       -0.06787855 -0.02332571 -0.041806187 -0.039674856
0001b0 8b af 3c bc 0e 56 14 bd f3 86 87 3d 5e b5 f1 3c
       -0.011516462 -0.03621488 0.066175364 0.029505428
0001c0 f5 31 0c bd 00 1f e0 3d e2 17 d1 3c 2d dd 99 3b
       -0.03422733 0.10943413 0.025524084 0.0046955557
0001d0 a2 24 1c bd 45 92 f9 bb f1 f4 72 3d 0a 75 86 3c
       -0.038120873 -0.0076163136 0.059315626 0.01641323
0001e0 4a 55 9e bd 56 73 98 3c 3b 3a 5f 3d b8 12 41 39
       -0.07731111 0.018609684 0.054498892 0.00018412888
0001f0 d0 1f f7 3c 94 61 aa 3d 5c 95 20 bc 84 85 fa 3c
       0.030166537 0.08319393 -0.009801235 0.030581243
000200 a7 3d 4d bd 4b 4c 9e bc aa ad a9 3d 37 ee 67 3d
       -0.050107624 -0.019323489 0.08285077 0.056623664
000210 e6 f5 da bc 1b 51 6e bc 2d 6f 8f bb ad ea ba bd
       -0.026728582 -0.014545704 -0.004377267 -0.09126792
000220 07 7f 94 bd 0e ba b5 bc b4 c6 3c 3d 1a 2d a1 39
       -0.07250791 -0.022183444 0.046087936 0.00030741916
000230 3c b2 50 3b 24 54 ae bc dd 7a 8f 3d ff 6f 3a 3c
       0.0031844517 -0.021280356 0.07005856 0.011379241
000240 71 96 82 3d d1 77 af 3c b5 b9 47 bd cf 5d 21 bc
       0.06376351 0.021419438 -0.04876109 -0.009849026
000250 99 a3 4c bb f7 c7 c5 bc 31 76 44 3d 72 d8 d0 3c
       -0.0031225441 -0.024143202 0.04796428 0.025493834
000260 ba 7c 0b 3d 65 e2 1e 3d f0 6c 28 3e ed e1 2a 3d
       0.034054495 0.038790125 0.16447806 0.041719366
000270 29 05 68 3c 67 48 8a 3d da 02 ba 3d 96 88 01 3e
       0.0141613865 0.06752091 0.09082575 0.1264976
000280 f5 c8 0f 3d 98 8e a5 3c c5 6d c1 bd a5 25 8b ba
       0.035103757 0.020209596 -0.09444765 -0.0010616077
000290 eb 0c 2d 3d f4 2d 25 3d f8 bb a0 bd 2f 73 93 3d
       0.042248648 0.040327027 -0.07848352 0.07199704
0002a0 a8 16 a9 bb aa b4 3c 3b 41 70 c2 bd 7e e3 90 bc
       -0.0051601715 0.0028794208 -0.09494067 -0.017686602
0002b0 56 64 bc 3c 08 b0 26 3c b3 10 06 3c 23 8d 81 bd
       0.022997063 0.010173805 0.008182692 -0.06325748
0002c0 6d 9e 33 bd ab 1e 3c 3c d8 c8 96 3d 68 f9 58 3d
       -0.04385226 0.011481921 0.07362527 0.052972227
0002d0 ed 9b 59 bd b2 98 f2 bc be 12 41 bd 4f d9 0e bd
       -0.053127218 -0.029613826 -0.047137015 -0.03487521
0002e0 26 80 81 3c e9 73 0f 3d f9 a0 62 3d bf 22 8d bd
       0.015808176 0.03502265 0.055329297 -0.06891393
0002f0 93 a8 45 3d 63 0c 65 bd 45 bd e1 3c f8 20 24 3d
       0.048256468 -0.055920016 0.027556071 0.040070504
000300 3d c4 67 bc 24 6b 8a 3d 7f 99 74 bd a0 94 5c bd
       -0.014145908 0.06758717 -0.059716698 -0.053852677
000310 e5 69 a1 3c 74 bf 3c bd 99 03 32 bd a2 21 36 bd
       0.019703815 -0.04608102 -0.043460462 -0.04446567
000320 6c fa 21 3d 69 a5 b7 3c 69 ad 8b 3c 99 35 25 bd
       0.03954546 0.02241774 0.017050462 -0.040334318
000330 04 7b 76 bd ed 16 8f 3d a1 bc 94 3c 53 95 85 bd
       -0.06017591 0.069867946 0.018156352 -0.06522622
000340 b6 b7 71 bc 9d 81 0c 3e 38 82 f8 bc bb fc 94 bc
       -0.014753273 0.13721319 -0.03033553 -0.018186918
000350 33 0e 0c bd 86 b3 de bd df 1e 04 be 90 f3 61 bd
       -0.03419323 -0.10874085 -0.12902401 -0.05516392
000360 7f 26 9b bd 5f 90 d4 bb 58 80 3d bd 40 0f fa bc
       -0.07575702 -0.006486937 -0.046264976 -0.03052485
000370 cf b9 bb 3d e2 e6 2b 3c 8d 54 8a 3d 9c 23 34 bd
       0.091662996 0.0104920585 0.06754408 -0.043979272
000380 46 0b ac bd 00 84 6f 3d 42 65 42 bc 2a 39 2e bd
       -0.08400588 0.058475494 -0.011864962 -0.042534985
000390 c3 96 9c 3c f4 6e 14 3d 5a bc 6f bd f2 1e 91 bc
       0.019114858 0.036238626 -0.058529235 -0.017714951
0003a0 a7 a7 d4 ba c6 40 0b bd 40 dd 28 bb 9d 06 0e be
       -0.0016224281 -0.03399732 -0.002576664 -0.1386971
0003b0 62 28 8c bd db 73 7c bc a2 0b 88 3a fe c7 f6 bd
       -0.0684364 -0.0154084815 0.0010379443 -0.12049864
0003c0 01 97 6c bd 07 f6 4f 3c 24 c7 bf bd cf ac 2e 3c
       -0.057761196 0.012692935 -0.09364155 0.010661318
0003d0 19 37 cd bd 17 bb ae 3b 5a 54 87 3c c2 14 8d 3c
       -0.10020275 0.0053323614 0.016519714 0.017221812
0003e0 b2 1c c4 bc e6 68 9b 3d 14 29 07 3d db 87 c7 3c
       -0.023939464 0.07588367 0.03299816 0.024356773
0003f0 4a dc 62 3d 4f 1f 31 bd ff ee ea bc 7a a0 b4 3d
       0.055385865 -0.04324275 -0.028678415 0.08819671

cnn.3.bias f4 [64]
000000 65 f2 d3 3d fc b1 ed bd b4 94 f8 bc 44 ca 91 3d
       0.103489675 -0.116062135 -0.030344345 0.07118657
000010 cc f6 b6 3c 74 f9 1d 3c 83 70 21 3d 12 c0 8d 3d
       0.022334479 0.009641994 0.03941394 0.069214
000020 1c a5 99 3c de 16 b4 bd 63 80 bf 3b 9d 9d 71 bd
       0.018755488 -0.08793424 0.0058441623 -0.058988202
000030 e1 d0 8a bd 7b 7f 43 3d 35 61 54 3d 08 9a dc bb
       -0.06778122 0.047728997 0.051850516 -0.006732229
000040 ac 5c 5b bd 5d c1 76 bd c5 2e 85 3d f6 65 6c bc
       -0.053555176 -0.060243 0.06503061 -0.014428606
000050 54 5d 28 bd 86 5d d3 3b 0a 30 d4 bc 94 af a5 3b
       -0.04110463 0.006450358 -0.025901813 0.005056331
000060 67 07 30 3d 01 22 3c bd fe 1a 9a bc d1 b1 a3 3d
       0.04297581 -0.045930866 -0.018811699 0.079929
000070 af 5d 00 bd 62 09 17 3d b8 91 51 bd 99 4e 7d 3d
       -0.031339344 0.036874183 -0.05116436 0.061842535
000080 aa db 81 bc 1d 69 46 bd 1d 6c 88 bd 21 ab 6f 3d
       -0.015851814 -0.048440088 -0.06661246 0.05851281
000090 2c 31 a1 bc de 42 84 bb 87 2a 58 3d ae 5d ba bd
       -0.019676767 -0.0040362915 0.052774932 -0.09099899
0000a0 99 a8 fb bd cb 0e 9c bb ae 3d 59 bd 54 a7 83 bd
       -0.12288017 -0.0047625056 -0.053037338 -0.064284
0000b0 27 66 21 3d 5c 15 6c bd 96 e1 51 bc b6 11 a3 bd
       0.03940406 -0.057637557 -0.012810132 -0.079623625
0000c0 ae d1 e4 3b 7a fc 2f 3c 1f ac 28 3d 73 37 d2 3c
       0.0069830036 0.010741347 0.041179772 0.025661206
0000d0 7c f3 24 3d 64 b3 0e bd 4a ce fb 3d d5 da f1 bc
       0.040271267 -0.03483905 0.12295206 -0.029523293
0000e0 94 7d d7 3c 0a 93 9c bd 7d c6 77 bd 38 e9 f0 bc
       0.026304998 -0.07645233 -0.060492028 -0.029408082
0000f0 92 13 25 bc ed 1a aa 3c 3c 3b 09 bd f7 a2 0f 3b
       -0.010075467 0.020764792 -0.033503756 0.0021917203

cnn.4.weight f4 [64]
000000 3b 3f 76 3f f6 79 80 3f 3f ad 82 3f 87 09 81 3f
       0.9619023 1.003722 1.020912 1.0081033
000010 0e eb 7d 3f 07 0e 88 3f ce 68 80 3f 1c 96 81 3f
       0.9918679 1.0629281 1.0031984 1.0123935
000020 d1 e1 83 3f c6 ca 79 3f 3f 25 86 3f f1 3f 81 3f
       1.0303289 0.9757503 1.0480117 1.0097638
000030 f8 25 82 3f e7 0f 83 3f 3a a0 7e 3f e9 3b 82 3f
       1.0167837 1.0239228 0.99463236 1.0174533
000040 a1 8d 82 3f e4 6a 81 3f f1 37 80 3f f1 96 81 3f
       1.0199472 1.0110745 1.0017072 1.0124189
000050 d4 01 81 3f 93 55 80 3f b9 72 80 3f 6b 0f 7e 3f
       1.0078683 1.0026115 1.003501 0.99242276
000060 63 dd 83 3f df da 7f 3f ac 74 81 3f 8a 9e 7e 3f
       1.0301937 0.99943346 1.011373 0.9946066
000070 13 ce 80 3f 98 77 83 3f b6 d7 80 3f fd 28 7e 3f
       1.0062889 1.0270872 1.006583 0.99281293
000080 a5 79 80 3f de 2a 81 3f 3e 79 80 3f 9a 4e 81 3f
       1.0037123 1.0091207 1.0037 1.0102112
000090 fa 84 81 3f 87 f9 81 3f 8d 0c 80 3f b0 6b 80 3f
       1.0118706 1.0154275 1.000383 1.0032864
0000a0 3b 92 80 3f 80 c7 7d 3f 08 d6 80 3f 4b c9 80 3f
       1.0044626 0.9913254 1.0065317 1.006143
0000b0 f7 87 81 3f 97 21 80 3f 50 96 82 3f 91 9c 7f 3f
       1.0119618 1.0010251 1.0202122 0.99848276
0000c0 b1 e7 85 3f 58 e2 80 3f 6a 69 81 3f 7b 1a 7e 3f
       1.0461332 1.0069075 1.0110295 0.99259156
0000d0 3a 31 84 3f 75 b9 80 3f c5 54 7f 3f 4b 2c 7c 3f
       1.0327523 1.0056597 0.99738723 0.98505086
0000e0 6f f7 7f 3f 2b ce 80 3f af cb 7c 3f 2d 87 7b 3f
       0.9998693 1.0062917 0.98748296 0.98253137
0000f0 39 1a 83 3f ed f5 7c 3f 05 59 7c 3f 10 f5 7f 3f
       1.0242378 0.9881275 0.98573333 0.9998331

cnn.4.bias f4 [64]
000000 13 b6 2b bd a8 57 00 bd b4 9a dc bc 08 5c 93 bc
       -0.041921686 -0.031333596 -0.026929237 -0.01798822
000010 a0 ce 03 bd 4b 6b 07 3c bd ab a5 bc 9f 2c ba b9
       -0.032179475 0.008265327 -0.020223493 -0.0003550993
000020 b1 3e b8 bc f1 eb c2 bc 78 71 23 39 36 0e cd bc
       -0.022490831 -0.023794146 0.00015587162 -0.02503119
000030 f0 17 1e bd 8f c7 9b bb 55 05 b6 bc 52 2a 1e bd
       -0.038597047 -0.004754014 -0.02221934 -0.03861458
000040 14 b4 ae bc 20 ea 84 bc 58 f1 c0 bc 2f fb 8a 3b
       -0.021326102 -0.01622492 -0.023552582 0.004241369
000050 c9 0d cc bc 5c be be bc 0c bf 84 bc 7e d3 d5 bc
       -0.024908917 -0.02328413 -0.01620438 -0.026101824
000060 59 95 5f bc de 1a c4 bc 6a f2 a5 3b e7 ea ac bc
       -0.013646447 -0.023938593 0.0050642984 -0.021108104
000070 6f 04 97 bc 69 57 99 bc 96 a7 da bc f2 76 ea bc
       -0.018434731 -0.018718438 -0.02669124 -0.02862117
000080 fb 25 d4 bc 81 6c 8c bc 2d 13 85 3b aa f3 bb bc
       -0.025897017 -0.017141582 0.004061124 -0.022943337
000090 80 cf 95 bc c8 17 6a bc 3d cf 8f bb 4d 04 9f bc
       -0.01828742 -0.014287896 -0.0043887184 -0.01941123
0000a0 f8 e3 bf bc 03 8c 27 bd 5e 71 ad bc 52 77 ce ba
       -0.023424134 -0.04090501 -0.021172222 -0.0015752113
0000b0 e0 e1 fa bc f6 66 ca bc 7b 24 bf bc 61 19 73 bb
       -0.030625284 -0.024707299 -0.023332825 -0.0037093984
0000c0 c5 b3 25 3c 75 bb 8d bc f1 f6 4d bc 4f 94 12 bd
       0.010113661 -0.0173013 -0.012571082 -0.03578597
0000d0 d7 e0 20 3c fc 44 a6 bc b9 98 91 bc 49 f5 07 bd
       0.009819231 -0.020296566 -0.01777302 -0.033192907
0000e0 a7 fd a8 bc a5 57 1c bd 99 ac 02 bd 5d 34 23 bd
       -0.020628763 -0.03816952 -0.031902883 -0.03984486
0000f0 86 3b 0d bd fe 0c 35 bd 71 49 33 bd 7b a2 2f 3a
       -0.034480594 -0.044201843 -0.04377121 0.00066999317

cnn.4.running_mean f4 [64]
000000 68 d3 e8 3e ff f1 90 be 58 d1 67 3f e0 e8 18 be
       0.4547379 -0.28309628 0.9055381 -0.14932585
000010 05 07 9c 3e 85 01 4f be 5c 3f 07 3f 36 74 6f 3f
       0.30474105 -0.20215423 0.52831054 0.935367
000020 48 82 37 3e 99 0b 06 3f 88 f7 ad 3c 65 99 0f 3f
       0.17920792 0.52361447 0.021236196 0.56093436
000030 24 96 2e 3f d4 97 ce 3d b6 a4 ba 3e ed 78 3a 3f
       0.68197846 0.10087553 0.3645379 0.7284077
000040 91 66 fa 3e b2 6e 08 3e 53 51 9d 3e 72 76 d3 be
       0.48906377 0.13323477 0.30726108 -0.41301304
000050 fb a5 3b 3f 68 6f 63 3e 7c 5e 3d 3e c4 18 ba 3e
       0.7330014 0.22210467 0.18493074 0.3634702
000060 20 a0 9a be 5f cd 26 3e 9c 2c 53 be f1 74 3e 3d
       -0.3020029 0.1628928 -0.20622486 0.046498243
000070 13 b7 48 3f 08 72 d2 3e 0a 1f 99 3e 8f 52 87 3e
       0.7840435 0.41102624 0.29906493 0.26430175
000080 ce ef 7c bc 4b 8b 6c 3e ec 85 9e be a6 3a d9 bd
       -0.015438033 0.23100011 -0.3096155 -0.106068894
000090 21 09 52 be 72 f4 b3 3c 23 6c 9e be b2 e7 1d be
       -0.20511295 0.021967147 -0.30941877 -0.15420416
0000a0 44 1c 71 3e e2 7d 3a 3f 74 a6 06 3d fb 56 12 bf
       0.23545939 0.7284833 0.032873586 -0.5716397
0000b0 2d 90 83 3f 98 3b 0c 3f fe 94 be bd 6d 34 06 bf
       1.0278374 0.5477843 -0.09305762 -0.52423745
0000c0 b1 13 22 bd 0f 35 14 3e 46 73 76 3e 76 a1 81 3f
       -0.03956956 0.14473365 0.24067411 1.0127399
0000d0 77 c0 3b bd 67 e4 b4 3e c3 dd 1a 3f b1 12 20 3f
       -0.045837846 0.35330507 0.6049463 0.6252852
0000e0 9b 86 23 3f 48 7a ee 3e e6 2f 0b 3f a6 06 2f be
       0.63877267 0.46577668 0.5436996 -0.1709238
0000f0 03 7e f6 3e 76 09 58 3f 83 83 48 bb 86 ef d1 be
       0.48143014 0.84389436 -0.0030595965 -0.41003054

cnn.4.running_var f4 [64]
000000 1a f5 aa 3e 94 d8 f2 3d 59 d7 b0 3e 20 33 77 3e
       0.33390123 0.11857715 0.34539297 0.24140596
000010 dc 3f a4 3e db da ec 3e 07 e1 ea 3e 5c 75 80 3f
       0.3207997 0.46260723 0.45874807 1.0035815
000020 69 04 50 3e 21 a7 14 3f 25 af ea 3d eb 44 9f 3e
       0.20314182 0.5806752 0.114591874 0.31107268
000030 f6 f1 7c 3e 6a 17 d3 3d a6 39 a2 3e 67 d8 90 3e
       0.24701676 0.103072 0.31684607 0.28290102
000040 d7 0c 9c 3e 03 5b 82 3e 89 b9 4e 3e 50 32 a5 3e
       0.30478546 0.2546006 0.20187964 0.32264948
000050 8f 88 58 3e 59 27 b2 3e 6c b7 d0 3e 15 43 a5 3e
       0.21145843 0.34795645 0.4076494 0.32277742
000060 10 02 56 3f 55 c9 92 3e 3b 53 a5 3e 63 c0 51 3e
       0.835969 0.2866923 0.32290062 0.20483546
000070 2b ea c4 3e 89 dd 6b 3e 0a 34 16 3f f9 9f 79 3e
       0.38459906 0.23033728 0.58673155 0.24377431
000080 53 80 47 3e c9 c1 77 3e e8 54 a1 3e f8 56 92 3e
       0.19482546 0.24195017 0.3151009 0.28581977
000090 1a 89 0e 3e f9 ac 16 3e 09 27 71 3e b6 1d 85 3e
       0.13919488 0.14714421 0.23550047 0.2599923
0000a0 64 63 a8 3e e1 ba 8f 3e 05 38 00 3f 1d af 07 3f
       0.3288833 0.28072265 0.5008548 0.53001577
0000b0 de bb df 3e f4 12 d6 3e 11 51 8d 3e cc 58 72 3e
       0.4369802 0.41811335 0.2760091 0.23666686
0000c0 99 cf 02 3e 8a 91 9f 3e 84 6d c0 3e bb bb 73 3f
       0.12774505 0.31165725 0.37583554 0.9520833
0000d0 bb 65 21 3e f2 ce 9d 3e 0a 55 69 3e d2 24 aa 3e
       0.15761463 0.3082195 0.22786346 0.33231217
0000e0 9f 86 9b 3e 30 57 85 3e 38 7b 57 3f d8 de 91 3e
       0.30376145 0.2604308 0.8417239 0.2849033
0000f0 7c a2 41 3e c8 e6 e3 3e 0d fe 60 3e 4d 20 16 3f
       0.18909639 0.4451201 0.21971913 0.5864304

lstm.weight_ih_l0 f4 [512, 64]
000000 06 0b 8a 3d 8e f5 20 bd 5a 99 94 bb c5 44 86 bc
       0.06740384 -0.03929668 -0.0045348825 -0.016390214
000010 c5 16 14 3d 63 be 6c bc 3d d2 d1 bc da 60 ac 3c
       0.036154527 -0.014449689 -0.025612945 0.021042276
000020 fe 70 22 bd ef c4 1c bd b8 41 c2 bd 0b cb c6 bd
       -0.03965854 -0.038273748 -0.09485191 -0.09706696
000030 a3 b9 2f 3d 3c a0 d4 bd 08 28 de bd 15 1a 92 bd
       0.042901646 -0.10382125 -0.10847479 -0.07133881
000040 a9 7a 5f bc 4f c1 e4 bc f9 4f 9a 3c 1c a5 51 3d
       -0.013640084 -0.027924208 0.018836962 0.05118285
000050 98 3b b8 3c c9 00 c5 bd 18 2b 6a 3c a8 55 b2 3c
       0.022489354 -0.096192904 0.014292501 0.02176936
000060 da 54 c2 bd 36 00 ab bc f4 36 87 3c 7a b5 32 bc
       -0.094888404 -0.020874124 0.016505696 -0.010907525
000070 46 a3 87 3c b3 3f 20 3d 3e 90 82 3d 9e f5 b2 ba
       0.016557347 0.03912325 0.06375168 -0.0013653522
000080 41 6f 10 3d e0 a0 5a 3c 95 44 48 bd 21 33 26 3d
       0.03526235 0.01334402 -0.04889353 0.040576104
000090 2c 57 cc bc cf 2e 4f 3c 24 68 65 bd 75 3f 68 3d
       -0.02494391 0.012645437 -0.05600752 0.056701142
0000a0 ab ab 27 bb a3 04 bb bb bf 00 cc bd 58 10 d2 bb
       -0.00255845 -0.00570734 -0.0996108 -0.0064106397
0000b0 8c b2 66 bd f2 02 76 3d 6e e7 b3 bd d8 e5 b4 bc
       -0.05632262 0.060061403 -0.08784376 -0.022082254
0000c0 f9 5d c9 bd 02 0f ae bd b8 53 61 3c 45 08 b0 bd
       -0.09832377 -0.08498956 0.01375287 -0.08595327
0000d0 3a bc 2b bc 5e 68 0d bc 59 ac 8e bd 6f aa fe bc
       -0.010481888 -0.00863084 -0.069664665 -0.031087128
0000e0 e6 ce 83 bc 67 7b 89 bd 31 3f a3 bd 5f 95 8f bd
       -0.016089868 -0.0671299 -0.07971037 -0.07010912
0000f0 34 d7 50 bc 82 73 cd bd 2f d6 50 3d 23 f6 5a 3d
       -0.012746621 -0.10031797 0.05098551 0.05345739
000100 a0 ed ce 3d bc 44 3f 3d 36 b9 a1 bb d4 7f 9e bd
       0.10103917 0.04669641 -0.004935409 -0.07739225
000110 ae b3 ee 3c e3 7c 0a 3d f6 d0 d6 bd 0d d8 92 bd
       0.029138412 0.033810508 -0.10489075 -0.07170115
000120 34 17 ef 3d d3 ef 83 bd 5f 15 9a 3d 47 59 00 bd
       0.116743475 -0.06442227 0.075236075 -0.03133514
000130 d3 a8 d1 3d f4 ca 68 3d f0 95 a9 3c eb af 4a 3d
       0.10237279 0.056834176 0.020701379 0.049484175
000140 89 0f c0 3d ce 2e 0f 3d 5f fa 51 bd 11 5c 99 bd
       0.09377963 0.034956746 -0.051264163 -0.074882634
000150 bc 4c d9 bc a7 58 94 3c 94 38 c5 bd a7 87 d6 bd
       -0.026525848 0.018108679 -0.09629932 -0.104750924
000160 84 49 28 bd 65 22 89 bd 59 f7 b1 3c 58 85 e2 bd
       -0.041085735 -0.06696013 0.02172439 -0.110605896
000170 62 de 49 bc 81 76 0a 3e a2 7f 85 bd 92 d9 8b bd
       -0.012321087 0.13521768 -0.06518485 -0.068286076
000180 2a 4e 22 3c dc 46 f6 bd 58 8a 93 bd 72 fb 1f bd
       0.009906331 -0.12025234 -0.07204121 -0.039058156
000190 94 8c 06 bd 10 2c 2e bd 8a fe 9d 3d e8 09 76 bd
       -0.03284891 -0.04252249 0.07714565 -0.06006804
0001a0 a0 1e 91 bc 0c 9c d2 3d b9 cb 4b bc c4 50 c4 3c
       -0.017714798 0.1028367 -0.012438708 0.023964293
0001b0 6c cb 1b bd 6a 51 ec bd 2a 9b 2c 3c cd 30 02 3b
       -0.038035795 -0.11538966 0.010535041 0.0019865513
0001c0 b2 24 cb 3d c5 d8 6a 3b f4 96 e5 bd 4c 5f 9a bc
       0.099191085 0.003583477 -0.11210433 -0.01884427
0001d0 dc d9 ec bc 8d 78 ac bd 62 f7 63 3d e1 a0 be 3c
       -0.028912477 -0.08421431 0.055655845 0.023270072
0001e0 53 43 af bd 3d 9f 9a 3d 3d cd ea 3c bb c4 d7 bd
       -0.08557763 0.075499035 0.028662318 -0.1053557
0001f0 d2 35 05 3e 11 38 b3 3d ae a6 0b bc 10 9d 9c bd
       0.13008812 0.08750928 -0.008523626 -0.07647145
000200 c9 51 f4 bc 4a 4f c7 3c 72 65 a1 bc 9b 11 b6 bc
       -0.029824154 0.0243298 -0.019701693 -0.022225192
000210 d2 1d 07 bd 58 b6 86 3d 69 aa 9f 3d f8 10 88 bd
       -0.032987423 0.06577748 0.07796175 -0.066438615
000220 cf 19 26 bc 06 10 b3 3d 05 7b 8d bb 22 03 c9 bc
       -0.010137989 0.087432906 -0.0043176436 -0.024537627
000230 57 64 a9 3c ab 93 a3 3d c6 d1 00 bc 6e 09 8d bd
       0.020677729 0.0798715 -0.007862514 -0.06886564
000240 45 25 49 bc de b4 3a 3d 8b 6f 14 bc 3b 6c 92 3d
       -0.012276952 0.045582645 -0.009059797 0.071495496
000250 b4 aa 30 3d ed 44 59 3b 73 d1 18 3d b1 33 01 bc
       0.043131545 0.0033152655 0.03730912 -0.007885859
000260 32 16 af bd 90 00 95 bd 66 7b 75 bd 0f 11 5c bc
       -0.08549155 -0.07275498 -0.059932135 -0.013431801
000270 e8 4e 46 bd d7 34 ea 3c e6 64 82 3c c6 b0 92 3d
       -0.048415095 0.02858965 0.015917253 0.07162623
000280 76 22 38 3c 7e 73 7a 3c 72 9d 47 3d a5 9a 8e bc
       0.011238685 0.015286325 0.048734136 -0.017407725
000290 aa 1f 1b bd 86 cd 7d bd 6a 91 8c bd cd 0e 1b 3c
       -0.037871994 -0.06196358 -0.06863673 0.009463978
0002a0 b8 19 1d bd bd 8c 25 3d 15 92 d6 3c 11 38 9c 3d
       -0.038354605 0.04041742 0.026192704 0.07627881
0002b0 80 c8 54 3b 7b 04 3a 39 96 70 7d 3d 1f 4d c0 3c
       0.003246814 0.00017740011 0.06187495 0.023474274
0002c0 de cf 42 3d 9e f8 2d bd 96 22 72 bd 4f 6e 84 3d
       0.04756152 -0.042473428 -0.059115015 0.06466352
0002d0 17 8c a2 3d c8 0f e5 bc 4b 89 0d 3d a4 3d 90 bd
       0.07936876 -0.027961627 0.03455476 -0.07043007
0002e0 c2 76 e6 3b 09 13 86 bd 49 a8 62 3d 42 79 ae bd
       0.0070332 -0.065465994 0.05533627 -0.08519222
0002f0 f1 2b 69 bc d8 29 c6 3d a3 fd da bc 4e 70 20 bd
       -0.014231668 0.0967595 -0.026732272 -0.039169602
000300 7d 9c e8 3d ed 71 09 bd 5d 78 59 3d bc 91 71 3d
       0.11357973 -0.033555914 0.053093303 0.058976874
000310 6a 3a 23 3d ba ae 97 bd 0b 50 c6 3d be 20 6b 3d
       0.03985063 -0.07406373 0.09683236 0.057404272
000320 95 78 23 bd 2d 45 31 bd b6 b1 e6 bc ab 90 84 3d
       -0.039909918 -0.04327886 -0.028160911 0.06472906
000330 7a e5 74 3d 56 b7 8e 3c ae 08 9c 3d bb 48 e9 3d
       0.05978916 0.017421406 0.07618843 0.11390825
000340 a6 69 34 3d 33 6c 53 3d cc 11 8f 3d 92 7e 19 bc
       0.044046067 0.05161686 0.06985816 -0.009368556
000350 37 f6 1f 3d 8f 75 be 3d 91 89 92 3d 37 8d 8c 3d
       0.03905317 0.09299766 0.07155145 0.06862872
000360 88 8c 46 bd e5 0f cb bc 5e 94 70 bd 51 cb 85 bd
       -0.048473865 -0.024787853 -0.058735244 -0.0653292
000370 b4 6c de 3c 02 a1 8f 3d 50 b9 de 3c 63 0d 5f bc
       0.027151443 0.07013132 0.027187973 -0.0136140315
000380 84 a4 87 b9 c7 9b 39 bd ee 98 75 bd 51 40 95 3c
       -0.0002587178 -0.045314576 -0.0599603 0.018219145
000390 13 77 18 bd 40 7d 25 3d 35 9e 54 3d 0c 56 0c 3d
       -0.037222933 0.04040265 0.05190869 0.03426175
0003a0 39 34 ab 3d cf e4 95 bc 7e 27 4f 3c 84 fb fa bd
       0.0835957 -0.018297581 0.012643693 -0.12255004
0003b0 c3 cd d2 3c fd 6b 2a bd 46 4a d8 3d d6 a4 e4 bd
       0.02573288 -0.041606892 0.105610415 -0.111642525
0003c0 74 c2 b8 3c da 31 1c bd 87 a9 21 3d ff 1c 70 3c
       0.02255366 -0.03813348 0.039468314 0.014655351
0003d0 0a ae d1 3b 1a bc 8f bc 25 e2 b5 3d 84 92 6f 3c
       0.006398921 -0.017545749 0.08881024 0.014622334
0003e0 37 d8 f9 3c e5 db 56 39 77 b2 57 bd 2f 79 29 bd
       0.030498607 0.00020490547 -0.05266043 -0.041375335
0003f0 88 b2 b1 3d 14 33 fa 3d d9 e4 df bc a1 af 44 bb
       0.0867663 0.12216774 -0.027330803 -0.003001191

lstm.weight_hh_l0 f4 [512, 128]
000000 4e 90 ac 3d 12 f7 1c bd 89 e5 a8 3d e0 e6 6f bb
       0.084259614 -0.038321562 0.08246905 -0.0036606118
000010 8f 78 f7 bc 04 06 82 3d a3 8f bd bd 40 52 03 3c
       -0.030208854 0.06348804 -0.09255912 0.008015215
000020 2a 74 b0 bd c5 df 6d 3d ea 36 ea 3c bf 62 c3 bb
       -0.086159065 0.05807473 0.028590638 -0.005962699
000030 00 98 46 3b 18 d1 60 bd 6d cf 4f 3c 0c 5b 0b 3d
       0.0030303001 -0.054886907 0.0126837315 0.034022376
000040 39 a5 21 bd bb c5 1d bd e2 c7 75 3d 68 99 54 bc
       -0.03946421 -0.03851865 0.060005076 -0.012976028
000050 d3 ba 60 3d 25 13 2b 3d 80 f2 1f bd d5 73 2e bc
       0.05486567 0.041766305 -0.039049625 -0.010647734
000060 7d 2a 81 bd 61 3a af 3c e8 c0 a2 3d 1b eb 60 bd
       -0.06306932 0.021390142 0.0794695 -0.054911714
000070 fc 5c bf 3d 6d b2 1d 3c af 40 c2 3c 1e be 08 3d
       0.09343907 0.00962506 0.023712484 0.033384435
000080 14 d4 f1 3c 70 b6 57 3d 7c 63 f3 bb f8 6f 77 bd
       0.029520072 0.05266422 -0.007427631 -0.060409516
000090 9f 61 cd bd 34 2a 89 3d 25 97 01 3d ef 3f 52 bb
       -0.10028385 0.06697503 0.031638283 -0.0032081564
0000a0 1b dc 30 3d d9 74 12 bd 0d b5 ce bc d6 0a ee 3c
       0.04317866 -0.035755966 -0.025232816 0.029057901
0000b0 19 ad 8d bd 23 fc b6 bc f2 43 63 bd 45 69 1c 3d
       -0.069177814 -0.022337025 -0.05548472 0.03818633
0000c0 86 04 44 bc a5 0b 43 3c 49 dd 82 3c 93 15 8f 3d
       -0.011963969 0.011904632 0.015974658 0.06986537
0000d0 cc 13 a0 3d cb a5 7c 3d 15 7e e7 bc f7 dc 10 3d
       0.07816276 0.06168155 -0.028258363 0.03536698
0000e0 4c 1f d5 3c 69 c2 a4 bd fd c2 8b bc 27 e5 6c 3c
       0.0260159 -0.08044893 -0.017060751 0.014458931
0000f0 05 64 b8 bd 13 8a 29 bd 09 d5 a0 bc 4f 66 bb 3d
       -0.09003452 -0.041391443 -0.019632833 0.09150373
000100 63 ef c3 bd 93 41 bd bc b1 d3 ae bc 4a 3b ec 3d
       -0.09567144 -0.023102557 -0.021341177 0.11534746
000110 70 a5 9b bd d5 13 06 3d 00 82 4c bd de be cd bd
       -0.07599914 0.032733757 -0.049928665 -0.10046171
000120 af 9f 8d bc 82 30 c1 3c 7b 7a 80 bd eb c4 9f bd
       -0.017288057 0.0235827 -0.06273361 -0.07801231
000130 ac c0 86 bd e7 83 81 bd b5 d9 8d 3b c7 59 b7 3c
       -0.06579718 -0.063239865 0.004328931 0.022381676
000140 d6 8e 07 bd a4 c4 30 bc b1 40 b9 3d 7f 82 c1 bd
       -0.033095203 -0.01078907 0.09045542 -0.09448718
000150 0f 90 96 3d 85 54 29 bc cc 22 59 bd 4b 86 21 3d
       0.07351696 -0.010335092 -0.0530117 0.039434712
000160 6d ab 85 3d 40 f8 a3 3d fd c0 6c bd c4 b3 22 bd
       0.065268375 0.08006334 -0.057801235 -0.03972222
000170 19 eb f2 3c 21 80 ad bd 09 23 7f 3c ca 24 83 bd
       0.029653119 -0.08471704 0.015572318 -0.06403501
000180 ba 59 e8 3c 3b d4 d6 3c ab 40 66 3d 7d 9b c4 bd
       0.028363097 0.026224246 0.056214016 -0.095999695
000190 32 0a 7a bd 04 3e a8 3d c6 8d 51 bc f0 3c d4 3c
       -0.06104488 0.082149535 -0.012790149 0.025907964
0001a0 bd 8f ab bd c9 d5 cf 3c 36 7d 22 3c 31 04 b1 3d
       -0.08377025 0.025370495 0.009917548 0.086433776
0001b0 3d 46 95 3d 45 a7 55 3d bf 9e 73 bc 97 9d 06 3c
       0.072887875 0.052161474 -0.014869391 0.008216283
0001c0 2c 67 ad 3d 59 fb a8 bd 42 b9 d2 bd da 53 fc bc
       0.08466944 -0.08251066 -0.102892414 -0.030801702
0001d0 c0 65 a6 bd 57 92 46 3d e6 60 66 3d 6b 0c 89 3d
       -0.08124876 0.048479404 0.056244753 0.06691822
0001e0 96 e0 cc 3d 2b 63 b5 bd 25 cb 7f 3d 9f f8 d4 bd
       0.10003774 -0.088568054 0.062449593 -0.10398983
0001f0 f2 c5 6b bd af 80 32 bd 99 b0 cd 3c 5b 3b 34 bb
       -0.057561822 -0.043579753 0.025108622 -0.00275012
000200 d0 d0 19 bb 3c 4c ba 3c 66 33 40 bc d0 51 d2 bd
       -0.002347041 0.02274143 -0.011731004 -0.10269511
000210 07 7a 6d 3d e4 b1 6e 3c b4 c3 99 bc 57 7f d7 3c
       0.057977702 0.01456878 -0.018770076 0.026305838
000220 f9 4d 84 3d 9b 6a e1 bc 64 55 1e bd ad 69 ce bb
       0.064601846 -0.027516654 -0.038655654 -0.0062992186
000230 75 81 9a bb 3c e2 67 3d 37 c5 98 3d 96 6d 83 bd
       -0.0047151395 0.05661224 0.07459491 -0.06417386
000240 79 6a 72 bd a1 c0 a5 bd d9 92 9f bc 13 1d ee 3d
       -0.05918357 -0.08093382 -0.019479202 0.11626639
000250 fa bd 25 3d a4 65 b8 bc 15 4f a3 bc bc 01 a0 3d
       0.04046438 -0.022509404 -0.01993517 0.07812831
000260 f1 b3 92 bd db 52 47 3d 7e 98 37 bb d6 2b 67 bc
       -0.07163227 0.048663 -0.0028014476 -0.014109572
000270 17 e6 f8 bc e1 98 36 3d 16 9a c3 3c d9 4f d4 bc
       -0.030383153 0.04457939 0.023877185 -0.02591698
000280 bd af 5e bd ce b5 a5 bd 29 87 4f bd e8 86 22 3c
       -0.054366816 -0.08091317 -0.05066601 0.0099198595
000290 f8 b9 a2 bd 4d 59 ad bb 7a 30 82 3d 04 bc 26 3d
       -0.07945627 -0.0052901865 0.063569024 0.04070665
0002a0 7f ec 95 bd 18 83 d2 3a 38 92 a8 bd 24 cf 33 bd
       -0.07320499 0.0016060797 -0.08231014 -0.043898717
0002b0 37 1c 1a bd fd f4 c0 3d 8b a1 39 bc 2a 0f c7 bd
       -0.037624564 0.09421728 -0.011330019 -0.09719689
0002c0 d1 dc 98 bb d0 43 ce bb 96 61 ce 3d fb dd 89 3c
       -0.0046649952 -0.006294705 0.10077207 0.016829481
0002d0 bc 0c b0 3d 3e cc 8e bd 02 90 d9 3c ca 0e 84 bd
       0.08596179 -0.0697255 0.026557926 -0.06448133
0002e0 85 2b c8 bb 12 15 c3 bd 03 e4 d0 3c 60 2d be 3d
       -0.0061087036 -0.09525503 0.02549935 0.09285998
0002f0 0a 5b 98 bd ca 66 9b bc c3 41 ce 3d 8e cd a9 bd
       -0.07439239 -0.018969912 0.10071137 -0.082911596
000300 6f 45 71 bd f0 b6 86 3c a0 37 73 3c 24 53 d5 3b
       -0.058904108 0.016444653 0.014844805 0.0065101553
000310 02 ae 93 ba 25 ec a6 bd 66 29 6d bd 96 1c 8d 3d
       -0.0011267068 -0.0815051 -0.05790081 0.06890218
000320 81 d7 be 3d 8b 9d a8 3d 8a 90 54 bd be 28 63 3d
       0.09318448 0.08233174 -0.051895656 0.055458777
000330 7e d1 06 bd a2 4a ed bd 80 d7 60 bd 81 25 f5 3c
       -0.03291463 -0.11586501 -0.054893017 0.02992511
000340 1a 90 81 3d 74 88 0b 3d b8 08 5a bd 18 ac 06 be
       0.06326313 0.03406568 -0.05323097 -0.13151586
000350 2b 24 ca 3d a7 1d ac 3d 27 be b6 3d 61 0d 98 bd
       0.0987018 0.08404093 0.089229874 -0.07424427
000360 bc cd c7 3d 0a 3d d0 3c 3d 9d 9e 3d d8 2d 39 3d
       0.097560376 0.02541973 0.077448346 0.045209736
000370 f3 e0 2c bd 23 56 cb 3d db 6e fc bb a1 dc d6 bc
       -0.042206716 0.09928539 -0.0077036447 -0.026228251
000380 bd 2d 92 3d 85 3d 84 3c 40 e5 48 3d 87 5d 48 3d
       0.0713763 0.016142616 0.049046755 0.04891732
000390 a5 23 10 3d 27 c6 8f 3d 0e 83 a0 3d 6a 14 56 3d
       0.035190243 0.070202164 0.07837497 0.052265562
0003a0 fb 46 10 bc 2c 65 88 bd ac 93 6f 3d ba 8d a0 bd
       -0.008805986 -0.06659922 0.05849044 -0.07839532
0003b0 72 40 5b bc 56 77 9f 3d f4 f0 9a bd ad 75 15 bc
       -0.013382064 0.077864334 -0.075654894 -0.009122294
0003c0 df 64 71 bd 54 39 6c 3c 20 bc 8b bd 69 94 38 3d
       -0.05893409 0.014417965 -0.06822991 0.04506341
0003d0 a8 41 d9 bc f0 93 d4 bd a4 b5 92 bc eb 1e c2 bd
       -0.026520565 -0.10379779 -0.017908879 -0.094785534
0003e0 81 c9 c3 3d c1 96 0f 3d 71 74 11 3d e3 8c cb bc
       0.09559918 0.03505588 0.035511438 -0.024847453
0003f0 39 eb c6 bb d9 e5 06 3d 4c f4 03 bd be ef 27 bd
       -0.006070521 0.032934044 -0.0322154 -0.04100012

lstm.bias_ih_l0 f4 [512]
000000 6f 5d bd bb a5 59 0f bd bd a5 d1 3b 21 2c 36 bd
       -0.0057789604 -0.0349976 0.0063979314 -0.04447568
000010 b5 1c 86 bc 5e a7 30 bc 72 12 c3 3c 8b 3f 90 3c
       -0.01637111 -0.010782091 0.023812506 0.017608425
000020 51 15 d8 3b 9f 62 01 bd fd d3 30 3c 78 ec 18 3d
       0.006594338 -0.031588193 0.010792729 0.03733489
000030 02 b4 5b 3d 52 25 99 3d 7f a8 91 3c c8 08 c3 bc
       0.053638466 0.074778214 0.01778054 -0.023807898
000040 df f0 d8 bd ce de 59 bd 42 2a a4 3d d5 3a e6 3c
       -0.105928175 -0.053191 0.080158725 0.028104225
000050 af e7 c4 bc ba 4a a9 bb 26 e1 57 3d e3 fe 1c bc
       -0.024036257 -0.005166379 0.052704953 -0.009582254
000060 04 1f 78 bd 64 20 4e 3c 7c b6 bd bd 6a 0f b3 bc
       -0.060576454 0.012580965 -0.09263322 -0.021857936
000070 ec 60 a9 bd e6 87 a3 bd c2 77 a8 3d 77 10 86 3c
       -0.082704395 -0.07984905 0.08225967 0.016365273
000080 77 88 8b 3d ee 04 8b 3d 1b 4f b7 bd 42 4a a3 bd
       0.06813138 0.0678805 -0.08950635 -0.07973148
000090 fa d3 a1 bc 05 dc bb 3d 26 a8 e9 3d 81 cc 07 bd
       -0.019754399 0.09172825 0.11409025 -0.033154014
0000a0 99 c3 87 bd 2e 61 7c bc 80 6d c1 3d 00 83 0f bd
       -0.06629104 -0.015404029 0.094447136 -0.03503704
0000b0 73 dc 1a 3d b9 92 1a bd ee e1 56 bd 19 43 18 3d
       0.037807893 -0.037737582 -0.052461557 0.037173364
0000c0 84 3d 0d 3d 28 ab 8a bd 78 0c 86 3d f5 b2 2a 3d
       0.034482494 -0.06770927 0.06545347 0.041674573
0000d0 e0 b7 90 bc ec ef b1 bd fa 02 06 bd df 9f 39 bd
       -0.017665803 -0.086883396 -0.032717682 -0.04531848
0000e0 0e fd 5b 3d 6e c1 4a bd ca 97 3e bd 5b 07 fe bc
       0.05370813 -0.049500875 -0.046531476 -0.031009367
0000f0 17 69 91 3c 87 2a 7b 3d 9f 7b d9 3c 2b a2 68 bd
       0.017750306 0.061319854 0.026548205 -0.05679528
000100 e6 d6 df bc da 7e 6b 3d 93 dd 18 bd 54 84 91 3d
       -0.027324151 0.057494022 -0.037320685 0.07105318
000110 81 f2 66 bd e0 1d 7d bd 9f 58 21 3a c9 5f 86 3d
       -0.056383613 -0.06179607 0.0006154868 0.06561238
000120 55 1f 87 3d 81 55 1c 3d 23 f2 1b bb b3 0e c2 3d
       0.06597773 0.03816748 -0.0023795448 0.0947546
000130 05 3e 6c 3c 45 87 99 bd 66 dd 65 bd a7 5b a8 bb
       0.0144190835 -0.07496504 -0.056119345 -0.005137879
000140 39 bf 38 bd c3 0a 27 bd 6c a6 7b bd 16 4e 5f bd
       -0.04510424 -0.040781748 -0.06143801 -0.054517828
000150 4a f0 02 3b 23 f7 05 3d 69 fb 3a bd f4 d6 56 3c
       0.001997965 0.03270639 -0.04564992 0.013112772
000160 b3 3b 43 3d da 1e 5a 3d ed e7 c1 3d 03 8a 84 3d
       0.047664355 0.05325208 0.094680645 0.06471636
000170 78 74 a5 3a 18 06 1f 3d ee 25 25 bd c8 84 d5 bc
       0.0012623211 0.03882417 -0.040319376 -0.026064292
000180 d7 2a 0d 3c c4 13 d6 3c cc eb c2 3c 79 6f 6a bd
       0.008616171 0.026132472 0.023794077 -0.057235215
000190 bb c9 4f bd 27 2b 48 bd 88 52 27 3d a2 79 5d bd
       -0.050729495 -0.04886928 0.040850192 -0.054071076
0001a0 f0 1d 58 3c dd 24 24 3d bf 6a a0 3d 67 18 e6 bb
       0.013190731 0.040074218 0.0783286 -0.007021952
0001b0 97 0d bf bd 01 61 85 bc 02 56 60 3c 7c c6 47 3d
       -0.09328764 -0.016281607 0.013692381 0.048773274
0001c0 98 a7 95 bd 01 1e 2a bd d8 03 c5 bd 8f a5 b0 bc
       -0.073073566 -0.04153252 -0.09619874 -0.02156332
0001d0 16 9d 09 bd 46 b3 7c bc 99 68 0a 3d 71 28 8e bd
       -0.033597074 -0.0154236015 0.03379116 -0.06941307
0001e0 dc 97 ef bd a1 15 09 3d 2e 56 2f bd 3b 3b 61 3d
       -0.11698887 0.033467893 -0.042806797 0.054988127
0001f0 26 c8 8e bd 83 e4 b7 3d b6 22 d8 3c 76 30 d6 bc
       -0.06971769 0.08979132 0.026383739 -0.026146155
000200 f4 ea 7a 3d 3c 8e 21 bc 0a 3c 1b bd 72 53 25 bd
       0.061259225 -0.0098605715 -0.037899055 -0.040362783
000210 70 9f 41 3d ea 75 66 3d 50 23 e9 3c 3e cc 53 3d
       0.047271192 0.056264795 0.028459221 0.051708452
000220 3d 74 63 3d 2c 7e ae bd c2 c0 8f 3d e4 c7 23 3d
       0.055530775 -0.08520159 0.070191875 0.039985552
000230 f7 87 df 3d e3 f2 e3 3d 6f 3b 82 bd a0 1d 2f bd
       0.10914605 0.11130311 -0.06358992 -0.042752862
000240 69 a3 f9 bc 70 e9 19 bd d9 78 c9 3c b2 38 ae 3d
       -0.030473428 -0.03757614 0.024593757 0.085069075
000250 72 c6 8f bd ba d6 7f 3d 3b 5a f3 bc a7 02 90 bc
       -0.07020272 0.06246064 -0.029706111 -0.01757939
000260 ec 26 bd bd a6 9b 1b bd f8 2d 9a bb 6b ac 85 3b
       -0.092359394 -0.037990235 -0.004705187 0.0040793917
000270 0c 30 8e bd ab 1a f1 3c fb 9d a0 3c 16 3c 7e 3d
       -0.06942758 0.029431662 0.019606581 0.06206902
000280 a4 13 48 3d 65 0f 1f bd ee 65 61 3d c4 bc 83 3d
       0.048846856 -0.03883304 0.05502885 0.064324886
000290 68 15 25 bc ff 1a 45 3d dc 92 d4 3d c1 8e 06 3d
       -0.010075904 0.04812145 0.10379574 0.032850984
0002a0 f7 41 60 bd ab 35 9a 3a ea 0f 8d 3d 44 c3 7a 3c
       -0.05475041 0.0011765262 0.06887801 0.015305344
0002b0 a1 0b dc 3c 8c 89 88 bd 04 de c1 3c c2 60 95 bd
       0.026861014 -0.0666686 0.023665436 -0.07293846
0002c0 10 99 e0 bc c4 0e a3 bd 89 8b 52 bc a3 cd 26 bd
       -0.027416736 -0.07961801 -0.012850651 -0.040723454
0002d0 e9 bc a6 bd a8 68 ee bc 15 d4 b9 3c 61 13 09 bd
       -0.081415005 -0.029102638 0.022684136 -0.033465747
0002e0 63 e3 0d 3d 91 2f 52 bc 22 de c6 3d d5 47 34 3c
       0.03464068 -0.0128287235 0.09710337 0.011003454
0002f0 ed 1f 4c bd dc c1 81 bd fb da 18 3d 9f 73 80 3d
       -0.049835134 -0.06335804 0.03731821 0.06272053
000300 d3 55 97 3d 06 89 35 bc 40 20 6d 3d 2e e4 92 bd
       0.073894165 -0.011080032 0.057892084 -0.07172428
000310 3b a6 cd 3c 36 66 f7 3c f9 30 e7 bc 7e e0 15 3d
       0.025103679 0.030200105 -0.028221594 0.036591046
000320 8d dd fe 3b e7 72 85 bd dd 31 a9 3c fc 7a e7 bb
       0.0077778758 -0.065160565 0.02065366 -0.0070642214
000330 be 8b a3 3d 15 59 17 bc ec 82 e3 3c b4 f4 0d bc
       0.07985638 -0.009237547 0.02777239 -0.008664299
000340 d2 43 53 bd 10 e8 bd 3d aa 83 9f 3d 9f e5 8b 3d
       -0.05157835 0.09272778 0.07788785 0.06830906
000350 16 47 c0 3c 25 7d 60 bd fe 8d a0 3d e8 77 6c bd
       0.023471396 -0.054806847 0.07839583 -0.05773154
000360 92 f5 9f 3c da 6c c1 3d b4 d7 d6 3c d9 57 98 3c
       0.019526277 0.0944459 0.026225902 0.018596577
000370 5e 92 aa bd 0a ca 8c bd 10 32 0b 3d c5 90 30 3d
       -0.083286986 -0.068744734 0.03398329 0.043106813
000380 c8 5d aa bd be 73 8e 3d a8 44 be 3d dc d3 be bc
       -0.083186686 0.0695567 0.09290439 -0.023294382
000390 45 09 86 3d 39 a9 10 bd 23 91 70 3b ef f1 fd bc
       0.06544737 -0.035317633 0.0036707602 -0.030999152
0003a0 c8 fb b4 bd 8b 39 9b 3d ec b4 77 bd de 74 63 bd
       -0.08837086 0.07579335 -0.060475275 -0.055531375
0003b0 04 42 6f 3d af a8 b8 3c 38 db 38 bd 03 37 8a bd
       0.058412567 0.022541372 -0.04513094 -0.06748774
0003c0 00 e2 14 3d f7 5a a6 3c 62 0f a7 3c af ba 8c 3d
       0.036348343 0.020307047 0.020393077 0.068715446
0003d0 7f 4b be bb e5 9e 2c 3c 68 c5 55 bc 08 da 38 3d
       -0.0058073397 0.01053593 -0.013047554 0.045129806
0003e0 48 68 24 bd 4f e6 ee bb 8f 70 8d bd ef 26 b4 3b
       -0.040138513 -0.0072906385 -0.069062345 0.0054978053
0003f0 a9 d8 cf bd 71 a3 c3 3d 80 a2 8f bc ca 98 81 3d
       -0.101487465 0.09552658 -0.01753354 0.0632797
