cnn_lstm_2task_inst.pt (torch, 449905 bytes, 18 tensors)

cnn.0.weight f4 [32, 1, 5]
0	0x3e9e06d0	0.30864573
1	0x3eb545a3	0.3540469
2	0xbabd2b34	-0.0014432431
3	0x3eee4221	0.46534827
4	0xbd933913	-0.071886204
5	0x3d3adfa3	0.045623433
6	0xbe85cfb1	-0.26135018
7	0x3e7ba557	0.24574791
8	0x3ec62ebe	0.38707536
9	0xbea8aea1	-0.3294573
10	0x3ed70884	0.41998684
11	0x3d5a6943	0.05332304
12	0x3e8153d4	0.25259268
13	0x3da665f5	0.081249155
14	0x3e7b56cf	0.24544834
15	0xbde045d1	-0.109508164
16	0x3ea34938	0.318918
17	0x3c0a9848	0.008459158
18	0xbe71314a	-0.23553959
19	0x3dd69022	0.1047671
20	0xbe080642	-0.13283637
21	0x3c35e55d	0.011102048
22	0xbe0b24a3	-0.13588195
23	0x3eb192d1	0.34682325
24	0xbec43c46	-0.38327235
25	0xbde879f4	-0.11351386
26	0xbd26e477	-0.040745225
27	0xbe4c070e	-0.19924566
28	0x3d64f674	0.0558991
29	0xbf070b7f	-0.52751917
30	0x3eb4c4eb	0.35306486
31	0xbee66d30	-0.45005178
32	0x3e917b6e	0.28414482
33	0x3d40c193	0.047059607
34	0xbe28cb73	-0.1648386
35	0x3ea383a7	0.3193638
36	0x3d91aa36	0.07112543
37	0x3e962fba	0.29333287
38	0xb8fe4714	-0.00012124903
39	0xbe295ff0	-0.16540504
40	0x3d8b169c	0.06791422
41	0xbdd311c7	-0.10306125
42	0x3e62b5d8	0.2213968
43	0x3ec3074c	0.38091505
44	0x3eaae305	0.33376327
45	0xbe4ec2c6	-0.20191488
46	0x3e7a1871	0.24423386
47	0x3daf1aa5	0.08550004
48	0x3e52fae2	0.20603517
49	0xbe979131	-0.2960296
50	0xbed533c9	-0.4164107
51	0xbe2989de	-0.16556498
52	0xbeba9f71	-0.3644977
53	0x3eb4545f	0.3522062
54	0x3e201ec4	0.15636736
55	0x3e34cf88	0.17657292
56	0x3e185153	0.14874773
57	0xbc1637be	-0.009168563
58	0x3ea3b506	0.31974047
59	0xbeadc1c7	-0.33936903
60	0x3d93ab7f	0.07210445
61	0xbe8ae73e	-0.2712955
62	0x3e455d4a	0.19273868
63	0xbe1e17a1	-0.15438701
64	0x3e05995e	0.13046786
65	0xbcd3fb6c	-0.025876723
66	0x3ee3249c	0.44363868
67	0xbe48d1e9	-0.19611324
68	0xbe49f915	-0.19723924
69	0xbe63c1d7	-0.22241913
70	0x3ebb6a50	0.36604548
71	0x3e0b279d	0.1358933
72	0x3ed352ac	0.4127401
73	0xbec775d2	-0.38957077
74	0xbef2b634	-0.47404635
75	0xbeb9b1fa	-0.36268598
76	0xbea61ad7	-0.32442352
77	0x3e0dbeb1	0.13842274
78	0x3e158035	0.14599688
79	0x3ebc1ee0	0.36742306
80	0xbe6749ca	-0.22586742
81	0xbe9dba47	-0.3080618
82	0x3e5ee451	0.21766783
83	0xbe2baf5f	-0.16766118
84	0x3e99128b	0.2989696
85	0xbd55beaa	-0.052183785
86	0x3e9ef6e3	0.31047735
87	0xbea2166f	-0.3165774
88	0xbe4bdd82	-0.19908717
89	0x3e04f382	0.12983516
90	0x3d341470	0.043964803
91	0xbe19c9c3	-0.15018372
92	0x3e6092f0	0.21931052
93	0x3e7f4944	0.24930292
94	0xbec2f1d6	-0.3807513
95	0xbe301634	-0.1719597
96	0x3ef5f2a6	0.4803669
97	0xbdb2a2a9	-0.08722431
98	0xbdc1c0db	-0.094606124
99	0xbec7335f	-0.3890638
100	0xbe0cd5aa	-0.13753381
101	0x3e599b90	0.21250749
102	0x3c1bcb95	0.009508987
103	0xbeb69060	-0.35657024
104	0xbc2ddf72	-0.010612356
105	0xbe890238	-0.26759505
106	0xbea62f2a	-0.32457858
107	0xbe54f052	-0.207948
108	0xbee68d52	-0.45029694
109	0xbeab9a74	-0.33516276
110	0x3ee5813b	0.44825158
111	0x3dd976f0	0.10618389
112	0x3e1ea2fa	0.15491858
113	0xbecf3e15	-0.40477052
114	0xbe992791	-0.29913
115	0xbd85c42e	-0.06531559
116	0x3e134f44	0.14385706
117	0xbecf8f2d	-0.40538922
118	0xbe71cd5d	-0.23613496
119	0xbe87e232	-0.2653976
120	0x3dc22cc8	0.094811976
121	0xbd950d33	-0.07277908
122	0x3d19e8d7	0.03757557
123	0xbe9af6cb	-0.30266413
124	0xbeb6ac29	-0.35678223
125	0xbe960fd4	-0.2930895
126	0xbdaaa13a	-0.08331533
127	0xbea48884	-0.32135403
128	0x3ecdd8a7	0.40204355
129	0xbd555810	-0.052085936
130	0x3ea7354a	0.32657844
131	0x3db8d90e	0.09025775
132	0xbedf2574	-0.43583262
133	0x3e8c9244	0.27455342
134	0xbe12abb7	-0.14323317
135	0xbde519c7	-0.11186557
136	0xbe8bd583	-0.27311334
137	0xbef8c65a	-0.4858883
138	0x3d90bad1	0.070668824
139	0xbe4a24b9	-0.19740571
140	0x3e558690	0.20852113
141	0xbeaca4f2	-0.33719593
142	0x3ec3942c	0.38198984
143	0xbe8df3b2	-0.27724987
144	0xbbfd4e08	-0.0077302493
145	0x3e1cbc66	0.15306243
146	0x3e8258d9	0.2545841
147	0x3ea4019c	0.32032478
148	0x3ee26354	0.44216406
149	0xbea2a5f1	-0.31767228
150	0x3dc4185b	0.09574958
151	0xbe4baba0	-0.19889688
152	0xbd82b56b	-0.06382259
153	0xbea447e2	-0.32086092
154	0x3ed6f312	0.41982323
155	0xbe99a221	-0.30006507
156	0x3e8245cb	0.25443873
157	0x3e4412ba	0.19147769
158	0x3e1afe64	0.15136105
159	0xbe79726b	-0.24360053

cnn.0.bias f4 [32]
0	0x3eda2dc9	0.42613056
1	0x3db24782	0.08705045
2	0x3d2c4ecc	0.042067334
3	0xbef329bb	-0.47492775
4	0x3e68411e	0.2268109
5	0xbd8d30c4	-0.06894067
6	0xbe5b2eb7	-0.21404539
7	0x3ed940ee	0.4243235
8	0x3d272c87	0.04081395
9	0xbe4bd663	-0.19906001
10	0xbe4050ee	-0.18780872
11	0xbd342ab1	-0.043986026
12	0x3e81f543	0.25382432
13	0xbd90d5c6	-0.07072024
14	0xbe9dfa62	-0.3085509
15	0xbdeacc48	-0.11464745
16	0xbeb83d48	-0.35984254
17	0x3e4745a0	0.19460154
18	0x3eaf3534	0.34220278
19	0xbee59e8c	-0.44847524
20	0x3d92c61e	0.07166694
21	0x3e79f32d	0.2440917
22	0x3d0e853a	0.034795024
23	0xbe3b8025	-0.18310602
24	0x3e81fa95	0.2538649
25	0x3e7f346e	0.24922344
26	0x3e3d184d	0.18466301
27	0xbd9fc400	-0.07801056
28	0xbe515cd9	-0.20445575
29	0x3d6dedeb	0.058088224
30	0xbe0b20a7	-0.13586675
31	0xbdb2aba5	-0.08724145

cnn.1.weight f4 [32]
0	0x3f76e579	0.964439
1	0x3f7fe571	0.99959475
2	0x3f7ab92b	0.97938794
3	0x3f7e3409	0.9929815
4	0x3f71210b	0.94191045
5	0x3f70ed18	0.94111776
6	0x3f7d2e24	0.9889853
7	0x3f7326a3	0.9498083
8	0x3f6cafc1	0.9245568
9	0x3f8220d7	1.0166272
10	0x3f80f878	1.0075827
11	0x3f737179	0.9509502
12	0x3f812e81	1.0092317
13	0x3f813e76	1.0097187
14	0x3f898e53	1.0746559
15	0x3f8f53e5	1.1197478
16	0x3f7ee169	0.995627
17	0x3f804615	1.0021387
18	0x3f7dd5d9	0.9915443
19	0x3f7ea0eb	0.9946429
20	0x3f764943	0.9620554
21	0x3f58cbee	0.8468617
22	0x3f8699a0	1.0515633
23	0x3f60d946	0.8783153
24	0x3f6f1445	0.93390304
25	0x3f6372b6	0.8884691
26	0x3f8218b6	1.0163791
27	0x3f5d425c	0.8642938
28	0x3f898749	1.0744411
29	0x3f74f6fb	0.9568936
30	0x3f824a9c	1.0179019
31	0x3f840034	1.0312562

cnn.1.bias f4 [32]
0	0xbdcfcfca	-0.101470545
1	0xbdbb4ff7	-0.091461115
2	0xbd7c613a	-0.06161616
3	0xbb9a9de0	-0.004718527
4	0xbd0778f6	-0.03307434
5	0xbceca105	-0.028885374
6	0xbce986f5	-0.028506735
7	0xbdc5ab27	-0.09651785
8	0xbe198488	-0.14991963
9	0xbde41627	-0.11137038
10	0x3cc89553	0.024485266
11	0xbc93edbf	-0.018057702
12	0xbd082a64	-0.03324355
13	0xbcbf7753	-0.023372328
14	0xbe088fe5	-0.13336141
15	0x3e1e06bc	0.15432256
16	0x3c6dd68d	0.014516485
17	0xbccf9491	-0.025339397
18	0xbd7f1474	-0.062275365
19	0xbcd96c34	-0.026540853
20	0xbd16fb00	-0.036860466
21	0xbd5f3f70	-0.054503858
22	0xbe28817a	-0.16455641
23	0xbdaed3f6	-0.08536522
24	0xbd381185	-0.044938583
25	0xbd567ca7	-0.05236497
26	0x3c88b03c	0.016685598
27	0xbd67e4fb	-0.056614857
28	0xbc6913da	-0.014225924
29	0xbdbca40e	-0.092109784
30	0x3d84d93d	0.064867474
31	0xbe12e202	-0.14344028

cnn.1.running_mean f4 [32]
0	0x3f6e45e2	0.9307538
1	0x3e0368ba	0.12832919
2	0x3f09e885	0.5387042
3	0xbede2802	-0.433899
4	0x3db142d6	0.08655326
5	0xbee9bd98	-0.4565246
6	0xbe3ad4fd	-0.18245311
7	0x3f2cd2b3	0.67509
8	0x3eee46da	0.4653843
9	0xbe368e75	-0.1782778
10	0xbecd2100	-0.4006424
11	0x3dca93bb	0.098914586
12	0x3e77fe3e	0.2421808
13	0xbe263318	-0.16230428
14	0xbe8d5279	-0.27601984
15	0xbe0bbe95	-0.1364692
16	0xbee59b45	-0.44845024
17	0x3e07c50f	0.13258766
18	0x3eadf2f4	0.3397442
19	0xbf10ab9d	-0.5651186
20	0xbd886e04	-0.06661609
21	0xbf024d5b	-0.50899285
22	0x3d2054d5	0.039143402
23	0xbf13e99e	-0.57778347
24	0xbcf1ae7c	-0.029502146
25	0x3da2dad9	0.07951898
26	0x3e6f4802	0.23367313
27	0xbf0e1e53	-0.5551502
28	0xbe5c7247	-0.21527968
29	0x3eee3a1a	0.46528703
30	0xbe31b025	-0.1735235
31	0xbd6a344a	-0.057178773

cnn.1.running_var f4 [32]
0	0x3d57ebbb	0.052715044
1	0x3b0f0d9b	0.0021828178
2	0x3d514dbb	0.05109952
3	0x3aaf4200	0.001337111
4	0x3ba0f17f	0.004911601
5	0x3d0785db	0.03308664
6	0x3b041eca	0.0020159953
7	0x3c63abce	0.013895942
8	0x3d26d63a	0.040731646
9	0x3ab289e1	0.0013621413
10	0x3c63f8fc	0.013914343
11	0x3baf6995	0.0053531625
12	0x3a2141ff	0.0006151497
13	0x3bb8edd0	0.005643584
14	0x3c10c49c	0.008835938
15	0x3c07dcd0	0.008292392
16	0x3b9ff159	0.004881066
17	0x3b182673	0.0023216277
18	0x3aa59227	0.0012632058
19	0x3be0cc60	0.006860301
20	0x3ba243c4	0.004951926
21	0x3df1c1e6	0.11804561
22	0x3c07f3bf	0.00829786
23	0x3d0dbd62	0.034604438
24	0x3ca25681	0.019816639
25	0x3c02f6dc	0.007993426
26	0x3b684749	0.003544288
27	0x3d40a3d8	0.047031254
28	0x3a92e37a	0.0011206709
29	0x3d0fde6d	0.03512423
30	0x3add81c7	0.0016899639
31	0x3b0a60e8	0.002111489

cnn.3.weight f4 [64, 32, 5]
0	0x3d304ca7	0.04304185
1	0x3d82f248	0.06393868
2	0xbc43b1f4	-0.011944283
3	0xbce89aa6	-0.028394055
4	0xbc8b9458	-0.01703851
5	0xbd3f19be	-0.04665541
6	0xbc61a607	-0.013772494
7	0x3cbcc784	0.023044355
8	0xbd974287	-0.07385736
9	0xbd8983d4	-0.06714597
10	0x3d7b09bf	0.06128859
11	0x3ce58151	0.028015764
12	0xbc403ad8	-0.011732779
13	0xbd7693c1	-0.060199503
14	0xbd88ce39	-0.06679959
15	0xbdca0ab7	-0.09865325
16	0xbd5eba16	-0.054376684
17	0xbc418a56	-0.011812767
18	0x3ce0d045	0.02744306
19	0x3c49adc1	0.012309493
20	0xbd1ec5f9	-0.03876302
21	0xbd09ff8d	-0.033690978
22	0x3bbf53aa	0.005838831
23	0x3db6ae9b	0.08920022
24	0x3d30802f	0.043090995
25	0x3c16ca22	0.009203466
26	0x3d559e79	0.052153084
27	0xbc22a97f	-0.009928106
28	0xbd08adee	-0.033368997
29	0x3db8a91e	0.090166315
30	0xbd89974f	-0.06718313
31	0xbd6165de	-0.05502879
32	0xbdd94549	-0.10608918
33	0x3d1c2070	0.038116872
34	0x3cc889e5	0.024479816
35	0x3c637f53	0.013885337
36	0xbd86408b	-0.06555279
37	0xbd9c50ef	-0.07632624
38	0xbd60dc98	-0.054897875
39	0x3d3dd5bd	0.046346415
40	0x3d03fb5b	0.032222133
41	0x3d824a7b	0.06361862
42	0x3cbf4ed8	0.023353025
43	0xbb833aba	-0.0040048035
44	0xbccdf299	-0.025140094
45	0xbd8f2459	-0.06989355
46	0xbdc419f2	-0.09575261
47	0xbd8dcdc9	-0.06924016
48	0x3d13cb3b	0.036082488
49	0xbd3fe9ad	-0.04685371
50	0x3d2a4eff	0.041579243
51	0xbb7098eb	-0.003671224
52	0x3c2ecb29	0.010668554
53	0xbc07027c	-0.008240338
54	0x3baf8341	0.005356223
55	0x3b427920	0.0029674247
56	0xbd2995a0	-0.04140246
57	0x3d734f6c	0.059401914
58	0xbcaeee4f	-0.021353869
59	0xbdac389a	-0.084092334
60	0x3b9cc257	0.0047839093
61	0xbd06eed3	-0.032942604
62	0xbd250c75	-0.040295083
63	0xbd33950d	-0.043843318
64	0x3d681c6c	0.05666773
65	0xbd42893a	-0.04749415
66	0x3d636e31	0.05552501
67	0x3d566302	0.052340515
68	0x3d247b89	0.040156875
69	0xbd65c186	-0.05609276
70	0x3db61d17	0.08892267
71	0x3b79b099	0.0038099645
72	0x3d8898a6	0.066697404
73	0x3de7cddd	0.11318562
74	0x3cc04863	0.023472017
75	0x3d43969b	0.04775105
76	0x3c54b513	0.012982625
77	0xbd76683f	-0.06015801
78	0x3dda9de7	0.10674649
79	0x3d80e44d	0.06293545
80	0x3dc1a6be	0.09455632
81	0x3dc17095	0.094453014
82	0x3d8cea3a	0.06880613
83	0x3d0336a1	0.03203452
84	0xbb1102f8	-0.0022127014
85	0x3ca86e7d	0.020560497
86	0x3d691851	0.056907956
87	0xbd6149fc	-0.055002198
88	0xbcbd63b6	-0.023118835
89	0xbd6925a3	-0.05692066
90	0xbcf0601e	-0.029342707
91	0xbd919d26	-0.07110052
92	0xbcbb3e5c	-0.022856884
93	0xbb8ddfb3	-0.0043296455
94	0xbd9c263a	-0.07624479
95	0x3d9b2916	0.07576196
96	0x3da772a6	0.08176164
97	0xbb87630d	-0.004131681
98	0xbcb3acda	-0.021933008
99	0xbc69c8a2	-0.014269026
100	0xbd4e8006	-0.05041506
101	0xbd51feeb	-0.0512685
102	0x3d25cea3	0.040480267
103	0xbd22b437	-0.039722648
104	0xbd02d265	-0.03193893
105	0x3cc9aae9	0.02461763
106	0xbb0c9944	-0.0021453658
107	0xbbacea21	-0.005276934
108	0x3cba301f	0.022728024
109	0x3c6bbbdd	0.014388052
110	0x3bab0863	0.0052195056
111	0xbbcc0e78	-0.0062273107
112	0xbcfabc12	-0.030607257
113	0x3dc77e68	0.09740907
114	0xbbc6947a	-0.0060601803
115	0x3d380011	0.04492194
116	0xbbd710b3	-0.00656327
117	0x3ce2ab4a	0.027669568
118	0x3db393a9	0.08768398
119	0x3d7ac791	0.061225478
120	0xbd39b8ac	-0.045342132
121	0x3d4c54a7	0.04988542
122	0x3dbbc5a7	0.091685586
123	0x3d1a9306	0.03773787
124	0x3d9ff0df	0.078096144
125	0x3df934d9	0.12168283
126	0x3c2e7fb6	0.010650566
127	0x3d0561d9	0.032564018
128	0xbcd2288e	-0.025654104
129	0x3cc7e75c	0.024402313
130	0x3d04354c	0.03227739
131	0x3c07c794	0.008287329
132	0xbd8e4c8b	-0.06948193
133	0xbdcd7240	-0.10031557
134	0xbdaf21f3	-0.08551397
135	0xbd29581a	-0.041343786
136	0xbd164fbc	-0.036697134
137	0x3b7c5da1	0.0038507956
138	0x3d967459	0.0734641
139	0x3d29c097	0.041443434
140	0xbd9a9ef7	-0.075498514
141	0xbdba1bf7	-0.09087365
142	0x3b3d6078	0.0028896611
143	0xbd4406e6	-0.04785814
144	0xbcb3c376	-0.021943789
145	0x3cb9c3ab	0.02267631
146	0xbd4493ee	-0.04799264
147	0xbae65ee6	-0.0017575889
148	0xbc2e0e22	-0.010623487
149	0xbd39cfdc	-0.045364246
150	0xbbecdcf4	-0.007228488
151	0xbbad3c42	-0.0052867243
152	0xbbfebd45	-0.0077740275
153	0x3d20a485	0.039219398
154	0x3dab8139	0.08374257
155	0xbd3bb5de	-0.04582774
156	0xbda6aed1	-0.08138812
157	0x3c2d99d7	0.01059576
158	0x3c9609fd	0.01831531
159	0x3d398311	0.04529101
160	0x3d5e5b2f	0.05428618
161	0x3d2086b0	0.039190948
162	0xbd9cdd3e	-0.07659386
163	0x3c66057f	0.014039396
164	0x3d5b568f	0.053549346
165	0x3ce15336	0.027505498
166	0xbd7e97ee	-0.06215661
167	0x3d7aaf40	0.061202288
168	0xbcf5e046	-0.030014168
169	0xbc0fee0d	-0.008784783
170	0xbda1e079	-0.07904143
171	0x380f7dcc	3.4211014e-05
172	0x3d185d9e	0.037198655
173	0x3cd90b5e	0.026494678
174	0x3cbea358	0.023271248
175	0xbd821364	-0.06351355
176	0xbd593082	-0.053024776
177	0x3c986100	0.01860094
178	0x3da2a908	0.079423964
179	0x3d1ff870	0.039055288
180	0xbd423904	-0.047417656
181	0xbd0e0f03	-0.034682285
182	0xbd2aa1bc	-0.04165815
183	0xbd186b2a	-0.037211575
184	0x3cbde1bd	0.02317893
185	0x3d10bb2d	0.035334755
186	0x3d429a08	0.047510177
187	0xbd90dfba	-0.070739225
188	0x3d3b6902	0.04575444
189	0xbd73e47f	-0.059544083
190	0x3d76d17d	0.060258377
191	0x3d92de90	0.07171357
192	0x3c810640	0.01575005
193	0x3dcbc904	0.0995045
194	0xbd2fe259	-0.04294047
195	0xbd13fd75	-0.036130387
196	0x3d2c6b85	0.042094726
197	0xbcc886ea	-0.024478395
198	0xbcb7632c	-0.022386156
199	0xbd180653	-0.037115406
200	0x3d69f777	0.057120766
201	0x3d270fc8	0.040786535
202	0x3cca1d8b	0.02467229
203	0xbd070e36	-0.032972537
204	0xbd3cf58c	-0.04613261
205	0x3d1a9340	0.037738085
206	0xbc185eea	-0.009299973
207	0xbd5f18a1	-0.054466847
208	0xbda25632	-0.07926597
209	0x3ddcc971	0.107806094
210	0xbcf9f0de	-0.030510362
211	0xbc4c6333	-0.012474823
212	0xbd0eb8ee	-0.03484433
213	0xbdfeb5cf	-0.12437021
214	0xbe173732	-0.14767149
215	0xbcf39cd7	-0.029737873
216	0xbd774527	-0.060368683
217	0x3c36c6b1	0.01115577
218	0xbd193296	-0.037401758
219	0xbc9d7c6f	-0.019224374
220	0x3dcb6683	0.09931662
221	0x3d2b8a23	0.041879784
222	0x3d5ac30f	0.05340868
223	0xbd0ce015	-0.03439339
224	0xbde888fc	-0.11354253
225	0x3d34c855	0.044136364
226	0xbcf89a84	-0.030347116
227	0xbd2fa0ce	-0.042877965
228	0x3b7bc56c	0.0038417233
229	0x3c022f77	0.007945887
230	0xbda4bc82	-0.080437675
231	0xbd13a287	-0.03604367
232	0xbcf11852	-0.029430542
233	0xbdaf6a74	-0.08565226
234	0xbd944d71	-0.07241333
235	0xbe0de38c	-0.13856333
236	0xbd54efec	-0.05198662
237	0xbd6309fe	-0.05542945
238	0xbdc4d19a	-0.09610291
239	0xbe6c11c7	-0.23053657
240	0xbd3fa2fa	-0.046786286
241	0x3d46a683	0.04849864
242	0xbdd1c4b5	-0.10242597
243	0x3b26937b	0.0025417495
244	0xbe00cc57	-0.1257795
245	0xbc77b5a2	-0.015118988
246	0x3c44a3e1	0.012001962
247	0x3c5abee0	0.013351172
248	0xbd0773be	-0.033069365
249	0x3d654ffd	0.055984486
250	0x3cee6fe2	0.029106084
251	0x3c91b7c6	0.017787825
252	0x3d7b2e1c	0.06132327
253	0xbd0974a8	-0.033558518
254	0xbc054a5c	-0.008135404
255	0x3dab8637	0.08375209

cnn.3.bias f4 [64]
0	0x3d40c970	0.047067106
1	0xbdc224b6	-0.09479658
2	0xbc9d696d	-0.01921531
3	0x3d199e92	0.03750474
4	0x3c7a139f	0.015263467
5	0x3ce93042	0.028465394
6	0x3d8b8fe7	0.068145566
7	0x3d96eb21	0.07369066
8	0x3d001ac4	0.031275526
9	0xbdb5f195	-0.08883969
10	0xbbaef16e	-0.0053388393
11	0xbcafbb79	-0.021451699
12	0xbd8742b2	-0.06604518
13	0x3d6e4e4b	0.058180135
14	0x3d59b176	0.053147756
15	0xbd755ac0	-0.059901
16	0x3caec2aa	0.021333057
17	0xbda91177	-0.08255284
18	0x3c84aef8	0.016196713
19	0x3ce43d0b	0.027861139
20	0x3c48240e	0.012215627
21	0x3d3d1452	0.046161957
22	0xbbbc03c6	-0.0057377545
23	0x3b87b6a4	0.0041416455
24	0x3da203b2	0.07910861
25	0xbd8eefd7	-0.069793396
26	0xbda3ea7b	-0.08003708
27	0x3d7ed42c	0.06221406
28	0xbda448a0	-0.080216646
29	0x3cc3d872	0.02390692
30	0xbd742a6b	-0.059610765
31	0x3b7937bc	0.0038027605
32	0xbd0a8fce	-0.03382855
33	0xbd0230f3	-0.031784963
34	0xbdc2bb51	-0.09508384
35	0x3d1a5c49	0.037685666
36	0xbd98ad0b	-0.0745488
37	0xbbac1768	-0.0052518137
38	0x3d74ef6d	0.059798647
39	0xbdce8b0d	-0.100851156
40	0xbc9df2dc	-0.019280843
41	0x3ca8e4e0	0.020616949
42	0xbd787fee	-0.06066888
43	0xbda69605	-0.08134083
44	0x3d452a65	0.048136134
45	0xbd670414	-0.056400374
46	0xbd1e0478	-0.03857848
47	0xbcd0b3fd	-0.02547645
48	0x3b554e0a	0.0032547736
49	0xbc5cc4ed	-0.013474685
50	0x3d19be64	0.037535086
51	0x3d0252d7	0.031817283
52	0x3c2fad38	0.010722451
53	0xbd1f0b5d	-0.038829196
54	0x3d5271c6	0.051378034
55	0xbc2ab214	-0.010418434
56	0x3caa8937	0.020817382
57	0xbdae0071	-0.08496178
58	0xbd9c65b4	-0.07636586
59	0xbd6f6698	-0.05844745
60	0xbd65daca	-0.056116857
61	0x3c0965d8	0.008386098
62	0xbc2d596e	-0.010580404
63	0x3cc9e0df	0.02464336

cnn.4.weight f4 [64]
0	0x3f803b02	1.0018008
1	0x3f835f71	1.0263501
2	0x3f8205c9	1.0158015
3	0x3f81ba63	1.0135006
4	0x3f802414	1.001101
5	0x3f870fd2	1.0551703
6	0x3f814995	1.010058
7	0x3f7df232	0.99197686
8	0x3f83789d	1.0271183
9	0x3f79fda2	0.9765264
10	0x3f837008	1.0268564
11	0x3f818808	1.0119638
12	0x3f821de6	1.0165374
13	0x3f86ca6e	1.0530527
14	0x3f7e7e13	0.99411124
15	0x3f81bd42	1.0135882
16	0x3f8295e1	1.020199
17	0x3f825b06	1.0184028
18	0x3f7e8616	0.9942335
19	0x3f7daa47	0.9908795
20	0x3f83a308	1.0284128
21	0x3f8144c1	1.0099107
22	0x3f8189f6	1.0120227
23	0x3f800f7c	1.0004725
24	0x3f816ae1	1.0110742
25	0x3f8176aa	1.0114338
26	0x3f807388	1.0035257
27	0x3f801b2c	1.0008292
28	0x3f80ab17	1.0052212
29	0x3f833413	1.0250267
30	0x3f813820	1.0095253
31	0x3f7d530e	0.98954856
32	0x3f820fd3	1.0161079
33	0x3f826bf4	1.0189195
34	0x3f77a4e3	0.9673597
35	0x3f820f7d	1.0160977
36	0x3f82db35	1.0223147
37	0x3f821bce	1.0164735
38	0x3f774f52	0.9660541
39	0x3f816a7b	1.011062
40	0x3f811675	1.0084978
41	0x3f7f2894	0.9967129
42	0x3f827e58	1.0194807
43	0x3f7b7857	0.982305
44	0x3f8166af	1.0109462
45	0x3f826379	1.0186607
46	0x3f82933d	1.0201184
47	0x3f80d0ba	1.0063698
48	0x3f8634c6	1.0484855
49	0x3f829319	1.0201141
50	0x3f82dcf9	1.0223686
51	0x3f79d0ba	0.97584116
52	0x3f86af9c	1.0522342
53	0x3f815865	1.0105101
54	0x3f828f50	1.0199986
55	0x3f801898	1.0007505
56	0x3f826610	1.0187397
57	0x3f7db3e5	0.9910262
58	0x3f7e531e	0.99345577
59	0x3f76b9c2	0.96377194
60	0x3f82c9e6	1.0217865
61	0x3f7e7b9b	0.99407357
62	0x3f7adc87	0.9799275
63	0x3f81229c	1.0088687

cnn.4.bias f4 [64]
0	0x3b9c578c	0.0047711786
1	0x3be6c190	0.0070421174
2	0xbcfe3cb3	-0.031034803
3	0xbc85bafc	-0.016324513
4	0xbcb6a603	-0.022295957
5	0x3c0c21b3	0.008552956
6	0xbc9c2b94	-0.019063748
7	0xbcf622d3	-0.030045902
8	0xbc9fa58f	-0.019488124
9	0xbd43ce84	-0.04780437
10	0xbc75f0fc	-0.015011068
11	0xbce2cefb	-0.027686587
12	0xbd206d50	-0.03916675
13	0x3b9c7d6b	0.004775693
14	0xbcae6e1d	-0.02129274
15	0xbd3848dc	-0.04499136
16	0xbcc9d925	-0.024639675
17	0xbb811746	-0.003939542
18	0xbcf04679	-0.029330479
19	0xbc8eecd5	-0.017446915
20	0x3c094bc7	0.008379883
21	0xbc68ec88	-0.01421655
22	0xbc91c4b4	-0.01779399
23	0xbcdb997f	-0.026806591
24	0xbc727309	-0.014797934
25	0xbca9086c	-0.020633899
26	0xbb8f6b80	-0.0043768287
27	0xbc8beda4	-0.01708109
28	0xbd409806	-0.04701998
29	0xbcd222d3	-0.025651371
30	0xbd07eba2	-0.0331837
31	0xbc9393f0	-0.018014878
32	0xbcae2e79	-0.021262394
33	0xbc2474a8	-0.010037579
34	0xbcd344da	-0.025789667
35	0xbc522096	-0.012825152
36	0xbc7f90c6	-0.0155984815
37	0xbaf26e7a	-0.0018496059
38	0xbd02335b	-0.031787258
39	0xbc266075	-0.010154833
40	0xbca131a5	-0.019676993
41	0xbc09c246	-0.008408135
42	0xbc554a87	-0.013018257
43	0xbcb2833a	-0.02179109
44	0xbd254fbb	-0.04035924
45	0xbc6fc87e	-0.014635203
46	0xbbd2ef35	-0.006437207
47	0xbbd14a6d	-0.006387046
48	0x3c6e3fa9	0.014541545
49	0xbc476c85	-0.012171869
50	0xbc15d77f	-0.009145617
51	0xbd3ba732	-0.045813747
52	0x3c3a5045	0.011371677
53	0xbcaedf67	-0.02134676
54	0xba56ac06	-0.00081890856
55	0xbd3e9ff7	-0.046539273
56	0xbc50e087	-0.012748844
57	0xbd2af428	-0.04173675
58	0xbc8b135c	-0.016977005
59	0xbd3a2ccc	-0.045452878
60	0xbd14fcbe	-0.036373846
61	0x3be5c1f3	0.007011646
62	0xbd2e79b5	-0.042596538
63	0xbb1ff4a4	-0.0024407292

cnn.4.running_mean f4 [64]
0	0x3d877184	0.06613448
1	0xbf162d9b	-0.5866334
2	0x3f6675ce	0.90023506
3	0xbe251f6f	-0.16125272
4	0xbdaf676a	-0.085646465
5	0xbe250a24	-0.1611715
6	0x3e805735	0.25066534
7	0x3f12c78c	0.57335734
8	0x3e0a2268	0.13489687
9	0x3f25a3a4	0.6470282
10	0xbecafc1b	-0.39645466
11	0x3f01171b	0.5042588
12	0x3f45c1af	0.7724866
13	0x3cf44ba7	0.02982123
14	0x3e5ea795	0.21743615
15	0x3f56c168	0.83888865
16	0x3f1817c8	0.5941129
17	0xbe289337	-0.16462408
18	0x3ea35de5	0.31907573
19	0xbe0fb0e7	-0.14032327
20	0x3df79a14	0.12089935
21	0xbddf9929	-0.10917885
22	0x3e37e08b	0.1795675
23	0x3ec57a5c	0.38569915
24	0xbd2bf1cf	-0.041978654
25	0x3eab5319	0.33461836
26	0xbed07999	-0.40717772
27	0x3e2ac92f	0.16678308
28	0x3f5bd2b4	0.8586838
29	0x3eed7845	0.4638082
30	0x3ee4afee	0.44665474
31	0xbe96fa9a	-0.2948807
32	0x3d2cd570	0.042195737
33	0x3c90367d	0.017604107
34	0xbeb649f7	-0.35603306
35	0xbdbd9b78	-0.09258169
36	0xbe0ec83f	-0.13943575
37	0xbd4c1d28	-0.049832493
38	0x3eaca238	0.33717513
39	0xbec1057a	-0.3769949
40	0x3ef5a830	0.4797988
41	0xbe112107	-0.14172755
42	0xbcd6c916	-0.026218932
43	0xbeeaeef2	-0.45885426
44	0x3f868b22	1.051121
45	0x3f1b65cb	0.607022
46	0x3e5f590b	0.21811311
47	0xbefcd655	-0.49382272
48	0xbd516779	-0.05112407
49	0x3e183575	0.14864142
50	0x3e218852	0.15774658
51	0xbea018aa	-0.31268817
52	0xbe40d9d4	-0.18833095
53	0x3ee98405	0.45608535
54	0x3e07ed90	0.13274217
55	0x3f3e697d	0.7437971
56	0x3f1f220f	0.62161344
57	0x3f170a6e	0.5900029
58	0xbf01c085	-0.50684386
59	0xbd3239a9	-0.04351202
60	0x3f278b54	0.6544697
61	0x3ef94ab6	0.48689812
62	0xbe026f52	-0.12737778
63	0xbea9813b	-0.33106408

cnn.4.running_var f4 [64]
0	0x3f2211bc	0.6330831
1	0x3e61d290	0.2205298
2	0x3edc8f9d	0.43078318
3	0x3e6ed1a8	0.23322165
4	0x3e5193a7	0.20466481
5	0x3e815ecd	0.2526764
6	0x3e93b795	0.28851
7	0x3ebe0207	0.37110922
8	0x3e454a21	0.19266559
9	0x3f02f02b	0.5114772
10	0x3dddc756	0.10829036
11	0x3e9be8eb	0.3045114
12	0x3eb7eccd	0.35922852
13	0x3e395d32	0.18101957
14	0x3e9782da	0.2959202
15	0x3edd5075	0.43225446
16	0x3eb326f2	0.3499065
17	0x3e3d5c44	0.18492228
18	0x3e80b87f	0.2514076
19	0x3f49349c	0.785959
20	0x3e8e62ed	0.2780985
21	0x3e96045d	0.29300204
22	0x3ea102c8	0.31447434
23	0x3ec270a3	0.3797656
24	0x3f402b8b	0.7506644
25	0x3e995909	0.2995074
26	0x3ea28cf5	0.31748167
27	0x3e7d6321	0.24744846
28	0x3ed11cda	0.40842324
29	0x3e973854	0.29535162
30	0x3f08efa5	0.5349067
31	0x3e3a7774	0.1820963
32	0x3e4a42f4	0.19752103
33	0x3e0977c5	0.13424595
34	0x3ef6cc62	0.48202807
35	0x3e60a523	0.21937995
36	0x3e59e4d0	0.21278691
37	0x3e3f168e	0.18660948
38	0x3ea6bb63	0.3256484
39	0x3eaa099f	0.33210465
40	0x3eb2a27e	0.34889597
41	0x3ef75618	0.48307872
42	0x3ed77c64	0.4208709
43	0x3ec1f2ca	0.37880546
44	0x3f08d67f	0.53452295
45	0x3ed3513b	0.4127291
46	0x3ea6d522	0.32584482
47	0x3e8589f1	0.26081803
48	0x3e4d28b8	0.20035064
49	0x3e9d4fe3	0.3072501
50	0x3e5d1b75	0.21592505
51	0x3ea95732	0.33074337
52	0x3e8452c1	0.25844386
53	0x3ec03f0b	0.37548098
54	0x3e9858e6	0.29755324
55	0x3ec4f9d4	0.38471854
56	0x3ea30d70	0.3184619
57	0x3ea37285	0.3192331
58	0x3eb7de03	0.3591157
59	0x3eeabd54	0.4584757
60	0x3e9f923f	0.31166264
61	0x3f3b8b48	0.732594
62	0x3e2f83d9	0.1714014
63	0x3e5dccb3	0.21660118

lstm.weight_ih_l0 f4 [512, 64]
0	0x3d33df2d	0.04391401
1	0xbd837768	-0.06419259
2	0xbc4b5519	-0.012410426
3	0xbd1c5610	-0.038168013
4	0x3c5121bf	0.012764393
5	0x3b1cf96a	0.0023952373
6	0xbd340357	-0.043948498
7	0xba98ee31	-0.0011667666
8	0xbd297ccb	-0.041378777
9	0xbd572eae	-0.05253475
10	0xbd85af89	-0.06527621
11	0xbdd58547	-0.10425811
12	0x3d2ca33a	0.042147852
13	0xbdb58689	-0.08863551
14	0xbe0080f2	-0.12549189
15	0xbd95aa09	-0.07307822
16	0xbc82a364	-0.015947051
17	0xbd3dcffa	-0.04634092
18	0xbba126f5	-0.004917974
19	0x3bfe3311	0.0077575524
20	0x3c4304ff	0.011903047
21	0xbde878bf	-0.113511555
22	0x3ae29842	0.0017287808
23	0x3b94dd65	0.004542994
24	0xbda530e7	-0.08065968
25	0xbd38b3cb	-0.04509334
26	0xbd07c8c9	-0.033150468
27	0xbcf3c88a	-0.02975871
28	0x3c7d9264	0.015476797
29	0x3d33dde8	0.0439128
30	0x3d4a5e5e	0.0494064
31	0xbcd0cbdd	-0.025487835
32	0x3af4f0e7	0.0018687517
33	0xbbf44f10	-0.007455714
34	0xbdb7ac11	-0.08968366
35	0x3cad1f0b	0.021132967
36	0xbd3c3acc	-0.04595451
37	0xbb1cb2bb	-0.0023910243
38	0xbdd55293	-0.104161404
39	0x3cf5720a	0.029961605
40	0xbcb5b552	-0.022181187
41	0xbcabcca8	-0.020971611
42	0xbdeacc4a	-0.11464746
43	0xbd552e09	-0.052045856
44	0xbd80c85c	-0.062882155
45	0x3d108d7c	0.03529118
46	0xbdfe4770	-0.12415969
47	0xbd8f6b29	-0.07002861
48	0xbd9d0ef6	-0.07668869
49	0xbdd63b07	-0.10460477
50	0xbbaeae5d	-0.0053308443
51	0xbdc7d7fd	-0.09757993
52	0x3c308252	0.010773258
53	0xbd05af2e	-0.032637767
54	0xbdaf12d0	-0.0854851
55	0xbd2bb058	-0.04191622
56	0xbd2fe1e2	-0.042940028
57	0xbd99823e	-0.07495545
58	0xbdc5fbc8	-0.09667164
59	0xbdc246ac	-0.09486136
60	0xbc2cf735	-0.010556986
61	0xbdfcddf9	-0.123470254
62	0x3bd248ff	0.006417393
63	0x3c08ee19	0.008357548
64	0x3db62d45	0.08895353
65	0x3d562e7f	0.052290436
66	0xbc5374d0	-0.012906268
67	0xbd966b07	-0.073446326
68	0x3d296a19	0.04136095
69	0x3d2079af	0.039178547
70	0xbddcbcb3	-0.10778179
71	0xbda3debd	-0.08001468
72	0x3dd40ba6	0.10353784
73	0xbda374a0	-0.07981229
74	0x3d8fa396	0.070136234
75	0xbd117b4a	-0.03551797
76	0x3dc62093	0.09674182
77	0x3d983077	0.07431119
78	0x3cb1b88e	0.021694448
79	0x3d2da9ac	0.04239814
80	0x3db1facb	0.08690413
81	0x3d45169f	0.048117276
82	0xbd597071	-0.053085748
83	0xbd5c0a55	-0.05372079
84	0xbd0d76c6	-0.0345371
85	0x3cd61bc2	0.026136283
86	0xbdc4c95c	-0.09608719
87	0xbde3d4f3	-0.11124601
88	0xbd4c1ddd	-0.049833167
89	0xbd9c5700	-0.076337814
90	0x3baf6bfd	0.0053534494
91	0xbde9c157	-0.1141383
92	0xbbb12af2	-0.005406731
93	0x3e026786	0.12734804
94	0xbd82a502	-0.06379129
95	0xbd6857be	-0.056724302
96	0x3b9e03e2	0.00482224
97	0xbdfbc519	-0.12293453
98	0xbd9900d6	-0.074708626
99	0xbcf084ed	-0.029360259
100	0xbca561da	-0.02018826
101	0xbd6c6e07	-0.057722118
102	0x3dab372b	0.08360132
103	0xbd78fd32	-0.06078834
104	0xbcde5ded	-0.027144397
105	0x3da15937	0.078783445
106	0xbb850a6c	-0.0040600803
107	0x3c4d393f	0.012525856
108	0xbd31a6f6	-0.043372117
109	0xbdfe78f9	-0.124254175
110	0xbb8886ee	-0.0041664755
111	0xbc89e01f	-0.016830502
112	0x3dbc6d86	0.092005774
113	0x395fd37a	0.00021345718
114	0xbde55252	-0.11197342
115	0x3c1e064a	0.009645054
116	0xbc9ff6c2	-0.019526843
117	0xbdc0e801	-0.09419251
118	0x3d4a0a9e	0.04932653
119	0x3cc9bbc5	0.024625668
120	0xbdc67dbf	-0.09691953
121	0x3d8084d7	0.06275337
122	0x3d4ecd13	0.050488543
123	0xbdd6f203	-0.10495379
124	0x3dfc76e5	0.12327365
125	0x3d4bbbe0	0.04973972
126	0xbc6ccbe3	-0.014452907
127	0xbdcd89f1	-0.10036076
128	0xbd4fc077	-0.05072066
129	0x3d33e431	0.043918792
130	0xbd0cf204	-0.03441049
131	0xbcd9358e	-0.026514795
132	0xbd1ab429	-0.03776947
133	0x3d86b0f2	0.065767184
134	0x3d9b8040	0.07592821
135	0xbd98c867	-0.07460099
136	0xbcd570ec	-0.026054822
137	0x3d9f8f3d	0.077909924
138	0xbbc0fdbe	-0.0058896234
139	0xbd37ec49	-0.044903073
140	0x3bd55c18	0.0065112226
141	0x3d85b125	0.06527928
142	0xbc8ccfc7	-0.01718892
143	0xbdae4157	-0.08508556
144	0xbce981c8	-0.028504267
145	0x3d53231c	0.051547155
146	0xbc8bdc99	-0.017072963
147	0x3d3576d7	0.044302788
148	0x3cde416b	0.027130803
149	0x3aaf11ab	0.0013356706
150	0x3d1f67c2	0.03891731
151	0xbc4b1a27	-0.012396372
152	0xbdb32988	-0.08748156
153	0xbd9f39ae	-0.077746734
154	0xbd8d7d7a	-0.069086984
155	0xbcb1f9cf	-0.021725563
156	0xbd8504d6	-0.06495063
157	0x3c6ebfb3	0.014572072
158	0x3c311459	0.010808074
159	0x3d927573	0.07151308
160	0x3b5d01bc	0.0033722958
161	0x3c4b0823	0.012392077
162	0x3d19e9de	0.03757655
163	0xbcc25084	-0.023720033
164	0xbd22ed24	-0.039776936
165	0xbda11989	-0.078661986
166	0xbdba69a4	-0.091021806
167	0x3c9dc961	0.019261064
168	0xbd33e324	-0.04391779
169	0x3c21c907	0.009874589
170	0x3ca8afc0	0.020591617
171	0x3d758c7d	0.059948433
172	0xbc63c6f1	-0.013902412
173	0xbb819f91	-0.0039557894
174	0x3d7cb74e	0.06169825
175	0x3c6cf9fc	0.014463898
176	0x3ce5d2af	0.028054563
177	0xbd3ccd71	-0.04609436
178	0xbd784f80	-0.060622692
179	0x3d904a3b	0.07045408
180	0x3d81551b	0.06315061
181	0xbd0affd2	-0.033935376
182	0x3c35d45b	0.011097993
183	0xbda828fa	-0.08210941
184	0x3b94b792	0.004538485
185	0xbdab2cdc	-0.083581656
186	0x3d7a0fa9	0.06105009
187	0xbdbdc79d	-0.09266589
188	0xbcdd59bb	-0.027020326
189	0x3d8e7ca6	0.069573686
190	0xbcdb6f98	-0.02678661
191	0xbd4d60ba	-0.050141074
192	0x3d8133a5	0.063086785
193	0xbd1101a7	-0.035401966
194	0x3d4b7c7b	0.04967926
195	0x3d663222	0.056200154
196	0x3cffe416	0.03123669
197	0xbd98b433	-0.07456245
198	0x3dbb1e5f	0.09136652
199	0x3d4e8d81	0.050427917
200	0xbd14b5fa	-0.03630636
201	0xbd34e8c7	-0.044167306
202	0xbb3b55d6	-0.0028585098
203	0x3d826b30	0.06368101
204	0x3d3f60b7	0.046723094
205	0x3ac85c4d	0.0015286297
206	0x3d9683c9	0.07349355
207	0x3de7e53c	0.1132302
208	0x3d364add	0.04450499
209	0x3d457463	0.0482067
210	0x3d7bb128	0.061448246
211	0x3b715093	0.0036821708
212	0x3bb035aa	0.005377491
213	0x3dafe687	0.085888915
214	0x3d8fd741	0.07023478
215	0x3d826aba	0.06368013
216	0xbd5adcd3	-0.05343325
217	0xbd095d65	-0.033536334
218	0xbd3ae40d	-0.045627642
219	0xbd7a12de	-0.06105315
220	0x3cbc66d0	0.022998244
221	0x3da2f97a	0.0795774
222	0x3ca708bc	0.020389907
223	0xbc97e6a5	-0.018542597
224	0xbba028d8	-0.0048876815
225	0xbd4d30bf	-0.050095316
226	0xbcf6bd83	-0.030119663
227	0x3c845131	0.016151996
228	0xbd2d947f	-0.042377945
229	0x3ce736a1	0.028224291
230	0x3d93b7ca	0.07212789
231	0x3d1a946a	0.037739195
232	0x3d9cdc2a	0.076591805
233	0xbd7ef9dd	-0.062250007
234	0x3bc97dde	0.0061490377
235	0xbdbbefcb	-0.09176596
236	0x3c91f8ae	0.017818775
237	0xbd58297b	-0.052773934
238	0x3dc7a006	0.09747319
239	0xbda9e2f4	-0.08295241
240	0x3bed8d95	0.007249544
241	0xbd2b34d7	-0.04179844
242	0x3d1596fa	0.036520936
243	0x3c1aaeda	0.009441102
244	0xbc2e6e5e	-0.010646431
245	0xbcbfc3df	-0.023408828
246	0x3d50c266	0.050966643
247	0x3bdca1f7	0.006733175
248	0x3cb389d2	0.021916304
249	0xbb959d63	-0.004565881
250	0xbd6625d2	-0.056188412
251	0xbd2d2f96	-0.04228171
252	0x3dad6a29	0.08467514
253	0x3d95e23b	0.07318541
254	0xbcedf86e	-0.029049125
255	0x3b9782be	0.00462374

lstm.weight_hh_l0 f4 [512, 128]
0	0x3d9661e5	0.07342891
1	0xbd16666c	-0.03671877
2	0x3dae483f	0.085098736
3	0xbbe8bc34	-0.0071025137
4	0xbd367b77	-0.04455134
5	0x3d52f35d	0.05150162
6	0xbdd3e346	-0.10346083
7	0x3c8445e0	0.0161466
8	0xbd8a63fd	-0.067573525
9	0x3d5831f0	0.052782
10	0x3c18f393	0.009335416
11	0x3b4adf8e	0.0030956003
12	0xbc7e3bce	-0.015517188
13	0xbd62f363	-0.055407893
14	0x3c4f080b	0.012636195
15	0x3cc182ee	0.023622002
16	0xbd14f5c3	-0.03636719
17	0xbd707295	-0.058703024
18	0x3d9a2a1f	0.07527565
19	0xb9a6bb84	-0.00031801697
20	0x3d68a578	0.05679843
21	0x3d40e695	0.0470949
22	0xbd1146b0	-0.035467803
23	0xbcba66af	-0.022754041
24	0xbd2afe83	-0.041746628
25	0x3bbf46e9	0.0058373106
26	0x3d603b5a	0.054744102
27	0xbd30c2de	-0.04315459
28	0x3dd6b015	0.10482804
29	0x389e004a	7.534081e-05
30	0x3d115811	0.035484377
31	0x3d2f3836	0.042778216
32	0x3ce8b158	0.028404877
33	0x3d7d1ab1	0.061793033
34	0xbc9bb349	-0.019006388
35	0xbd27b976	-0.040948354
36	0xbda18334	-0.07886353
37	0x3d8a3fd3	0.06750455
38	0x3c62d8bc	0.013845619
39	0xbd127a04	-0.035760894
40	0x3d059404	0.03261186
41	0xbcd3375d	-0.025783235
42	0xbd64ab53	-0.05582745
43	0x3cbae660	0.02281493
44	0xbd656e20	-0.056013227
45	0xbce7ad28	-0.02828081
46	0xbd8ec23e	-0.069706425
47	0x3d2fef12	0.042952605
48	0xbcc4493e	-0.023960706
49	0x3c834af4	0.016026951
50	0x3caa636a	0.020799357
51	0x3d5c0834	0.05371876
52	0x3d8990d2	0.067170754
53	0x3d9982ec	0.074956745
54	0xbd2bee9f	-0.041975614
55	0x3ca4e6cf	0.02012959
56	0x3d179b64	0.037013426
57	0xbdc1ea94	-0.0946857
58	0xbbc764a9	-0.0060849977
59	0x3d039538	0.032124728
60	0xbdf27fa8	-0.11840755
61	0xbd3c5a07	-0.045984294
62	0xbd54b999	-0.051934812
63	0x3da307e1	0.07960487
64	0xbda4bbc8	-0.08043629
65	0xbccda899	-0.025104808
66	0xbcd3a31f	-0.025834618
67	0x3dcceeaa	0.10006459
68	0xbda61006	-0.08108525
69	0x3ce4e55f	0.027941404
70	0xbd4408bc	-0.047859892
71	0xbd2fd85a	-0.04293094
72	0xbba8becc	-0.005149698
73	0xba8e3f18	-0.0010852544
74	0xbd6c6672	-0.057714887
75	0xbdb3d983	-0.087817214
76	0xbd61dc84	-0.05514194
77	0xbd53957c	-0.05165623
78	0x3d21e2cc	0.03952293
79	0x3ca28493	0.019838607
80	0xbd0bac5f	-0.034099933
81	0xbc449767	-0.011998988
82	0x3d861547	0.06547027
83	0xbdc336ec	-0.0953196
84	0x3da23846	0.079208896
85	0xbc50f489	-0.012753614
86	0xbd91bb90	-0.07115853
87	0x3d235dda	0.039884426
88	0x3d9d3877	0.076767854
89	0x3d964b39	0.07338566
90	0xbd26e992	-0.040750094
91	0xbd5821bb	-0.052766543
92	0x3d02d6aa	0.031943
93	0xbd9f7f94	-0.077880055
94	0x3c93e813	0.018054998
95	0xbd8abcdf	-0.067743056
96	0x3cfee345	0.03111423
97	0x3bd91201	0.0066244607
98	0x3d7809b7	0.06055614
99	0xbde8a567	-0.11359673
100	0xbda8abe7	-0.08235913
101	0x3d86cfa3	0.06582572
102	0xbd1c7fa7	-0.038207676
103	0x3d574584	0.05255653
104	0xbde0d036	-0.10977213
105	0x3d311b97	0.043239202
106	0xbb9f1b92	-0.0048555816
107	0x3da64db8	0.081202924
108	0x3d9b05bf	0.07569455
109	0x3d34e91a	0.044167615
110	0xbc00d577	-0.007863394
111	0x3b31dd39	0.0027139916
112	0x3dbc43aa	0.091925934
113	0xbdb85749	-0.09001023
114	0xbde6580b	-0.112472616
115	0xbbb36502	-0.0054746876
116	0xbd989b49	-0.07451493
117	0x3cf730cf	0.030174641
118	0x3cdb9788	0.026805654
119	0x3db19a02	0.08671953
120	0x3db4bc68	0.08824998
121	0xbdba7cbf	-0.09105825
122	0x3d804d04	0.062646896
123	0xbdd730b5	-0.10507337
124	0xbd60dee1	-0.054900054
125	0xbd23b365	-0.039966006
126	0x3d153919	0.036431406
127	0x3b1f02cf	0.0024263149
128	0xbc279bec	-0.010230046
129	0x3c2a1282	0.010380389
130	0xbce3446d	-0.027742589
131	0xbdcd4dd9	-0.10024614
132	0x3d8cfdc4	0.068843395
133	0x3d0204c3	0.031742822
134	0xbd02b4c6	-0.03191068
135	0x3ceeb606	0.02913953
136	0x3d6022a2	0.05472053
137	0xbcce035b	-0.025148084
138	0xbcb078ec	-0.021542035
139	0x3c97cba6	0.018529724
140	0x3be13268	0.006872464
141	0x3d9123a3	0.07086875
142	0x3da71c4f	0.08159696
143	0xbdd6beb4	-0.104855925
144	0xbcc92b54	-0.024556793
145	0xbdb7ee79	-0.08981032
146	0x3c1dfe4e	0.0096431505
147	0x3ddd5136	0.108065054
148	0x3d089628	0.033346325
149	0xbcf7fcf8	-0.030271992
150	0x3c2f3387	0.010693437
151	0x3d5fef37	0.054671492
152	0xbd3a2dc5	-0.045453805
153	0x3d3c2f10	0.04594332
154	0xbd156aa6	-0.03647866
155	0xbc058cdf	-0.008151262
156	0xbd20cc73	-0.039257478
157	0x3d6c2b0f	0.05765825
158	0x3d26b00a	0.040695228
159	0x3c2a5e25	0.010398422
160	0xbd51f994	-0.051263407
161	0xbd920935	-0.07130662
162	0xbd717669	-0.058950815
163	0x3b4793ee	0.0030453163
164	0xbd73e446	-0.05954387
165	0xbc855547	-0.016276015
166	0x3d5fb27e	0.054613583
167	0x3d4ec744	0.050483003
168	0xbdbd2fc9	-0.0923763
169	0x3a2447a6	0.000626678
170	0xbd817c42	-0.063225284
171	0xbd6e2fc5	-0.058151025
172	0xbc95dec5	-0.018294701
173	0x3dbbad3f	0.091639034
174	0xbcf914ac	-0.030405365
175	0xbd7e89da	-0.062143184
176	0x3ba7f6a8	0.0051258393
177	0x3c0252ee	0.007954342
178	0x3dca4fd4	0.09878507
179	0xbca6e59e	-0.020373162
180	0x3d912642	0.07087375
181	0xbd742dc2	-0.05961395
182	0x3d41ee79	0.047346566
183	0xbd9de536	-0.07709734
184	0xbc0b9020	-0.008518249
185	0xbdd3c623	-0.10340526
186	0x3c6859a3	0.014181527
187	0x3d8f633c	0.07001349
188	0xbdbbc75b	-0.091688834
189	0xbcc72257	-0.024308367
190	0x3d8c5f56	0.068541214
191	0xbd8c6274	-0.06854716
192	0xbd21db33	-0.039515685
193	0x3bc93682	0.006140531
194	0x3c9553a6	0.018228363
195	0x3cc52024	0.024063177
196	0xbd125d9c	-0.035733804
197	0xbd9399ef	-0.07207095
198	0xbd5b5ece	-0.05355721
199	0x3d936c24	0.071983606
200	0x3d929dee	0.07159029
201	0x3cc819ed	0.024426425
202	0xbd42bc41	-0.047542814
203	0x3d6aad0b	0.057293933
204	0xbd3aa3de	-0.045566432
205	0xbde4546b	-0.11148914
206	0x3be31075	0.006929452
207	0x3d991b83	0.074759506
208	0x3d8ff7a4	0.070296556
209	0x3d316b88	0.04331544
210	0xbd441567	-0.047871973
211	0xbe0a9d7c	-0.13536638
212	0x3dba34e5	0.0909212
213	0x3d6b329c	0.05742131
214	0x3dc7b841	0.097519405
215	0xbda63332	-0.081152335
216	0x3dcc8bab	0.09987577
217	0x3d0cbd54	0.034360245
218	0x3d936577	0.07197087
219	0x3d195027	0.037429955
220	0xbc99923f	-0.018746493
221	0x3da5f39a	0.08103104
222	0xbc2365b2	-0.0099729765
223	0xbd1c9d13	-0.038235735
224	0x3d9471bb	0.07248255
225	0x3cc46247	0.023972644
226	0x3d1170c5	0.035507936
227	0x3d4fa8c3	0.050698053
228	0xbb2223b4	-0.002474052
229	0x3d87b864	0.066269666
230	0x3d880780	0.066420555
231	0x3d030eb0	0.03199643
232	0xbcf50966	-0.029911708
233	0xbd4630a7	-0.048386242
234	0x3c9dbf64	0.019256301
235	0xbd987dfc	-0.074459046
236	0x3bbcc8db	0.0057612485
237	0x3dbb28b7	0.09138625
238	0xbd6aac2c	-0.057293102
239	0xbce8d4ae	-0.028421726
240	0xbd3ee0e8	-0.046601206
241	0x3c8b18a2	0.01697952
242	0xbd8adca6	-0.067803666
243	0x3d25dc27	0.040493157
244	0xbc8aace5	-0.016928146
245	0xbda96aae	-0.08272301
246	0xbd447144	-0.04795958
247	0xbdc36fc2	-0.095428005
248	0x3dc759cd	0.09733925
249	0x3cb49f9b	0.022048762
250	0x3cb828a1	0.02248031
251	0xbd0b5ecf	-0.034025963
252	0xbd044320	-0.032290578
253	0x3c80dd4d	0.015730524
254	0x3b822008	0.0039711036
255	0xbd2d1d8f	-0.042264517

lstm.bias_ih_l0 f4 [512]
0	0xbced9e22	-0.029006068
1	0xbd1c5958	-0.038171142
2	0xb8c7d388	-9.52846e-05
3	0xbce12476	-0.027483206
4	0xbcff55fc	-0.03116893
5	0xbcd180b9	-0.025574075
6	0x3cfa8d09	0.030584829
7	0x3cae88ca	0.02130546
8	0xbcdf4a51	-0.027257117
9	0xbd0170a6	-0.03160157
10	0x3a1a6789	0.0005890062
11	0x3d06ef0c	0.032942817
12	0x3d10a738	0.035315722
13	0x3dc0c75b	0.09413024
14	0x3c2b5365	0.0104568945
15	0xbbac2773	-0.005253726
16	0xbdaee64f	-0.08540022
17	0xbd843b4a	-0.06456621
18	0x3d7eb88c	0.062187716
19	0x3cb81482	0.022470716
20	0xbcce1e8a	-0.025161047
21	0xbcab7daf	-0.020933954
22	0x3d2c5fef	0.042083677
23	0xbb9729cc	-0.004613137
24	0xbd646588	-0.05576089
25	0x3c1916d9	0.009343826
26	0xbde079f0	-0.10960758
27	0xbcc5e3ad	-0.024156416
28	0xbdbc1d05	-0.091852225
29	0xbdb3cf26	-0.08779745
30	0x3db423d4	0.08795896
31	0x3cdcb882	0.026943449
32	0x3d87e897	0.0663616
33	0x3d8d626a	0.069035366
34	0xbdd20d85	-0.10256485
35	0xbdeb89e7	-0.11500912
36	0xbd1c919b	-0.038224798
37	0x3dc53fa8	0.09631282
38	0x3de987b1	0.11402834
39	0xbca39979	-0.019970642
40	0xbd219052	-0.039444275
41	0xbc00121e	-0.0078168195
42	0x3db9a95b	0.09065505
43	0xbd1a6cf4	-0.037701562
44	0x3d44dcd4	0.04806216
45	0xbce39a21	-0.027783455
46	0xbd52801a	-0.0513917
47	0x3cc23657	0.023707552
48	0x3d143f33	0.036193084
49	0xbd93a436	-0.07209055
50	0x3d54af8d	0.05192523
51	0x3d73daf6	0.05953499
52	0xbb5e972d	-0.003396462
53	0xbd9e3152	-0.07724251
54	0xbd0d6a97	-0.03452548
55	0xbd3ad374	-0.045611814
56	0x3d3ae4a1	0.045628194
57	0xbd5daef3	-0.054121923
58	0xbd24bd26	-0.04021945
59	0xbd21961d	-0.0394498
60	0x3c969ad9	0.018384384
61	0x3d627281	0.05528498
62	0x3da71501	0.08158303
63	0xbd68e23d	-0.056856383
64	0xbcef9254	-0.02924458
65	0x3d463fd7	0.048400726
66	0xbd2c46d5	-0.04205974
67	0x3d6b3f34	0.057433322
68	0xbd82a7ca	-0.063796595
69	0xbdc56ba8	-0.096396744
70	0xbb88f3b7	-0.0041794437
71	0x3d696df5	0.05698963
72	0x3d81778f	0.06321632
73	0x3c930301	0.017945768
74	0xbb1f00e7	-0.0024262012
75	0x3dac830d	0.084234335
76	0x3c6e0037	0.014526418
77	0xbd8a9c0f	-0.06768047
78	0xbdc0c8cb	-0.09413298
79	0xb9dcb479	-0.00042096133
80	0xbd6bcd63	-0.05756892
81	0xbd27fdef	-0.041013654
82	0xbd93ff61	-0.07226444
83	0xbd368d4e	-0.044568352
84	0x3beafa1c	0.0071709286
85	0x3d6ebe63	0.058287036
86	0xbd1b3022	-0.0378877
87	0xbc255c59	-0.010092818
88	0x3d24758e	0.04015117
89	0x3d4905bc	0.049077734
90	0x3d81f6a7	0.06345873
91	0x3d850909	0.06495864
92	0xbc1a8812	-0.009431856
93	0x3d085510	0.033284247
94	0xbca8b800	-0.02059555
95	0xbd38e1d7	-0.045137253
96	0x3caca11b	0.021072915
97	0x3c6e3474	0.014538873
98	0x3ca3139f	0.019906817
99	0xbd68c9e3	-0.05683316
100	0xbd4ec929	-0.05048481
101	0xbd1dd27e	-0.03853082
102	0x3d0c0f9e	0.03419458
103	0xbd6ed391	-0.058307234
104	0x3c7f553b	0.015584285
105	0x3ceb1890	0.028698236
106	0x3d9a42d0	0.07532275
107	0xbc91ba6b	-0.017789086
108	0xbdd9bce7	-0.106317334
109	0xbcc46c98	-0.023977563
110	0x3c174824	0.009233508
111	0x3d83cc10	0.06435406
112	0xbdadb3e0	-0.08481574
113	0xbd219f56	-0.039458595
114	0xbdb66803	-0.089065574
115	0xbcbb732a	-0.022882063
116	0xbd2b74e0	-0.041859508
117	0xbd2d4613	-0.042303156
118	0x3b7b7624	0.0038369978
119	0xbd3dd849	-0.046348844
120	0xbde07212	-0.10959257
121	0x3d4c78b5	0.049919803
122	0xbd5e6285	-0.054293174
123	0x3d35ae36	0.044355594
124	0xbd9b69a4	-0.07588509
125	0x3db66485	0.08905891
126	0x3c687bb9	0.014189654
127	0xbcbd5743	-0.023112899
128	0x3d1335a5	0.03593983
129	0xbc853918	-0.016262576
130	0xbd30ddf8	-0.043180436
131	0xbd04a1c4	-0.032380834
132	0x3d1351f0	0.035966814
133	0x3d4a2380	0.04935026
134	0x3d07350e	0.03300958
135	0x3d5a13ae	0.053241424
136	0x3c81b695	0.015834132
137	0xbdb9e0e1	-0.09076095
138	0x3d8f98f1	0.07011593
139	0x3d11a8df	0.03556144
140	0x3da4772a	0.08030541
141	0x3e1ad1cd	0.15119095
142	0xbd93be65	-0.07214049
143	0xbd4e4595	-0.050359327
144	0xbb0cb97c	-0.0021472862
145	0xbd5c87a2	-0.053840287
146	0x3c81ecfe	0.015860077
147	0x3db03723	0.086042665
148	0xbd8efe44	-0.06982091
149	0x3d44dec1	0.048063997
150	0xbd302651	-0.04300529
151	0xbbb78ce2	-0.0056015113
152	0xbdb88d72	-0.090113536
153	0xbd3083ff	-0.04309463
154	0xbc679e9b	-0.014136936
155	0x3b2213c5	0.0024731022
156	0xbd9b661a	-0.07587834
157	0x3cd95338	0.02652894
158	0x3ca97d9e	0.020689782
159	0x3d865962	0.06560017
160	0x3d47f068	0.048813254
161	0xbd19195f	-0.03737771
162	0x3d34b784	0.044120327
163	0x3d2c7789	0.042106185
164	0xbd1ba49e	-0.037998788
165	0x3d513cec	0.05108349
166	0x3dc6a5fb	0.09699627
167	0x3c40846a	0.01175032
168	0xbd462da9	-0.04838339
169	0x3bd0d202	0.006372691
170	0x3d90278b	0.07038792
171	0x3c830699	0.015994357
172	0x3d505c53	0.050869297
173	0xbd4a812d	-0.049439598
174	0x3d0075d0	0.031362355
175	0xbdc4b36b	-0.09604534
176	0xbc957604	-0.01824475
177	0xbd91d937	-0.071215086
178	0xbd0cd4b8	-0.034382552
179	0xbd03b0cf	-0.03215104
180	0xbd865528	-0.06559211
181	0xbc8eae9b	-0.017417243
182	0x3c6f692a	0.014612475
183	0xbd0e86bc	-0.03479646
184	0x3ccdc495	0.025118152
185	0xbcc825e8	-0.024432138
186	0x3de9a996	0.11409299
187	0x3d0e7fe1	0.034789924
188	0xbd505dcb	-0.050870698
189	0xbd94a3d8	-0.07257813
190	0x3ddd3054	0.108002335
191	0x3d6c801a	0.057739355
192	0x3dbac5de	0.091197714
193	0xbc8540e3	-0.016266292
194	0x3d721b62	0.059108146
195	0xbda5a06a	-0.08087237
196	0x3c6ce516	0.014458915
197	0xbb90195b	-0.004397554
198	0xbd120f3f	-0.03565907
199	0x3cf99929	0.03046854
200	0x3b9b371e	0.004736795
201	0xbd9828c0	-0.074296474
202	0x3c617a29	0.013762035
203	0xbc1bb1a1	-0.009502799
204	0x3d9b3f52	0.07580437
205	0xbc5301d8	-0.012878858
206	0xbc12b01b	-0.00895312
207	0x3c29b44f	0.01035793
208	0xbd86db13	-0.06584754
209	0x3db544da	0.08851023
210	0x3d7c3ec7	0.061583307
211	0x3d8977fe	0.0671234
212	0x3ccdaa2f	0.025105564
213	0x3b032b87	0.0020014958
214	0x3daa3e93	0.08312716
215	0xbd973291	-0.07382692
216	0x3c8a5765	0.016887376
217	0x3db6ed17	0.0893194
218	0x3b88629a	0.004162145
219	0x3c876794	0.016528882
220	0xbdbbf234	-0.09177056
221	0xbd97575b	-0.073897086
222	0x3d6e4f52	0.058181114
223	0x3cae8b47	0.021306647
224	0xbd957e95	-0.07299534
225	0x3d5a7f94	0.053344324
226	0x3db8c554	0.09022012
227	0xbce6ae30	-0.028159231
228	0x3d3d8870	0.046272695
229	0xbd02a4a0	-0.03189528
230	0x3ae744e7	0.0017644436
231	0xbd0edae8	-0.034876734
232	0xbdbfb54e	-0.09360753
233	0x3d8fb32b	0.070165955
234	0xbd8eede6	-0.06978969
235	0xbd802a16	-0.06258027
236	0x3d3d98c9	0.046288285
237	0x3c66d09b	0.014087821
238	0xbd0c5350	-0.03425914
239	0xbd7449e0	-0.059640765
240	0x3cd70657	0.02624814
241	0x3c7c1c5a	0.015387619
242	0x3cd5209f	0.026016532
243	0x3d87aca0	0.066247225
244	0xbcb31093	-0.02185849
245	0xbc22dd8a	-0.009940514
246	0xbd2761fe	-0.040864937
247	0x3d81dc98	0.06340903
248	0xbd09dd42	-0.033658274
249	0xbb038b2b	-0.0020071964
250	0xbd9acd95	-0.07558743
251	0xbabba097	-0.0014314827
252	0xbdd5be56	-0.10436694
253	0x3e0e3900	0.13888931
254	0xbcece01e	-0.028915461
255	0x3d9879bd	0.07445095
