cnn_lstm_2task_inst.pt (torch, 449905 bytes, 18 tensors)

cnn.0.weight f4 [32, 1, 5]
00000000: 1aea 923e 3749 b53e 13e4 153c 13f5 f43e
00000010: 680d 9bbd d327 523d 99d3 84be d4c7 783e
00000020: e711 c53e 6ff9 a9be d9e4 e13e a8e3 f43c
00000030: bf2c 6a3e a4eb 663d 8eeb 713e 6b85 e3bd
00000040: 17cf a33e dfc2 463c f9bf 6bbe a8f6 e83d
00000050: b2c2 f3bd 3bf6 ec3c 9c42 02be d291 b53e
00000060: 238b c7be 1d81 fdbd 9ca8 3cbd 6393 4bbe
00000070: 5d42 a93d 3d62 05bf 3a4a b33e c02d e8be
00000080: 194f 903e a663 433d 46c0 2abe 137b a43e
00000090: ea35 933d 0931 993e 3ab6 cdba 7935 28be
000000a0: 079f 563d 3946 edbd 21f3 653e 6850 b93e
000000b0: c1b3 b93e 10db 50be d07b 783e b35a af3d
000000c0: 148f 513e 43fb 97be 1164 d2be b166 28be
000000d0: 6df4 b8be b7d9 b53e 15f5 263e c450 3f3e
000000e0: 54e5 1e3e bc27 a5bb da01 a83e 1246 a9be
000000f0: 42ce ae3d f1ea 86be 2eff 4a3e ada8 18be
00000100: 439a 093e e104 e2bc 88d8 e13e 525a 4cbe
00000110: a923 4ebe 33ad 66be 640b bc3e e673 0d3e
00000120: a549 d33e 917c c7be a48d f2be 4f08 b9be
00000130: 47c9 a5be 7da9 0e3e 77ee 163e c3ab bc3e
00000140: 9665 61be 7484 9bbe 5aeb 623e 8407 25be
00000150: 8967 9c3e 45d4 66bd 296d a03e c31a a1be
00000160: 8a22 49be 89a2 fd3d 0387 163d be98 1ebe
00000170: cc44 5f3e bc79 7b3e fec6 c4be 7e52 2ebe
00000180: b825 f73e 72f0 aebd 3c7e bdbd 0b02 c6be
00000190: 8c1f 0fbe bab7 633e 1138 933c 7f6e acbe
000001a0: c222 9ebb 931b 8bbe f215 a7be da7a 56be
000001b0: 3e51 e9be d2f9 a7be 1a42 e53e 8211 da3d
000001c0: 3a57 1c3e 9bd9 cfbe a1f5 98be 2d62 8ebd
000001d0: ce36 083e b293 d5be 160a 66be f60a 84be
000001e0: 5a7f ce3d 08f8 8dbd 0642 2f3d 81c7 8fbe
000001f0: b50f bbbe 7c0c a0be 2c0c b7bd 4718 9dbe
00000200: 3590 d03e 90ea 62bd e1cb a73e f401 bd3d
00000210: 56f0 ddbe 8b88 8e3e 5bc4 0ebe a293 d8bd
00000220: fd7d 8dbe d3c2 01bf d56f ab3d 1870 34be
00000230: 28c5 533e 381b aebe 3792 c23e 4a04 8fbe
00000240: a261 0fbc 78cf 1c3e d491 8b3e ae55 983e
00000250: 112f e23e 7678 a4be ae3e c73d 6bc4 49be
00000260: 3e88 7dbd 0752 a2be dfdb d83e f5ce 98be
00000270: a750 833e 4331 453e 3ea2 1d3e 211e 77be
0.2869423 0.3540742 0.009148615 0.47843227 -0.075709164 0.05130751 -0.25942686 0.24294978
0.3849022 -0.33198115 0.4411991 0.029893711 0.22868632 0.05637707 0.23625013 -0.11109432
0.31993935 0.012131422 -0.2302245 0.11375171 -0.119023696 0.028926006 -0.12720722 0.35462815
-0.3897334 -0.12378142 -0.046059236 -0.19880442 0.08264611 -0.52103025 0.35017568 -0.45347404
0.28185347 0.047702454 -0.16674909 0.32125148 0.07188018 0.29920223 -0.0015694567 -0.16426648
0.052397754 -0.115856595 0.22456028 0.36194158 0.36269954 -0.20396066 0.2426598 0.085622214
0.20464736 -0.29683885 -0.4109197 -0.16445424 -0.36123982 0.35517666 0.16304429 0.18683153
0.15517169 -0.005040137 0.32813913 -0.33061272 0.08535434 -0.2635112 0.19823906 -0.14908095
0.13437752 -0.027590217 0.44110513 -0.1995633 -0.20130791 -0.22527008 0.3672744 0.13813743
0.41267124 -0.38962224 -0.47373688 -0.3613915 -0.32380125 0.13931842 0.14739405 0.36849794
-0.22011408 -0.3037449 0.22160092 -0.16116148 0.3054774 -0.05635478 0.31333283 -0.3146573
-0.19642082 0.12384517 0.03674985 -0.15487954 0.21803588 0.24558157 -0.3843307 -0.17023656
0.48270965 -0.08541955 -0.09252593 -0.38673434 -0.13976878 0.22238055 0.01797107 -0.33678052
-0.004825921 -0.27169475 -0.3263393 -0.20945302 -0.45569795 -0.32807785 0.44776994 0.106478706
0.1526765 -0.40595707 -0.298749 -0.06952319 0.13302156 -0.41714245 -0.22464785 -0.25789613
0.10082884 -0.06932074 0.042787574 -0.28081897 -0.3653542 -0.31259525 -0.089378685 -0.30682585
0.4073502 -0.055399477 0.32772735 0.09228888 -0.43347424 0.2783855 -0.13942091 -0.10575034
-0.27635184 -0.50687903 0.0837094 -0.17620885 0.20680678 -0.3400514 0.38002178 -0.2793296
-0.008751305 0.15313518 0.27259696 0.29752868 0.44176534 -0.32123154 0.09728752 -0.19703834
-0.06189751 -0.31703207 0.42355248 -0.29845396 0.2564747 0.19257073 0.15393922 -0.24132587

cnn.0.bias f4 [32]
00000000: 9066 cf3e 3794 bf3d 9ac0 083d 122b dabe
00000010: 267d 363e dbf0 b3bd a18e 1fbe a1c2 de3e
00000020: af95 183e 5c65 83be 9cfd 69be f787 e63c
00000030: 5688 893e 020d 02be a6bf 38be 7487 57be
00000040: 6a5e 85be 7458 4a3e 0fda b83e fad9 bebe
00000050: b9bc 9f3d 8215 713e 57f2 9c3d c22b 05be
00000060: 3fa0 833e 8689 623e 1cf0 f23d 3e1e a6bd
00000070: cc9c 16be 3617 813d b259 9dbd f3a1 cebd
0.40507936 0.093544416 0.033386804 -0.42610985 0.17821178 -0.08786174 -0.15581752 0.43507865
0.1490085 -0.2566327 -0.2285065 0.028141005 0.2686183 -0.12700275 -0.18041858 -0.21047765
-0.26048595 0.19760305 0.36103866 -0.37275678 0.07799668 0.23543361 0.0766341 -0.13004974
0.25708196 0.22122774 0.118622035 -0.08111237 -0.14708251 0.06303255 -0.07683124 -0.10089483

cnn.1.weight f4 [32]
00000000: 0e78 723f 69b4 7d3f ed71 7c3f 1c4b 7e3f
00000010: cc6b 713f 634f 713f 109a 7e3f 1a0c 743f
00000020: 5436 6a3f 3a01 823f f2c9 803f 9685 723f
00000030: 1534 803f 59b7 813f a87b 883f 7e81 8f3f
00000040: 3951 7e3f ce27 803f e8e7 7f3f 125a 813f
00000050: 2e81 753f bd25 5d3f 7691 853f d4b9 613f
00000060: 2c79 6d3f ddf6 5f3f 0711 813f cfce 5d3f
00000070: c5b4 8a3f e7c9 743f e206 823f 7db2 833f
0.9471444 0.9910341 0.98611337 0.9933336 0.9430511 0.9426176 0.9945383 0.95330966
0.9148915 1.0156624 1.0061629 0.94735086 1.0015894 1.0134078 1.0662737 1.1211393
0.99342686 1.0012147 0.99963236 1.0105612 0.9590024 0.8638571 1.0435016 0.88174176
0.9276302 0.8748606 1.0083321 0.8664369 1.0836416 0.9562058 1.015835 1.0288845

cnn.1.bias f4 [32]
00000000: da91 fbbd 2187 d4bd 1ce2 55bd 3e76 873b
00000010: 1b85 b1bc 6ddf cdbc 27a5 01bd 11b9 bdbd
00000020: 8a29 22be 8b3a e8bd 5ad9 d83c d494 d9bc
00000030: 8089 96bd 573c 9dbc aeb8 15be 4051 263e
00000040: e40e 863c 46d6 efbc bb51 87bd d62d 83bc
00000050: 18dc 0ebd efb5 0fbd a371 3abe 9f50 b0bd
00000060: 222f 29bd b5f1 6fbd a5c7 693c ebc4 36bd
00000070: 1eff a9bc 3362 b3bd 6ce8 933d d06a 0cbe
-0.12283678 -0.10377336 -0.052217588 0.0041339686 -0.021669915 -0.025130952 -0.031651642 -0.09263814
-0.15836158 -0.11339291 0.026470829 -0.026560225 -0.07350445 -0.019193811 -0.14621231 0.16241932
0.016364522 -0.029276978 -0.06607386 -0.016013067 -0.034877867 -0.035085615 -0.18207411 -0.08609127
-0.041304715 -0.05858012 0.01426879 -0.04462139 -0.020751532 -0.087589644 0.07222065 -0.1371262

cnn.1.running_mean f4 [32]
00000000: 1e87 683f 6b94 093e 6d16 013f 264e c2be
00000010: b333 703d 32f9 efbe 1e95 00be 7826 303f
00000020: 37be 103f 0af0 74be f863 debe 8e06 413e
00000030: 2f02 8d3e 46e0 62be cd00 13be 0b43 6cbe
00000040: 67d4 adbe 9808 0b3e 2083 b23e 7b9b f7be
00000050: 7106 08bd bb18 05bf 88a2 a73d c405 07bf
00000060: eed0 0ebc 22b3 4b3d fd7b 333e 7827 0cbf
00000070: 0b5e 27be 58cb f03e bffd e0bd b9f5 92bd
0.9083117 0.13435523 0.50424844 -0.37950248 0.058643054 -0.46869808 -0.12556884 0.688087
0.56540245 -0.23919693 -0.43435645 0.18850157 0.27540728 -0.22155866 -0.14355774 -0.2307245
-0.33951113 0.13577497 0.34865665 -0.4836081 -0.033209268 -0.5199086 0.08185297 -0.5274317
-0.008716805 0.04973138 0.17527767 -0.54747725 -0.16344468 0.4703014 -0.10985898 -0.07175774

cnn.1.running_var f4 [32]
00000000: 95dc 573d e96a 0a3b d4ac 3c3d 7359 c33a
00000010: 3608 6a3b fa52 003d da23 003b 7b5e 673c
00000020: 0458 233d 4bda ae3a 28d7 593c 0241 d33b
00000030: 1aaf 103a f7f1 bc3b 8f9b 113c 3afc 073c
00000040: a999 943b 1727 123b ca31 ad3a c11f d23b
00000050: de6e 6e3b d180 f33d da31 083c 0d00 0f3d
00000060: 63b8 923c 3dcd 093c 0388 6f3b 86b5 3a3d
00000070: 826c 953a 8a15 0d3d 0749 d73a 3415 0b3b
0.052700598 0.0021120852 0.04606326 0.0014903977 0.003571046 0.031329133 0.001955262 0.014121647
0.03987886 0.0013340203 0.013295926 0.0064469585 0.0005519256 0.005766149 0.008887186 0.008299882
0.0045349193 0.0022301131 0.0013213691 0.0064124768 0.0036382 0.11889804 0.008312667 0.034912158
0.017910188 0.008410749 0.0036549575 0.04558327 0.0011400136 0.03444437 0.0016424962 0.0021222355

cnn.3.weight f4 [64, 32, 5]
00000000: d8e1 293d 5c23 803d 46c1 5ebc 3eac 05bd
00000010: e205 bcbc c9a5 1bbd 1cdd a4bc 2ad8 863c
00000020: 2faf a0bd 7cf9 86bd c02a 6e3d 7a40 d13c
00000030: e1aa 58bc c45e 81bd eac0 92bd e881 d6bd
00000040: 9085 4fbd 05aa 1fbc 03e6 af3c 2028 b03a
00000050: 66b5 27bd 7704 19bd 45b7 aa3b f2ed af3d
00000060: d79b 1f3d fb6c 2d3c 4bbd 543d 9323 2fbc
00000070: cc0c 0cbd 5bae b53d ee84 8dbd 6762 7bbd
00000080: 51aa e0bd a01b 1e3d e77b a93c 911a 623c
00000090: aa9f 80bd 18ef 9dbd 852a 78bd ce7c 253d
000000a0: 1fea f93c 302e 6e3d 977b 8a3c abb5 1ebc
000000b0: 7052 f0bc 78db 7fbd 6edd b8bd 708d 99bd
000000c0: 41f0 fa3c c46f 6abd 20c6 2d3d 2cb3 99ba
000000d0: 489a 6a3c f2a6 a1bb 2a92 093c 7ff3 d93b
000000e0: 9027 1bbd 5085 6d3d b409 cebc ac88 b9bd
000000f0: 67f4 92bb 54fa 3fbd fd56 3bbd d677 5dbd
00000100: d451 443d e760 4bbd 4956 4d3d daa9 3a3d
00000110: 64ea 223d 489e 79bd 478d b33d db44 133c
00000120: 05ee 833d fa78 dd3d c5c1 5b3c 8ab1 503d
00000130: b52f 033c cb5f 81bd 2780 de3d 3eba 8a3d
00000140: 0005 cd3d e12c c83d 294c 9f3d f243 103d
00000150: 69f5 cb3a c634 b23c d81d 693d b453 6abd
00000160: 154d b6bc a2b3 6dbd b74a c0bc 5ffd a2bd
00000170: e912 d5bc 85d4 1ebc 89c1 a2bd 19bc 933d
00000180: 42d4 9b3d 7363 24bc 9dc2 98bc 1a30 a3bc
00000190: a6f3 52bd 8110 5bbd 897a 143d a320 17bd
000001a0: 15f4 10bd 8337 d93c 9bca caba ffd9 c8bb
000001b0: ce67 bc3c 1778 633c 9e4b 473b a8f8 b9bb
000001c0: 4c63 04bd bee2 be3d a730 7fbc fa7b 403d
000001d0: 0138 dbbb fc3a d43c 8b1c b13d 2f33 753d
000001e0: 690d 39bd 0e22 423d 3307 b43d b5a5 103d
000001f0: 8a57 983d f009 f73d 7e49 2d3c f712 0b3d
00000200: 5e30 cdbc b135 cb3c e938 cd3c 379c 653b
00000210: 3973 88bd f7af c4bd 1554 b9bd 8873 24bd
00000220: 2b6c 12bd d1e7 553b da66 963d 40c5 283d
00000230: b8e6 9ebd 71d4 c3bd f2a4 3f3b 5c51 49bd
00000240: 276f d5bc 5602 ce3c 1589 3abd c86d bfbb
00000250: 552b 88bc 7628 51bd d0a4 03bc 9590 8fbb
00000260: 2871 88ba 7906 3b3d bab7 b83d 1635 12bd
00000270: d00a 99bd 80c8 993b ca9d 583c 24aa 253d
00000280: d7f1 043d 8a29 a33c 13d1 c7bd b211 87bb
00000290: 2eb7 093d 00f3 0d3d 98b5 53bd 79a8 943d
000002a0: c543 993a ca73 b03a 0cd0 d3bd 7340 b3bc
000002b0: 3292 7b3c 3b8c 9f3b a2ab a539 d68f 73bd
000002c0: 1f24 81bd 348a b33c cbb5 953d 9d64 563d
000002d0: 5778 1dbd 39c2 edbc 02b3 10bd f658 b3bc
000002e0: 6a27 083d ed38 363d e425 693d 9a4a 82bd
000002f0: b13a 6d3d 9b2a 3cbd ed63 413d 667c ac3d
00000300: 412d 1c3c dd7e d63d 65b3 ddbc 7b10 83bd
00000310: 0013 b53c e6f8 3abd eacc 28bd 2b84 58bd
00000320: 8f1e 233d 8ea2 d03c 4a0c f43b 6cf1 54bd
00000330: d946 8cbd 2309 923d efb4 093c 1e6b 6fbd
00000340: 6046 11bd becb 0a3e 6034 b7bc 42ec 05bc
00000350: 8d7e c6bc 09b4 dbbd a33c 06be 981e 69bd
00000360: 260a 9fbd 55f6 2bbc a82a 40bd cbb2 02bd
00000370: cfda bd3d a58d 503d fcb2 813d 1974 09bd
00000380: 44d0 75bd c838 8c3d 68fb c0bb 66b5 e2bc
00000390: fb4b a73c 289a 2e3d e9c5 8fbd edc6 11bc
000003a0: 1a36 dbbc 31d1 6bbd 25b3 a1bc f384 eabd
000003b0: 7ed9 27bd 0a75 dbbc 636f 20bd 40be 2dbe
000003c0: 12d1 33bd 2c64 323d 079d c0bd 531c 5a3c
000003d0: c27b d1bd 2525 3d3c d9ce 0e3d cfee 153d
000003e0: aa84 a3bc e960 af3d 9d10 893d f82f 273d
000003f0: ec94 993d 3499 003b 1885 c13b da84 d63d
0.041475147 0.06256744 -0.013595885 -0.032634966 -0.022952024 -0.037999902 -0.020124964 0.016460497
-0.078459136 -0.06590554 0.05814624 0.02554344 -0.013224334 -0.06316903 -0.07165702 -0.104739964
-0.050664485 -0.009745126 0.021471983 0.0013439693 -0.04094448 -0.037357774 0.0052098357 0.08590306
0.03896698 0.010585065 0.051938336 -0.010689634 -0.03419189 0.08871146 -0.0691012 -0.06137314
-0.10969985 0.038600564 0.020688964 0.013800279 -0.062804535 -0.07711619 -0.060587425 0.040402226
0.030507145 0.058149517 0.016904635 -0.009686868 -0.029336184 -0.06246516 -0.09026609 -0.0749768
0.03063214 -0.057235494 0.042425275 -0.0011726371 0.01431901 -0.0049332315 0.008396665 0.0066513414
-0.037879527 0.057988465 -0.025151111 -0.09059271 -0.0044847014 -0.04686959 -0.045737255 -0.054069363
0.0479296 -0.04965296 0.050131116 0.04557214 0.039774314 -0.060941964 0.08767181 0.008988584
0.06441883 0.1081409 0.0134128975 0.050950564 0.00800698 -0.06317099 0.10864287 0.06773804
0.10010719 0.09774185 0.07778198 0.035221048 0.0015560809 0.02175368 0.056913227 -0.05720873
-0.022253552 -0.05803264 -0.023473127 -0.07958483 -0.026009994 -0.009694223 -0.0794707 0.07213611
0.07608844 -0.010033476 -0.018647486 -0.019920398 -0.051501893 -0.053482536 0.03624967 -0.03689636
-0.035389025 0.026515728 -0.0015471758 -0.006129503 0.022998717 0.013883612 0.0030410062 -0.005675394
-0.03232126 0.093205914 -0.0155755645 0.046993233 -0.006690026 0.025907032 0.08648022 0.059863266
-0.045178805 0.04739576 0.08790436 0.03531428 0.07438572 0.12062442 0.010576604 0.033953633
-0.025047477 0.024805875 0.025051551 0.0035035738 -0.06662602 -0.09603875 -0.090492405 -0.04014924
-0.03574769 0.0032639394 0.07343836 0.041203737 -0.0775885 -0.09562004 0.0029242602 -0.049149856
-0.026053978 0.025147598 -0.045540888 -0.0058419444 -0.016622225 -0.051063977 -0.0080349 -0.004381249
-0.00104097 0.04566047 0.09019418 -0.035695158 -0.074727654 0.004693091 0.013221214 0.040445462
0.0324572 0.019917268 -0.097566746 -0.0041219825 0.03362196 0.03465557 -0.051686853 0.07258696
0.001169317 0.0013462242 -0.10342416 -0.021881318 0.01535468 0.0048690117 0.0003159913 -0.059463345
-0.06305718 0.021916486 0.07310065 0.052342046 -0.038444843 -0.029023277 -0.035326965 -0.021893006
0.033240713 0.044487882 0.0569209 -0.06361885 0.0579173 -0.04593907 0.047214437 0.084221646
0.009532274 0.10473416 -0.027063081 -0.06399628 0.022103786 -0.045647524 -0.041211046 -0.05286042
0.039824065 0.025468137 0.007447754 -0.05198805 -0.068494506 0.07130649 0.008404954 -0.058451764
-0.035467505 0.13554284 -0.022363842 -0.008174004 -0.024230266 -0.10727698 -0.13109069 -0.056913942
-0.077656075 -0.010495742 -0.04691568 -0.03190879 0.0927025 0.050916333 0.06332967 -0.033557985
-0.06001307 0.06846768 -0.005889345 -0.027674388 0.020421972 0.042627484 -0.0702017 -0.008897525
-0.026759196 -0.057572547 -0.019738743 -0.11451139 -0.0409789 -0.026789207 -0.039168727 -0.16967106
-0.043900557 0.043552563 -0.094049506 0.013312417 -0.10228683 0.0115445005 0.034865234 0.0366047
-0.01996072 0.08563406 0.06692622 0.04081723 0.07499108 0.0019622566 0.0059057586 0.10474558

cnn.3.bias f4 [64]
00000000: 7129 7a3d 342d bbbd 9212 adbd 1e53 a13b
00000010: ae1b 1fbd 37c8 cd3c 9944 1d3d 6458 da3d
00000020: 0532 9b3c c8d4 b0bd 2ab7 193d f77c 323d
00000030: ca00 60bd a951 f53d edee 203d 351f 96bd
00000040: 26d2 883c c262 80bd 2096 e8bb c3ac 783c
00000050: 9749 99bc 0603 623d 435c 33bd 4229 46bb
00000060: 9bd2 b33d 4fb5 8fbd 0727 2cbe 5182 533d
00000070: 54eb 59bd 1899 8cbc df61 26bd eeb9 ae3c
00000080: 2d36 05bd 4b4a c6bd aa2a 37bd 3100 823d
00000090: 8a37 a6bd fe30 9e3c 8d9b 9a3d 869a 15bd
000000a0: fe82 27bd a940 793c ed14 e2bb ed0b 33bd
000000b0: 276f a33d 24ef 97bd 5058 cfbc d09f 8bbd
000000c0: d5b5 5c3d c30a 38bc c147 fa3d a527 613b
000000d0: 702d 4cbd 1650 2b3b 59af 4f3d 3733 64bc
000000e0: 2eb9 c83c 1c3f 93bd af60 7bbd a6d6 c53c
000000f0: cb97 93bd d65a 433d 2d7f 213d e444 71bc
0.061074678 -0.09139481 -0.08450808 0.0049232384 -0.038844757 0.025119884 0.038395498 0.106613904
0.01894475 -0.08634335 0.037528194 0.043576207 -0.054688253 0.11978466 0.039290357 -0.07330171
0.01670177 -0.062688366 -0.0070979744 0.015177908 -0.018711848 0.055178665 -0.04378916 -0.0030236994
0.08780404 -0.07017004 -0.16811763 0.05163795 -0.053202942 -0.017162845 -0.04062068 0.021328893
-0.03252237 -0.09682139 -0.044718422 0.06347693 -0.08116062 0.01931047 0.075492 -0.03652432
-0.04089641 0.01521317 -0.006899467 -0.043712545 0.07980185 -0.07418659 -0.025310665 -0.06817591
0.053884346 -0.011233035 0.12220717 0.0034355905 -0.04984802 0.0026140264 0.050704334 -0.013928226
0.024502363 -0.071897715 -0.0613715 0.024150204 -0.072066866 0.04769405 0.039427925 -0.014725897

cnn.4.weight f4 [64]
00000000: 11b2 813f 31f8 823f f5b9 813f 0088 813f
00000010: d022 813f 3790 883f 7cba 813f c206 803f
00000020: 7a41 843f 3a85 793f 84c0 813f a336 813f
00000030: 87cf 813f 183b 843f 4505 803f f97d 813f
00000040: e541 823f 8bd9 813f 7128 7f3f 9752 823f
00000050: 7821 843f 9263 813f a971 813f f3c7 803f
00000060: fd06 843f 08cb 803f c23b 813f b6aa 7f3f
00000070: fc38 803f a139 833f 061c 823f f6f6 7d3f
00000080: 16f7 813f d450 823f 939d 7a3f 257d 813f
00000090: 8b89 823f 7868 823f 4abd 753f a355 823f
000000a0: e3ff 803f dac5 813f aa42 813f 048f 7f3f
000000b0: 8e15 813f 27dd 803f a573 813f 02d0 813f
000000c0: 42f9 863f a0de 813f 3ed7 813f 7dfc 7e3f
000000d0: bf12 883f 381b 813f be25 843f 7eff 7f3f
000000e0: 2c4a 813f 0a5c 7d3f 5bea 7b3f 036d 6d3f
000000f0: eb1e 823f dd75 7d3f e860 7b3f f782 813f
1.0132467 1.0231992 1.0134875 1.0119629 1.0088749 1.0669011 1.0135036 1.0002062
1.0332482 0.9746891 1.0136876 1.0094799 1.0141457 1.0330534 1.0001608 1.0116569
1.017636 1.0144514 0.99671084 1.0181454 1.0322714 1.0108511 1.0112811 1.006102
1.0314633 1.006196 1.0096362 0.9986986 1.001739 1.0251962 1.0164802 0.9920496
1.015353 1.0180917 0.9789669 1.0116316 1.0198225 1.0188131 0.9599196 1.0182384
1.007809 1.0138505 1.0098469 0.998276 1.0084703 1.006749 1.0113417 1.0141604
1.0544817 1.0146065 1.0143812 0.99604017 1.0630721 1.0086432 1.0324018 0.99999225
1.010076 0.98968565 0.98404473 0.92744464 1.0165685 0.9900797 0.9819474 1.0118092

cnn.4.bias f4 [64]
00000000: 1ccb ff3b 64d3 02bc fa69 0cbd dfd7 97bc
00000010: 3c88 abbc b76f 223c a659 98bc b68b ddbc
00000020: d2ab b83b 2043 48bd c9a3 cbbc 3eb7 fbbc
00000030: b873 31bd e0e3 bfbb f2dc a4bc f3b0 43bd
00000040: 706a debc d8ef 51bc 24b0 c5bc ee2f 28bc
00000050: 4da8 e33b 3d43 92bc 0e24 84bc ea2c b9bc
00000060: 0c39 47bc 9da8 cfbc 497e 19ba 7782 b3bc
00000070: f4fe 4ebd 2bea edbc c7e1 f0bc d902 71bc
00000080: e6b1 c9bc c4c8 3fbc d71a 8dbc 0bcd 85bc
00000090: 9b9d a7bc 7c9c 7939 ee51 1cbd 5c81 80bc
000000a0: 5117 9cbc e6c3 7cbb d525 9fbc c90a 55bc
000000b0: 8acd 2ebd f899 90bc dd0f 66bc 92a9 c439
000000c0: 1454 773c a9d6 76bc 30fe 41bc 45ec 0bbd
000000d0: 0078 5b3c aee4 acbc 4af2 393a 4b43 56bd
000000e0: 63ec 8cbc 586f 38bd 23ac c3bc bfbe 76bd
000000f0: 9a2d 1cbd 04d3 5eba 40ee 0abd 44b8 b0bb
0.007806195 -0.00798497 -0.034280755 -0.018535553 -0.020938985 0.00991433 -0.018597435 -0.027044158
0.005635717 -0.04889214 -0.024858372 -0.030727025 -0.04332325 -0.0058560222 -0.020124886 -0.047776174
-0.027150363 -0.012813531 -0.024131842 -0.010265334 0.0069475533 -0.017854327 -0.016130473 -0.022604425
-0.012159597 -0.025348956 -0.0005855305 -0.021912796 -0.05053611 -0.029042324 -0.029404534 -0.014710152
-0.024620961 -0.011705581 -0.017224712 -0.016333124 -0.020460894 0.00023804785 -0.03816407 -0.015686683
-0.019054087 -0.0038568913 -0.01942722 -0.01300306 -0.042676486 -0.017651543 -0.014041868 0.00037510373
0.015095729 -0.015065827 -0.011840388 -0.03416087 0.013395309 -0.021105137 0.0007093294 -0.05231027
-0.017202562 -0.04502806 -0.023885792 -0.060240503 -0.038129427 -0.00085000717 -0.03391862 -0.00539306

cnn.4.running_mean f4 [64]
00000000: cfb5 123d 8a90 2bbe 9a82 623f d4bc e53e
00000010: ede7 003f 4d61 0cbe f77f cd3e a09d 313f
00000020: 6798 dfbd 984f 0c3f d1aa 093f 9c53 033f
00000030: 7f90 513f 68ef b3be 3e9a e43d eb73 4b3f
00000040: 3a45 183f 0ed0 ccbd 06d9 f03d 5229 48bd
00000050: 0f8d 3d3d 4382 8f3e 9ced 4f3e 4310 cc3e
00000060: 37ef 10bb 148f 8e3e 4dbb debe 8e4e 073d
00000070: d443 723f 7609 c23e 6f0f 163f c2b6 96be
00000080: 7bcb ebba 0e4d 46bd 1a89 72be 0ae3 60bb
00000090: aaa8 20be d103 72bc 2ba9 0b3f 105a 95bd
000000a0: a8ec b23e b7af 60bd 2b14 023e a2b6 cbbe
000000b0: 6e9f 943f e7b6 e43e b471 af3e 03a5 13bf
000000c0: 60b3 50b9 c5ce 9d3d a024 033e 3f09 fd3e
000000d0: c21e 71be 2122 df3e cecb 183e 1a2b 3e3f
000000e0: a1fc fd3e e030 303f 6460 c3be b148 0abf
000000f0: 509c 2a3f 6bd8 163f 8c82 353e dc74 2fbe
0.035817917 -0.16754356 0.8848053 0.44870627 0.5035389 -0.13708992 0.40136692 0.6938114
-0.1091774 0.5480895 0.5377627 0.5129945 0.8186111 -0.3514359 0.11162232 0.7947375
0.5948063 -0.10000621 0.11760144 -0.04886753 0.046277102 0.2802907 0.20305485 0.39856157
-0.002211524 0.27843535 -0.43502274 0.0330339 0.9463475 0.37897843 0.586173 -0.29436308
-0.0017989719 -0.04841333 -0.23685113 -0.0034315013 -0.1568934 -0.014771418 0.54555005 -0.07292569
0.3494618 -0.054855075 0.12703006 -0.39787775 1.1611154 0.44670793 0.34266436 -0.5767366
-0.00019903248 0.07705454 0.1280694 0.49421117 -0.2354689 0.43580726 0.14921495 0.7428452
0.49606803 0.6882458 -0.38159478 -0.5401717 0.66644764 0.5892398 0.17725581 -0.17134422

cnn.4.running_var f4 [64]
00000000: 49bd 213f b460 3f3e 3041 d53e 0fa5 153f
00000010: f659 f93e a982 a03e 9deb de3e f33a 0e3f
00000020: d61f 523e 4d56 093f 2328 3c3e 4da6 9d3e
00000030: 879c b33e 851c 3b3e 89a8 a33e 1da6 b73e
00000040: 7962 b63e 7099 523e 28a0 933e e040 473f
00000050: ff80 9b3e 1290 a63e 1873 d53e 2b97 d23e
00000060: eaa2 403f c0cf c13e 86fc 843e 7e99 763e
00000070: f2b6 ca3e 7411 983e 15ac 493f b423 5a3e
00000080: a822 5c3e 401b 363e d7d9 fa3e 90ce b03e
00000090: 40fe 803e e637 5c3e 44ce fa3e 63e4 3c3e
000000a0: edf1 cf3e 8714 093f 4fa2 133f ecee 7c3e
000000b0: 0046 0d3f ad64 143f f00e d03e 3e4b a63e
000000c0: 60e7 563e 7ee0 b53e c56a 8f3e c3c6 263f
000000d0: d08e 8a3e a6b3 d73e c11e 9d3e 3bbb ba3e
000000e0: d207 cb3e c59e a23e 53de df3e 1af4 0b3f
000000f0: f5fb 913e 9df3 4f3f 4149 923e 5f34 a73e
0.6317945 0.18689233 0.41651297 0.58454984 0.48701447 0.31349686 0.43539134 0.555587
0.20519957 0.5364731 0.18374686 0.3079094 0.35080358 0.18272598 0.3196452 0.35868922
0.35622004 0.20566344 0.28833127 0.77833366 0.30371854 0.32531792 0.41689372 0.41130957
0.7524859 0.37853813 0.2597391 0.2408199 0.395927 0.29700816 0.787782 0.21302682
0.21497595 0.17783833 0.48994324 0.34532595 0.25193977 0.21505699 0.48985493 0.18446498
0.40614262 0.5354695 0.5766954 0.24700516 0.55184937 0.5796612 0.40636396 0.3247928
0.209867 0.35522836 0.28011146 0.65147036 0.27062082 0.42129248 0.30687526 0.3647097
0.39654404 0.31761757 0.43724307 0.54669344 0.2851254 0.812311 0.28571513 0.32657143

lstm.weight_ih_l0 f4 [512, 64]
00000000: d0a0 a73d b980 29bd ff83 d4bc 885a 783b
00000010: bfde 473d a945 7c3c 8f4b 37bc 28c5 553d
00000020: bb10 f0bc 9552 5dbc a986 aebd a03a f7bd
00000030: 4a87 f93c 53bf b8bd 4d03 cdbd 84bc b1bd
00000040: b6a8 01bd 792d 04bd 6f0c f63c c7da 3d3d
00000050: 2046 093d 9912 9bbd e12e 3b3d eb7b 493d
00000060: 046e 4fbd b41c 8abb 6d89 f9bc cade 403b
00000070: 8c56 f63a 3d9c d53c fcf1 bc3d 7040 c8bc
00000080: cf29 3f3d 61a0 9e3c e750 bbbd 1d38 583d
00000090: e482 f1bb 3feb 2d3c 59f7 80bd fb75 e93c
000000a0: bd50 823c f3b5 a23b 571d 94bd ec88 4cbd
000000b0: 3f75 9abd 174a 993d bc99 bebd 003d 79bd
000000c0: 7f7a 68bd 1274 8bbd 7f90 e93c b7b4 94bd
000000d0: bb62 9d3c 8039 0a3c 0181 5fbd a860 5abd
000000e0: e79c b0ba 8bfc b3bd b704 c9bd 3bb5 c4bd
000000f0: 0628 d4bc adf3 a5bd a127 1e3d fe4d 203d
00000100: 82b9 b83d af86 5e3d 9288 6fbc eea3 85bd
00000110: 7226 153d 5fae 1c3d 4607 cfbd f14c 8ebd
00000120: 7b07 c03d 55c4 88bd b2f5 873d bcc5 1bbd
00000130: eace c23d 56e8 933d 14a1 ff3c 4201 253d
00000140: bc87 ad3d 6017 6a3d fb67 22bd e80e 5ebd
00000150: 6669 15bd 1fdd 0b3d 03a6 99bd fa91 ccbd
00000160: 2deb 55bd e736 88bd 5081 453c 113a d5bd
00000170: 2d16 f1bb 6888 003e 582d 5abd 6967 31bd
00000180: 8b87 843c aa4a ecbd c43a 8dbd 4308 8ebc
00000190: 4c72 37bc 3030 7dbd 048d ab3d 964e 37bd
000001a0: 4c3e 7fbc 97c5 a43d ecbf a33b 2a2e bb3c
000001b0: 99cb 32bd f3a5 e5bd 00da b63b 041f cdbb
000001c0: f82b b63d fc8a 5b3c 240a cdbd c84d 413b
000001d0: 9528 b7bc 0a35 a3bd 078e 453d 0cd5 c73c
000001e0: 7325 a6bd a265 7f3d fbb1 833d 757d cbbd
000001f0: 1d4d f23d fdf2 5c3d 367e 90bc 4202 acbd
00000200: 7fec 59bd 6d74 eb3c de80 20bd 9c02 ddbc
00000210: 3543 32bd dc94 753d 2ddc 8f3d 2671 91bd
00000220: 151e 11bd 1192 9d3d 7770 5abc 4b69 59bd
00000230: 5f2d 243b 0050 943d 3b6d 9cbc 75df bbbd
00000240: abdc 0cbd a9b0 333d 9fba 9bbc 5b8a 273d
00000250: 84ef 903c e771 223b 5d52 343d 5c79 44bc
00000260: 586a c1bd d45f a0bd 4e1b 88bd 785c a4bc
00000270: be5e 8cbd 3513 253c 8773 2b3c e9d1 933d
00000280: 7ffb 593b 0250 da3b 2b86 223d 90aa e4bc
00000290: 3816 2bbd 9a1c b5bd f063 c4bd 70ef c63c
000002a0: a593 3dbd acb2 c83b 451d ad3c 3561 953d
000002b0: 3deb 81bc d385 dfbb 73e9 793d 7733 8e3c
000002c0: 5f67 a43c 7b38 4dbd 24a7 83bd d8b1 883d
000002d0: 3480 623d b67c 16bd 6b8b 433b d2da afbd
000002e0: 3f6c 6f3b b7dd b7bd 3018 823d b6ea e2bd
000002f0: 235c 14bd d933 8b3d f0f9 11bd fcbe 0fbd
00000300: 2689 7c3d 3792 f5bc 07d6 0e3d e9e3 6e3d
00000310: db7e 0f3d 9591 aabd cfa2 bf3d b432 593d
00000320: 9ab4 61bd 59eb 33bd 7e5d 87bc 333f 533d
00000330: bfec fa3c fb5d 5a3b a7a8 953d a859 c83d
00000340: 5f6d f73c fc71 4c3d 0fc0 793d 2962 183b
00000350: 1623 2e3a b840 b73d d362 933d 9045 843d
00000360: 574b 6ebd b3c5 f7bc cfd2 75bd 53ab 83bd
00000370: 4c41 d93b cbc9 873d ba9c af3c 90e2 eabc
00000380: 6823 a9ba 177c 4abd 5361 3fbd 3101 833c
00000390: 79a5 27bd a01a b93c a35f 923d 975f 113d
000003a0: 688f 9d3d 0844 81bd 9d0b 003c 42d2 d6bd
000003b0: 1cc8 3b3b c806 50bd 521c c63d 2e38 c7bd
000003c0: c5c6 0fbb 8d41 24bd 4010 103d 635d 423c
000003d0: 71ec 9dbc 1910 b1bc 26de 2b3d f4f3 b2bb
000003e0: 21bb bd3c 630c 89bc c6a0 7ebd 378f 4fbd
000003f0: 546c 8a3d 580b 983d 6900 f9bc fa9e ff3b
0.081849694 -0.041382525 -0.025941847 0.0037895758 0.04879641 0.015397468 -0.011187448 0.052189976
-0.029304853 -0.013508459 -0.08521778 -0.12071729 0.030460019 -0.09020867 -0.10010395 -0.086785346
-0.031655036 -0.03226993 0.030035226 0.04635122 0.033514142 -0.075719066 0.045699004 0.049190443
-0.05064203 -0.0042148475 -0.030461038 0.0029429668 0.0018794104 0.026075477 0.09225842 -0.024444789
0.04667073 0.019363584 -0.0914629 0.05278789 -0.0073703397 0.010615169 -0.06297178 0.02849864
0.01590764 0.0049655377 -0.07232159 -0.049935266 -0.07541894 0.07484835 -0.09306666 -0.06084919
-0.056757446 -0.06809248 0.028511284 -0.07261031 0.019212117 0.008436561 -0.054566387 -0.053314835
-0.0013474495 -0.08788403 -0.098153524 -0.096048795 -0.02589799 -0.08103118 0.03861201 0.03913688
0.09019758 0.054327663 -0.014619963 -0.06525408 0.036413617 0.03825223 -0.10108809 -0.06948269
0.09376427 -0.06678072 0.066386595 -0.03803037 0.09512122 0.07222049 0.031204738 0.040284403
0.08473155 0.0571512 -0.039649945 -0.054213434 -0.03647747 0.034146424 -0.07502367 -0.0998878
-0.052226234 -0.06651097 0.012054756 -0.10411466 -0.00735738 0.12552035 -0.0532659 -0.04331151
0.016177913 -0.115376785 -0.06895974 -0.017337924 -0.011196684 -0.061813533 0.08376506 -0.04475268
-0.015578818 0.080455 0.004997244 0.022849161 -0.043651197 -0.11213293 0.005580187 -0.006259801
0.08895105 0.013399836 -0.100117 0.0029495824 -0.022358218 -0.07969101 0.04823115 0.02439358
-0.081126116 0.062352784 0.064304315 -0.099360384 0.118311144 0.05394267 -0.017638307 -0.08398868
-0.053204056 0.02874204 -0.039185397 -0.026978783 -0.043521125 0.059956416 0.07024417 -0.071016595
-0.03542908 0.076938756 -0.013332478 -0.05307893 0.0025051457 0.07241821 -0.019095054 -0.091734804
-0.034390133 0.043869648 -0.019009886 0.04090343 0.017692335 0.002478713 0.04402386 -0.011991825
-0.094441116 -0.07830778 -0.06645833 -0.020063624 -0.06854008 0.01007538 0.010464556 0.072177716
0.0033261476 0.0066623697 0.039678734 -0.027913362 -0.041769236 -0.08843346 -0.09589374 0.024284095
-0.046283383 0.006124815 0.02113212 0.072939314 -0.01585924 -0.006821373 0.06101365 0.017358525
0.020068822 -0.050102692 -0.06428364 0.06674546 0.055298045 -0.036740027 0.0029837738 -0.085866585
0.0036533026 -0.089778356 0.0635227 -0.11079924 -0.03622068 0.067969985 -0.03563875 -0.035094246
0.061654232 -0.029976947 0.03487208 0.05832282 0.03503309 -0.08328549 0.09357225 0.05302687
-0.055103876 -0.043925617 -0.016524073 0.051573943 0.030630467 0.0033320177 0.073075585 0.097827256
0.03020352 0.04991339 0.060974177 0.0023251867 0.00066428015 0.08947891 0.071965836 0.064585805
-0.05817732 -0.030245638 -0.060015496 -0.06429162 0.0066300984 0.06630286 0.021437038 -0.028672487
-0.0012904229 -0.049434748 -0.046723675 0.015991779 -0.04092929 0.022595704 0.071471475 0.035491552
0.07693368 -0.06311804 0.007815269 -0.10489322 0.002865321 -0.050787717 0.096733704 -0.09727512
-0.0021938544 -0.040101577 0.035171747 0.011863085 -0.019277783 -0.021614121 0.041959904 -0.0054612104
0.02316052 -0.01672954 -0.062165044 -0.05067369 0.06758943 0.07424039 -0.030395703 0.007800934

lstm.weight_hh_l0 f4 [512, 128]
00000000: 3e07 743d 1011 f1bc 40fd b53d f21e bd3c
00000010: f8f5 44bd ddea 6e3d e6d2 c2bd 80b2 343c
00000020: bb85 83bd bd72 373d 41c6 a4ba 3d1d cf3b
00000030: ca17 e5bc 91f3 9bbd 216a 783b 1e76 d83c
00000040: 806f dbbc 07a6 2bbd 3f37 983d d6bb 253b
00000050: d467 903d a37f 363d 0fa6 bcbc d1c6 73bc
00000060: 529d 07bd fc4c 643c aec9 8f3d 9e93 17bd
00000070: 94ba c33d 9a5e 63bc 01f4 393d 054a 3c3d
00000080: d7f8 1d3d 6bf6 5a3d 7bc5 12bc 97db 84bd
00000090: 230f adbd 11cc 9b3d 7f53 7a3c a8f9 9dbc
000000a0: 8df6 133c 175f a1bc f587 83bd 2a96 9d3c
000000b0: bf90 97bd cb74 28bd 5057 7dbd be1a b13d
000000c0: 82cd 5abd f1c9 c13c 412d 193c 1024 703d
000000d0: 8e33 923d 34ac 7d3d 3255 06bd 554c 853c
000000e0: 314b 063d f49d 9abd 7ff3 95b9 6bb7 683d
000000f0: 4359 e3bd 3aa6 2cbd 91b8 20bd d521 933d
00000100: c193 9ebd 9990 8cbc 6c76 1abd 2fa3 c43d
00000110: d9b6 96bd 6939 a03c 0d83 2bbd 28d3 16bd
00000120: 1ac7 d23a 79ec cfbb e379 55bd 2238 b6bd
00000130: f2d2 67bd 7c44 09bd 5941 553d e1bd 1a3d
00000140: c2d4 42bd 53de 25bc 5e2f 9e3d d4b6 97bd
00000150: 6525 ad3d 2428 e33b 3603 abbd 5c7a 083d
00000160: a27d 923d 16a1 7f3d ab61 13bd aeaa 71bd
00000170: 3e13 b43c eefb a6bd 7adb ff3c a358 97bd
00000180: 6486 ba3c a8ee 4abb 8da4 883d afa0 e2bd
00000190: e475 92bd 7051 503d f3b0 4abd 06bd 823d
000001a0: baba e0bd 80fe 673d 48fb b8bb 5072 8f3d
000001b0: 3b8e 8d3d 38b6 133d ce14 08bc 1c3f 393c
000001c0: 9612 a73d 0800 98bd d1cc 01be 4ceb 083b
000001d0: 1928 99bd 59f5 a53c b337 193d d795 993d
000001e0: ad5c ac3d 6eeb c3bd c7d1 703d d479 c7bd
000001f0: 1293 a8bd ee94 2cbd 6fa1 0c3d 95e9 1dbd
00000200: d8bb a1bb 639a bb3b d73c d6bc 18c1 61bd
00000210: 93d3 373d 74c2 fc3c 3b87 fdbc da2f da3c
00000220: fe3c 5b3d bfd2 c4bc 0186 b4bc d766 fa3c
00000230: 2065 863b 1e3a 403d f53f a83d bcb4 debd
00000240: 4784 fabc 5ee8 aebd 4015 2f3c d43d c73d
00000250: f721 0b3d fb66 efbc cf3e 363b ec78 523d
00000260: e2cd 54bd 7797 293d 79c3 f5bc 2c57 093a
00000270: 68b4 eebc 1d50 523d a53b 2c3d 8a6f 473c
00000280: 12f0 1fbd 975d 96bd 2641 89bd b5b3 6ebb
00000290: ab2f 76bd 0380 30bb fe15 8a3d 1533 373d
000002a0: ab89 b8bd d3d7 a33a d627 75bd 86b1 6fbd
000002b0: 32af 4dbd 8d1a aa3d 2bf2 13bd 9fff c6bc
000002c0: b962 74bc 6e64 3e3c 0fe3 b83d e229 f63b
000002d0: f310 8a3d e4bd 78bd de57 323d cc83 a1bd
000002e0: 505c 2dbc 8dfb c5bd 56c9 643c b019 c13d
000002f0: fb4f b7bd 73d8 edbc bea2 893d 0be5 93bd
00000300: c74f 36bd ff01 c03b d0e2 a23c d77c db3c
00000310: 163d 68bc b492 91bd 2160 59bd 80f6 a23d
00000320: 4e22 a13d 8910 c63c 9385 35bd fede 4e3d
00000330: 65b4 7ebd b52a b3bd 56ad 1c3c 7021 873d
00000340: ae9f 893d 1780 653d e263 14bd 4033 debd
00000350: 2dfd b33d cd19 9c3d 0c4c 993d b6bc adbd
00000360: 7522 bb3d 7cbe 093d 9594 893d 3f82 703d
00000370: 96f7 85bc 12ea a43d 992a 58bc 1a00 12bd
00000380: 7b72 973d abce bb3c 9504 633d b2c7 1b3d
00000390: ed1e 903b f41f 7a3d a702 823d e9ef 123d
000003a0: 8072 f6bc 81d5 1bbd 20e6 f83b ce97 99bd
000003b0: 5735 63bb e435 ad3d 2e6e 60bd 1156 0abd
000003c0: 167d 3ebd ebd0 123d 4d3c abbd 9b2d 223d
000003d0: a031 dcbc b35d a5bd c07a 2fbd e8c7 d2bd
000003e0: e1b1 bd3d c80a a93c 0342 7f3c 70a8 2abd
000003f0: 3077 51bd 8a0b 653c fa9f 93ba 1e6f 1dbd
0.05957722 -0.029427081 0.08886194 0.023086045 -0.048086137 0.05832945 -0.09512882 0.011028886
-0.064219914 0.044787157 -0.0012571291 0.006320624 -0.027965445 -0.07614816 0.0037905055 0.02642351
-0.026786566 -0.041906383 0.07432412 0.002528896 0.07051054 0.044555318 -0.023028402 -0.0148789445
-0.033109017 0.01393437 0.07020889 -0.037006013 0.09557071 -0.013877535 0.045398716 0.045969028
0.03856739 0.05345766 -0.008958216 -0.06487196 -0.08450153 0.07607282 0.015278696 -0.019284084
0.00903095 -0.019698663 -0.06422416 0.019236643 -0.07400655 -0.041127007 -0.061850846 0.08647679
-0.053418644 0.023655863 0.009349168 0.058628142 0.071387395 0.061931804 -0.032796092 0.01627175
0.032786552 -0.075496584 -0.00028600913 0.056815546 -0.1110101 -0.042150714 -0.039238516 0.07184187
-0.077430256 -0.017158793 -0.037710592 0.09601437 -0.07359094 0.019558625 -0.041873027 -0.036822468
0.0016081065 -0.0063453284 -0.052118193 -0.08897425 -0.056597658 -0.033512577 0.052064274 0.03777874
-0.047566183 -0.010123807 0.07723878 -0.074079186 0.08454398 0.0069322754 -0.08350222 0.033319816
0.07152869 0.062409483 -0.035981815 -0.059000663 0.021981832 -0.081535205 0.031232584 -0.07389953
0.02276916 -0.0030965004 0.066720106 -0.11065804 -0.07151392 0.050858915 -0.04948516 0.063837096
-0.10973115 0.056639194 -0.0056451894 0.07004225 0.06911894 0.03606245 -0.0083057415 0.01130655
0.08157842 -0.07421881 -0.12675788 0.00208922 -0.07478351 0.020258592 0.037406635 0.07499283
0.08416114 -0.09566389 0.05879381 -0.09740034 -0.082311764 -0.042134218 0.034333643 -0.03855284
-0.004935723 0.0057251914 -0.026152058 -0.05511579 0.044879507 0.030854441 -0.030948272 0.026634146
0.053524964 -0.024026273 -0.022036554 0.030566616 0.0041014105 0.046930425 0.08215324 -0.10874316
-0.030580653 -0.08540414 0.010686219 0.0972859 0.03396794 -0.02922391 0.0027808433 0.05138485
-0.051954158 0.041404214 -0.030000435 0.0005239125 -0.029138759 0.051345933 0.04204907 0.012172589
-0.03904731 -0.073420696 -0.06701879 -0.0036423032 -0.060104053 -0.002693177 0.06742476 0.04472645
-0.09010633 0.0012500234 -0.059852444 -0.05851891 -0.050215907 0.083058454 -0.03611962 -0.024291812
-0.014916115 0.011620624 0.09027683 0.007512317 0.06741514 -0.06072797 0.043540828 -0.078864664
-0.010581091 -0.0966712 0.013964018 0.094287276 -0.08950802 -0.029033875 0.06720494 -0.07221421
-0.044509675 0.005859613 0.019883543 0.026792927 -0.01417472 -0.071080595 -0.05307019 0.079571724
0.07867871 0.024177806 -0.04431684 0.05050563 -0.062183756 -0.0874838 0.009562811 0.065981746
0.067199096 0.05603036 -0.03622807 -0.10849619 0.08788524 0.076221086 0.07485208 -0.084832594
0.091374315 0.033628926 0.06717793 0.058717962 -0.01635341 0.08052458 -0.01319375 -0.035644628
0.07394882 0.022925695 0.05542429 0.03803224 0.004398218 0.06106563 0.06348162 0.035873327
-0.030083895 -0.03804541 0.0075957924 -0.074996576 -0.0034669244 0.084575444 -0.054792576 -0.033773486
-0.04650601 0.03584377 -0.08361111 0.039594274 -0.026879132 -0.08074512 -0.042841673 -0.10292035
0.09262443 0.020635024 0.015579703 -0.04166454 -0.051139057 0.013979802 -0.0011262887 -0.038436048

lstm.bias_ih_l0 f4 [512]
00000000: 2f9d eabc 1784 0ebd 7df1 fbba 7cf0 13bd
00000010: 1375 0ebd 6bb0 09bd 75eb 083d eea0 1a3c
00000020: 4037 f1bc c282 f3bc 9d87 cabb c5dc f53c
00000030: ec3a 143d 1687 b53d d4c1 0b3c 7bd3 c5bc
00000040: 1aeb d1bd ebce 96bd ebf8 7f3d 765a b33c
00000050: 9263 e6bc 19c0 4fbc 87d6 163d 09d5 a0bb
00000060: b0a7 68bd cf4f 1a3c d66b ecbd 3de2 bfbc
00000070: 9930 c5bd 1a91 ccbd 3583 b93d 01bc d23c
00000080: a875 853d c7c7 853d 382b e3bd 495d fcbd
00000090: 192d 26bd c6e8 b23d d8db e93d 6d9b b7bc
000000a0: 4e5c 51bd 1f97 36bc 4790 ac3d cedf 3abd
000000b0: e4e3 0b3d 0cff d7bc b2ce 58bd 1557 bf3c
000000c0: 8a5e ea3c d687 a1bd 9b9a 523d 15a1 6a3d
000000d0: 5cf3 143b 7c0f aebd 6f92 17bd f0e9 42bd
000000e0: b5b0 423d a1ff 55bd dbd6 41bd a9e8 2ebd
000000f0: bd02 2a3c d022 6e3d cc23 a93d d98f 85bd
00000100: cd4a 07bd 1877 3b3d 08cb 3ebd eabb 743d
00000110: 1c7c 8abd 9aac d7bd 1d22 96bb 5ac7 533d
00000120: 2af5 573d 708c 7c3c 4486 81bb aaf9 a43d
00000130: 7073 8e3c f093 9cbd 607f a4bd bde6 46bc
00000140: 8679 5fbd 4fb0 35bd 0361 9fbd 6526 3dbd
00000150: 20bd a33b 6132 3b3d 3344 3ebd 9770 59bc
00000160: dfd1 173d 3c80 433d 9437 8c3d 2940 853d
00000170: e522 4abc 916f e33c d36b a3bc 0eae 44bd
00000180: 256c 9e3c 5f82 2e3c 85bf 0a3c 4b56 71bd
00000190: d212 51bd b0c9 28bd 947c 2d3d 9d87 81bd
000001a0: b5e6 403c 0fbf 813c 3037 9a3d 58f3 83bc
000001b0: b6ad ddbd 8683 e0bc 989a dcb8 4fc4 783d
000001c0: a8e7 b0bd 1bb5 3dbd f5bd b6bd 1bc7 9bbc
000001d0: 8b50 2fbd c519 35bd 79bb 9a3b 9666 49bd
000001e0: 332d e0bd 11f5 6e3d 2b9f 69bd cfb9 253d
000001f0: 8d79 a0bd 86e8 c93d 1c81 413c 4ca7 0fbd
00000200: 6fff 0c3d 3414 4bbc 51c6 40bd ed0b e9bc
00000210: fbfb eb3c 316e 403d 8ab9 083d c648 3f3d
00000220: 2844 5f3c db74 b8bd 12b9 593d 8913 133d
00000230: bc10 9c3d aa4e f53d 2cbc 96bd 7d92 3dbd
00000240: be72 6dbc b65b 78bd d89a 6a3c 699e b73d
00000250: d277 96bd bee2 513d c0c0 43bd 603d 77bb
00000260: 7e27 bbbd 68e7 32bd ac91 94bc 247c c73b
00000270: 23fd a0bd a826 663c a427 bc3c 7b68 863d
00000280: 4bfa 503d 01da 21bd 8b78 213d 8e8c 0d3d
00000290: 0510 19bd cf09 413d 3e16 cd3d 1528 8c3c
000002a0: bf62 6bbd 5619 2d3c c6f6 7c3d 68cc 473c
000002b0: aa6c 143d cd9e 32bd 12ba 073d 055a d3bd
000002c0: 7d9f 2fbd b7a8 87bd 9ed5 ecbc 1a23 f8bc
000002d0: 53fc 7abd 6cf2 acbc 4afa d33c c8e2 12bd
000002e0: 0518 f83c 9608 a8bc d174 ea3d fcd6 7bbc
000002f0: 1d9e 65bd 38e7 8dbd 2a05 083e 562e 6b3d
00000300: 84db be3d 3f8d 8dbc 51a9 613d 1458 9cbd
00000310: 54c2 d53b 76e7 12bc 4328 23bd 0b79 d03c
00000320: eb60 d3bb f550 a0bd c23b 5e3c 4646 16bc
00000330: cf52 ab3d eb3d 04bd 7174 0bbc 2668 80bb
00000340: a6d5 92bd 38c9 b83d bfcc 873d 58bb 983d
00000350: 8539 103d bdc1 28bd 86b8 b23d a3db 9ebd
00000360: 9ea9 813c 22ab b23d c9b8 b03b bd0a ba3c
00000370: c4b9 c0bd 4b5c 94bd c598 873d 37d7 9f3c
00000380: 1340 97bd d666 673d 3047 9b3d 0528 f4bc
00000390: be87 373d 71a5 23bd 273d d53b cb4e 0abd
000003a0: 6afe c6bd 456a 7a3d 0052 8dbd 3a6f 7ebd
000003b0: 9f8b 333d 6363 773c ff15 aebc fd14 81bd
000003c0: 213a cd3c c900 893c ec7b 013d 32e1 a63d
000003d0: aaea afbc 78a6 57bc 9093 20bd 397e 863d
000003e0: 7b8f 08bd 1af8 b83b a74c 88bd 0801 5fbb
000003f0: 03c9 c7bd 2fdc 283e 216f e6bc d151 843d
-0.028639404 -0.03479394 -0.0019221749 -0.036118016 -0.03477962 -0.03361551 0.033427674 0.009437783
-0.02944529 -0.029725436 -0.006180717 0.030012498 0.036189005 0.08863656 0.008530099 -0.024148693
-0.1024992 -0.07363685 0.062493246 0.021893721 -0.02812365 -0.012680077 0.036825683 -0.0049082083
-0.056800544 0.009418442 -0.115440056 -0.023423309 -0.0962841 -0.099886134 0.09058229 0.025724413
0.06516582 0.06532245 -0.11092228 -0.1232248 -0.040570352 0.08735804 0.11418885 -0.02241298
-0.05111342 -0.0111444285 0.08425956 -0.045623593 0.03415288 -0.026366733 -0.052931495 0.023356954
0.028609533 -0.07887237 0.051416975 0.057282526 0.0022728061 -0.08499047 -0.037004884 -0.04758638
0.047531802 -0.05224574 -0.047324043 -0.04270235 0.010376629 0.05813867 0.08258781 -0.065215774
-0.03303032 0.045767874 -0.046580344 0.05974952 -0.06761953 -0.10530968 -0.0045817033 0.05170379
0.05272404 0.015414342 -0.0039527733 0.08055432 0.01738903 -0.07645404 -0.08032107 -0.012139973
-0.054559253 -0.044357594 -0.077821754 -0.046179194 0.0049969107 0.045702342 -0.04645176 -0.013271472
0.037065383 0.047729716 0.06846538 0.06506378 -0.012337421 0.02776316 -0.019948876 -0.048017554
0.019338677 0.0106512 0.008468513 -0.058920186 -0.05104334 -0.04120797 0.042355135 -0.06324694
0.011773755 0.015838174 0.075300574 -0.016107246 -0.10824148 -0.027406465 -0.00010519213 0.06073409
-0.08637935 -0.046315294 -0.0892295 -0.01901584 -0.04280142 -0.04421403 0.0047220555 -0.0491701
-0.10946121 0.058339182 -0.05703656 0.040460404 -0.07835684 0.098588035 0.011810567 -0.035071656
0.034423288 -0.0123949535 -0.04706413 -0.02844807 0.028806677 0.046980087 0.03338007 0.04670026
0.01362709 -0.090066634 0.053155012 0.035907302 0.07620379 0.119778946 -0.0736011 -0.04628228
-0.014492689 -0.060634337 0.014319144 0.08965761 -0.07347073 0.05124163 -0.047791243 -0.0037725791
-0.09138392 -0.043677717 -0.018135868 0.0060877968 -0.07860782 0.014047302 0.02296812 0.06562897
0.051019948 -0.039514545 0.0394216 0.03455787 -0.037368793 0.047128495 0.10014008 0.017108956
-0.05746722 0.010565123 0.06175878 0.01219473 0.036236443 -0.043608475 0.033136435 -0.10319904
-0.04287671 -0.06623977 -0.028910454 -0.030290175 -0.06127579 -0.02111169 0.025876183 -0.035860807
0.03028489 -0.020511907 0.11448062 -0.0153710805 -0.05605899 -0.06928867 0.1328322 0.057417236
0.09319213 -0.017279265 0.055093113 -0.07633987 0.00652341 -0.008966317 -0.03983332 0.025448343
-0.0064507625 -0.07827941 0.013564052 -0.009172028 0.08365404 -0.032285612 -0.0085116485 -0.0039186655
-0.071696565 0.090227544 0.06630849 0.07457608 0.035211105 -0.04120039 0.08726601 -0.07756736
0.01582795 0.08724047 0.005393122 0.022710199 -0.09410432 -0.07244166 0.06620935 0.019511802
-0.07385268 0.056494556 0.07581937 -0.029804239 0.04480719 -0.0399527 0.006507534 -0.03376655
-0.097164944 0.061136503 -0.06900406 -0.062117793 0.043834325 0.015099379 -0.021250723 -0.06302831
0.025052132 0.016724007 0.03161232 0.08148421 -0.021474201 -0.013162248 -0.039203227 0.06567044
-0.03333996 0.0056448104 -0.06655245 -0.0034027714 -0.09755137 0.16490243 -0.028129162 0.06460918

lstm.bias_hh_l0 f4 [512]
00000000: 0737 c2bd 19ff 4dbd c627 533d b9d4 b53d
00000010: 239e 063d c285 cc3b 447e d6bc f783 843d
00000020: fec1 85bd 13ff 44bd b03e 74bd 17c7 c13a
00000030: 21ee c3bc c8f4 7bbc c2e0 4d3d 2840 193d
00000040: 4a5f 2bbd 112e 993c 63ff 1c3d fe58 bb3d
00000050: 6408 81bd 95ff 63bd 7b1f 70bd 1bef 4b3d
00000060: cc69 6dbd 6aea aabd 6bb8 563d 659e a33d
00000070: bb33 05bd 0c1a d83c 31df c7bb b070 6a3d
00000080: 9759 85bd b29c 023d 07ca 8cbc 303a 093d
00000090: 770f a3bd 62ce bfbc 4296 a63d c6ee c7ba
000000a0: 7d66 183a f361 493d da0f f1bc 556a 89bd
000000b0: 9c15 603d 2271 003d 6ebc 623d 89ce 27bd
000000c0: aed7 293d 3a42 653d 7bba d2bb 57ad 67bd
000000d0: 1b4e 3d3d 977b 0b3d d2ee 52bb aef8 403d
000000e0: 1d4f 9bbc 05a0 f8bc b67f e33d 0fa8 45ba
000000f0: 1344 183d 9dca 063d 42c8 2c3d ae0e dfbc
00000100: da2e 85bd 6425 a6bd 913b bebd 2397 a3bc
00000110: efe3 333d d171 adbc d0c9 9fbc 62ba afbd
00000120: 664f 45bd 8ece 603c 0543 9a3c 906e ac3d
00000130: 399f d43d f5b3 973c a8e3 82bd 6ac2 213d
00000140: a85e 65bc c5e1 11bd 6d1a febc 8dac 2e3d
00000150: 47fe 473c 2cca 4b3d 18fe ccbc 2af0 f93b
00000160: dc61 533d b3c7 383d 7abc d6bc 2df3 563d
00000170: ac2b 9dbd ef3a 75bc 8fce e7bc a338 80bb
00000180: 3309 96bc 5323 b93d 3c10 b5bd d0b7 b7bd
00000190: 61f5 85bb 4134 da3c 179e f338 f306 1abd
000001a0: c69f adbc 028b 14bd 8678 e33c 41cc a23c
000001b0: 5846 9bbd d98e 5bbd 5f03 523d 33d4 2abd
000001c0: 3538 063b 23d9 3f3d 4b21 48bd 22c0 b33d
000001d0: 8617 5d3d fbc5 e03c 8fef 8bbc 797e a5bc
000001e0: f3a2 b9bd 8edc 573d 54f8 18bd 0672 543d
000001f0: 0f7d 893c d889 043e d95e 63bd 67af 82bc
00000200: 8b05 a13c 98e3 be3d 4b36 edbb 4a48 003d
00000210: ce9e 9fbd c447 7cbd 670b 29bd 2b1c 0f3d
00000220: f226 6ebd 9213 d4bd f66f 1f3d 8761 2b3d
00000230: b9db 0a3d ea87 413b b6be 8cbc f85d ac3b
00000240: 9dcf b03b 8b89 adbd 62e7 73bd e85f 1dbd
00000250: 7fa6 8abc da9c 613d 0955 513d 1f60 2abd
00000260: 32e3 4e3d 04ed 44bd beb6 ebbd cdd6 883c
00000270: 043b 6c3d 8f89 1e3d c377 783d ae1c 403d
00000280: f302 8cbd 64bb acbd 46de 523d 031b d7bb
00000290: 6bb1 7fbd 2f3c 68bd 6936 b63c 3a2a f4bc
000002a0: 820e 833c 85c0 143d 8e43 8a3d f048 453d
000002b0: f2b4 9a3c c2b7 88bc f821 8b3d 0d44 24bd
000002c0: 6a05 013d 8534 9d3d 9ae3 c8bc a863 9dbc
000002d0: f4f5 423d 8e31 91bd b700 7bbb 1061 84ba
000002e0: 0779 90bb e5b6 c3bd 81cf 29bc 3005 8f3d
000002f0: cca2 bdba 6521 0abd c81e 3e3d c67f d8bb
00000300: 1ca3 5d3d 3a8d 0b3d 0471 87bd b5a4 123d
00000310: eac1 8bbd 6606 84bc ad5a 75bd 114d 323d
00000320: f3cd cf3d 3f89 b6bd 7249 76bc e573 713d
00000330: 0e17 923a e628 783d 9757 76bc 53e0 0fbd
00000340: fb3f b6bc 94a7 9b3d e396 433c 2c9e 10bd
00000350: 0055 573d 31f3 893d 7e64 a1bd bd08 963d
00000360: a520 ea3c b2b5 4dbd 1e1a 85bd b545 ab3d
00000370: 404f 31bd 89d1 5abc 0ada c53d eb96 a7bc
00000380: 1619 73bc 602e 9a3d 30df 1dbd 97a5 6cbd
00000390: 68d0 a23b 6569 563c 4c02 65bc 7075 6b3d
000003a0: 0559 f33b 2b3f c8bd b838 893d 49e6 8c3c
000003b0: cd06 be3c 152d 013d 26e9 d03d 1690 603d
000003c0: b531 e7bc 6e72 7bbd b93a 833d 116f 873b
000003d0: b252 ac3d 9732 57bd 217e b3bd feb7 90bd
000003e0: 459f ad3c eaed c53d fa42 163c 9fa6 87bb
000003f0: 0775 92bc ae18 f13c 8b8d 363d 8963 b8bb
-0.09483152 -0.05029211 0.051551603 0.08878464 0.032865655 0.006241531 -0.026183255 0.06470483
-0.06531142 -0.04809482 -0.059630096 0.0014784065 -0.02391726 -0.015378185 0.050263174 0.0374147
-0.04183892 0.018698724 0.038329493 0.09147833 -0.063004285 -0.055663664 -0.058623772 0.049788576
-0.057962224 -0.08345492 0.05242197 0.07989196 -0.032520037 0.026379608 -0.0060996045 0.057236373
-0.065112285 0.031887718 -0.017186178 0.033502758 -0.07961934 -0.02341384 0.08134128 -0.0015253655
0.0005813612 0.049165677 -0.029426504 -0.06709734 0.05470811 0.03135789 0.05535548 -0.04096845
0.041465454 0.05597136 -0.0064309216 -0.056561794 0.046217065 0.03405341 -0.0032185805 0.04711216
-0.018958623 -0.03034974 0.11108343 -0.00075399963 0.037174296 0.03290807 0.04218317 -0.02722868
-0.06503077 -0.081126004 -0.09288705 -0.019969529 0.043918546 -0.021172436 -0.019505411 -0.085804716
-0.048171423 0.0137211215 0.018830786 0.084195256 0.10381932 0.018518427 -0.06391078 0.03949205
-0.013999619 -0.0356157 -0.03101846 0.042645026 0.012206621 0.049753353 -0.025023505 0.0076275067
0.051606998 0.045112323 -0.02621292 0.052478004 -0.076743454 -0.014967664 -0.028296737 -0.0039130016
-0.018314933 0.09039941 -0.08840987 -0.08970606 -0.0040880893 0.026636245 0.000116165895 -0.037604284
-0.02119435 -0.03626538 0.027767431 0.019872786 -0.075817764 -0.053603027 0.051272746 -0.041706275
0.002048028 0.046837937 -0.048859876 0.08776881 0.05397751 0.027438154 -0.017082004 -0.020201908
-0.09064283 0.05270057 -0.0373462 0.051866554 0.016783265 0.12943208 -0.055510376 -0.015952779
0.019655963 0.09320754 -0.0072391382 0.03131894 -0.077939615 -0.06159188 -0.04127064 0.034938972
-0.05814261 -0.10355295 0.038925134 0.041841056 0.03390095 0.0029530474 -0.017180782 0.0052602254
0.005395843 -0.084735 -0.059546836 -0.03842154 -0.016925095 0.055081226 0.051106486 -0.041595574
0.05050964 -0.0480776 -0.11509465 0.016703987 0.05767347 0.038705405 0.06066109 0.04690235
-0.068365 -0.084341794 0.051481508 -0.0065644993 -0.06242506 -0.05669802 0.022242742 -0.029805291
0.015998129 0.036316413 0.06751166 0.04816526 0.01888511 -0.016689185 0.067935884 -0.04010396
0.031499304 0.07676033 -0.024522591 -0.019212559 0.04759784 -0.0708953 -0.0038299987 -0.0010099728
-0.004408959 -0.09556369 -0.010364414 0.06983411 -0.0014468073 -0.033723254 0.046416074 -0.0066070287
0.05411063 0.03407023 -0.06613353 0.035801608 -0.068240955 -0.016116332 -0.05990093 0.043530528
0.101467036 -0.08912896 -0.015032159 0.058948416 0.0011145787 0.06058588 -0.0150355315 -0.03512604
-0.022247305 0.07600322 0.01193783 -0.035307094 0.052571297 0.06735838 -0.078804955 0.073258854
0.02858002 -0.050222106 -0.06499122 0.08362905 -0.04328847 -0.013355621 0.09660728 -0.020457705
-0.014837524 0.075283766 -0.038542926 -0.057775106 0.0049686916 0.013086651 -0.013977598 0.057485044
0.0074263834 -0.09777673 0.06700271 0.017199652 0.023196602 0.031537134 0.102007195 0.05482491
-0.028221944 -0.061388426 0.06407685 0.004133113 0.084142104 -0.05253848 -0.087642916 -0.07066344
0.02119411 0.09664519 0.009171242 -0.004139736 -0.017878069 0.029430714 0.04456858 -0.0056271

head_cls.weight f4 [1, 128]
00000000: e6e7 bd3d d511 a5bd fce7 a8bd 170b da3d
00000010: 90cc c13d 95f2 a43d 8063 eebc 29ab 4d3d
00000020: d9f9 2fbd 3d60 543d a922 8e3d 76b8 a6bd
00000030: 126b a03d e9fe 883d 083f 373d 2b59 943c
00000040: 143d b83d a4d4 7eb9 1de7 563c 8668 f6bd
00000050: 075f 0b3b c2eb 6e3c 3f56 99bd c124 a7bd
00000060: b85e 2b3d 72a1 65bd 03cc 67bd 1650 fabd
00000070: bcf5 2c3d 7e26 5a3d 8a4b 5abb ed48 ecbd
00000080: b1a9 c2bd 1463 0f3d b04c 4bbd 76df dcbc
00000090: a9a7 f6bc 58da e7bd 7890 073e 536d a53c
000000a0: 88ca 20bc 92c0 a6bd 42a6 6f3d 948e d8bd
000000b0: e947 703d 708e abbd 2dc0 b4bd e9b6 84bc
000000c0: a137 853d 4c92 b23d 32ec 76bd 1de2 6b3d
000000d0: a933 17bd cad9 ca3c e6fe c03c 773d dbbb
000000e0: 53da 34bd 9453 af3d 88e7 b1bd 36ea ccbd
000000f0: 1d85 adbc d0a4 00bd 051b 5cbd 32c2 ed3d
00000100: a10e dd3d 6617 b6bc c3ab da3c c3d8 6d3c
00000110: 1260 203d eb26 493c 62e8 6b3c c6fe d33a
00000120: d140 bbbd 3d0e 36bd 14c1 a43c a6bd d73d
00000130: 5129 f5bd f499 cabd d287 2b3d f39f 9c3d
00000140: 44de b33d ab84 ca3d 9d8e 883d 7761 3c3d
00000150: d844 e3bd 6ebc 84bd b448 cbbd b0fd d53c
00000160: 0dcd b5bc c202 c03d d4e3 a1bd 49dd f53d
00000170: d619 5d3c 0af3 69bd ee02 00be 51e7 a63c
00000180: cdd7 953d b6d1 a63d f79a d1bd 1e7a 63bd
00000190: c4f6 763d 76b9 873d 28fc ddbd 05c4 ffbd
000001a0: 57c7 783d 4713 183d 758f 963d 4968 63bb
000001b0: f7b6 9a3d 8dc5 013e 6e22 713d 05fd 583d
000001c0: d43f 5b3d 5c5a c33d 7de9 c5bd ca6d 66bd
000001d0: 6163 d0bd 875b c93c 42e0 32bd 2f9d 4d3d
000001e0: 2fd3 f03c f0ca 813c 9f59 d7bd f75d 05bd
000001f0: 9b9d 8bbd 6224 10be bf38 103c 1c79 c3bd
0.09272747 -0.08060042 -0.082473725 0.106466465 0.09462845 0.08054081 -0.02910018 0.05021206
-0.042962883 0.051849592 0.06940205 -0.08140652 0.07832922 0.06689245 0.044737846 0.018108925
0.08996025 -0.00024302542 0.013116625 -0.12031655 0.0021266358 0.014582576 -0.07487153 -0.08161307
0.041838378 -0.05606217 -0.056591045 -0.122223064 0.042226538 0.053259365 -0.0033309185 -0.11537347
-0.09505022 0.035006598 -0.04963368 -0.026962023 -0.030109243 -0.11320943 0.13238704 0.020193731
-0.009813912 -0.081421986 0.058508165 -0.105740696 0.05866233 -0.08376777 -0.08825717 -0.0162005
0.06504751 0.0871931 -0.060283847 0.057588685 -0.0369145 0.024762053 0.023559045 -0.006690677
-0.044153523 0.08560863 -0.08686739 -0.1000561 -0.021181637 -0.031407177 -0.053736705 0.116093054
0.10793806 -0.022227954 0.02669323 0.014517012 0.03915412 0.012277345 0.014398666 0.0016173951
-0.09143222 -0.044447172 0.020111598 0.105342194 -0.11970771 -0.098926455 0.041877575 0.076476954
0.08782628 0.09888586 0.06667826 0.045991387 -0.11097115 -0.064812526 -0.099259764 0.026121944
-0.022192502 0.09375526 -0.07904783 0.120050974 0.013494929 -0.057116546 -0.12501118 0.020373972
0.07316551 0.08145468 -0.10234635 -0.055536382 0.060293928 0.06627171 -0.108391106 -0.1248856
0.06073698 0.03712776 0.07351581 -0.003469961 0.07554429 0.12673016 0.058870725 0.052975673
0.053527668 0.09538719 -0.09663675 -0.056257047 -0.10175205 0.024579776 -0.0436709 0.05019873
0.029397575 0.015843838 -0.10515141 -0.032560315 -0.0681717 -0.14076379 0.008802592 -0.09544584
