cnn_lstm_2task_inst_lambda2-0.75.pt (torch, 450333 bytes, 18 tensors)

cnn.0.weight f4 [32, 1, 5]
0	0x3eb1acc0	0.3470211
1	0x3e962e8b	0.29332384
2	0xbd3c8164	-0.046021834
3	0x3ef30878	0.474674
4	0xbd85b236	-0.06528132
5	0x3d386e04	0.045026794
6	0xbe782567	-0.24233018
7	0x3e827208	0.25477624
8	0x3ec70a8d	0.38875237
9	0xbeaa264c	-0.33232343
10	0x3ee42658	0.44560504
11	0x3c972e9b	0.01845484
12	0x3e7a507a	0.24444762
13	0x3d47e2c1	0.048800234
14	0x3e4fb295	0.20282967
15	0xbde19d00	-0.110162735
16	0x3eabcccd	0.33554688
17	0x3ca0a2c9	0.019608872
18	0xbe6576c0	-0.22408581
19	0x3dc27996	0.09495847
20	0xbe252686	-0.16127977
21	0x3a82e384	0.0009986018
22	0xbe12d4e5	-0.14339025
23	0x3e93f0a0	0.2889452
24	0xbecdb35f	-0.40175912
25	0xbe10b743	-0.14132409
26	0xbd70de66	-0.058805846
27	0xbe5a7013	-0.21331815
28	0x3cb018d2	0.02149621
29	0xbf020637	-0.50790733
30	0x3ee2c6c8	0.44292283
31	0xbead1f5c	-0.33812988
32	0x3ebef5e4	0.37296975
33	0x3dc6ee02	0.09713365
34	0xbe0aed6b	-0.1356713
35	0x3e97acdb	0.29624066
36	0x3ccc8b3a	0.024968732
37	0x3e9c3158	0.30506396
38	0x3c3092a5	0.01077715
39	0xbe2f6bbb	-0.1713094
40	0x3d843b28	0.06456596
41	0xbdf6b1fa	-0.12045665
42	0x3e4c78b2	0.19967917
43	0x3ebdb233	0.37050018
44	0x3eaa4c5f	0.33261392
45	0xbe52e45d	-0.20594926
46	0x3e7426dd	0.2384295
47	0x3d977509	0.073953696
48	0x3e498206	0.19678506
49	0xbe9c5622	-0.30534464
50	0xbee30c5d	-0.4434537
51	0xbe2c8e15	-0.16851075
52	0xbeb891d3	-0.36048755
53	0x3eb1f626	0.3475811
54	0x3e18b1e7	0.14911614
55	0x3e4829ac	0.19547147
56	0x3e01406a	0.12622228
57	0xb98bf22b	-0.00026692575
58	0x3eb03889	0.34418133
59	0xbea48923	-0.32135877
60	0x3d8c8b56	0.06862514
61	0xbe9285e9	-0.2861779
62	0x3e388e80	0.1802311
63	0xbe107265	-0.14106138
64	0x3e06769a	0.1313118
65	0xbce2175f	-0.027599035
66	0x3ee176a3	0.44035825
67	0xbe4c42b3	-0.19947319
68	0xbe43aa99	-0.19108047
69	0xbe52a16c	-0.2056939
70	0x3eb8d57e	0.36100382
71	0x3e023e1c	0.12719005
72	0x3ed0682c	0.40704477
73	0xbeca2e1c	-0.39488304
74	0xbef5a5b4	-0.47977984
75	0xbeb6711c	-0.3563317
76	0xbea4b862	-0.32171923
77	0x3e1a6fec	0.15081757
78	0x3e1e0f6c	0.1543557
79	0x3ebcb346	0.36855525
80	0xbe6dd4d2	-0.23225716
81	0xbea6188e	-0.3244061
82	0x3e510cac	0.2041499
83	0xbe3ccf00	-0.18438339
84	0x3e905050	0.28186274
85	0xbd8c3fff	-0.06848144
86	0x3e9bf576	0.3046071
87	0xbe9ea3a4	-0.30984223
88	0xbe47b24f	-0.19501613
89	0x3e0cf5b1	0.13765599
90	0x3d7029ce	0.058633618
91	0xbe153edb	-0.14574759
92	0x3e641201	0.22272493
93	0x3e7f33e4	0.24922138
94	0xbec1cc6e	-0.3785128
95	0xbe3fd930	-0.18735194
96	0x3eef51ad	0.46742
97	0xbdceb1ea	-0.10092528
98	0xbdd231d1	-0.10263408
99	0xbeb96a15	-0.36213747
100	0xbe2cacd1	-0.16862799
101	0x3e3dbf28	0.18529952
102	0xbcb18ec1	-0.021674516
103	0xbecdb17d	-0.40174475
104	0xbd06dc5d	-0.032925
105	0xbe7812f5	-0.24225982
106	0xbe9bea16	-0.3045203
107	0xbe6e058a	-0.232443
108	0xbef45001	-0.47717288
109	0xbeb1a8a9	-0.3469899
110	0x3eda7e6b	0.42674574
111	0x3d97d744	0.074141055
112	0x3dfe6bb8	0.124228895
113	0xbedd645d	-0.43240634
114	0xbea21ba6	-0.3166172
115	0xbdeb8b80	-0.11501217
116	0x3dc6befe	0.097043976
117	0xbed73ebd	-0.42040053
118	0xbe603503	-0.21895222
119	0xbe830f4a	-0.25597602
120	0x3d95ca1d	0.07313941
121	0xbdb8e332	-0.09027709
122	0x3d081fa9	0.03323332
123	0xbe9003f6	-0.28128022
124	0xbebd343c	-0.36953914
125	0xbe6dd732	-0.23226622
126	0xbe1cc374	-0.15308934
127	0xbeaba740	-0.3352604
128	0x3eccc42f	0.39993426
129	0xbda4145f	-0.08011698
130	0x3ea65bf5	0.32492033
131	0x3dafc6eb	0.085828625
132	0xbede4890	-0.43414736
133	0x3e877b9f	0.26461503
134	0xbe306b55	-0.17228444
135	0xbdc95da9	-0.098323174
136	0xbe900869	-0.28131416
137	0xbf027851	-0.5096484
138	0x3db21f66	0.08697395
139	0xbe2dfe7d	-0.16991611
140	0x3e556b79	0.20841779
141	0xbeae279e	-0.340146
142	0x3ebf755f	0.37394235
143	0xbe8f2bfc	-0.27963245
144	0xbc3dc843	-0.011583391
145	0x3e104f75	0.1409281
146	0x3e868b6c	0.26278245
147	0x3e927533	0.2860504
148	0x3ecbe5b5	0.3982369
149	0xbeb306d0	-0.34966135
150	0x3dd66dfb	0.10470196
151	0xbe472c45	-0.19450481
152	0xbd66bd59	-0.05633292
153	0xbea5e772	-0.3240314
154	0x3ed570a5	0.41687503
155	0xbe9a1344	-0.30092824
156	0x3e805553	0.25065097
157	0x3e3655a9	0.17806114
158	0x3e109fda	0.14123479
159	0xbe840d06	-0.25791186

cnn.0.bias f4 [32]
0	0x3ed2dacd	0.41182557
1	0x3de5f2e5	0.11227969
2	0x3d77014c	0.06030397
3	0xbeb42200	-0.3518219
4	0x3e31a2b1	0.17347218
5	0xbd786187	-0.060639884
6	0xbe2ea06d	-0.17053385
7	0x3ec5f1a9	0.38660935
8	0x3d962d8b	0.073329054
9	0xbe84d5df	-0.2594442
10	0xbe8406ee	-0.25786537
11	0xbc93bc18	-0.018034026
12	0x3e87f337	0.26552746
13	0xbd84a1d2	-0.06476177
14	0xbe61068d	-0.21975155
15	0xbe39e566	-0.18153915
16	0xbea092ac	-0.31361902
17	0x3e1e0aee	0.15433857
18	0x3eac017e	0.33594888
19	0xbed4d6b5	-0.41570058
20	0x3db79a5f	0.08964991
21	0x3e81d087	0.25354406
22	0x3d90af4e	0.07064687
23	0xbe2910b8	-0.16510284
24	0x3e74009e	0.2382836
25	0x3e802359	0.25026968
26	0x3e4202c6	0.1894637
27	0xbdc71b5d	-0.09722016
28	0xbe52ce62	-0.20586541
29	0x3d7856b7	0.060629573
30	0xbd61e734	-0.055152133
31	0xbdceabd4	-0.10091367

cnn.1.weight f4 [32]
0	0x3f786415	0.97027713
1	0x3f72ab7c	0.94792914
2	0x3f7e19af	0.9925794
3	0x3f7668b6	0.96253526
4	0x3f80062b	1.0001882
5	0x3f775db5	0.9662736
6	0x3f79379b	0.9735047
7	0x3f7aca57	0.97964996
8	0x3f761348	0.9612317
9	0x3f81a9eb	1.012998
10	0x3f7d1be5	0.9887069
11	0x3f7642ca	0.9619566
12	0x3f7ee6a7	0.995707
13	0x3f7cad55	0.98701984
14	0x3f87d5de	1.0612142
15	0x3f88c57b	1.0685266
16	0x3f7c1a9b	0.98478097
17	0x3f7ea094	0.9946377
18	0x3f7f63d2	0.9976169
19	0x3f7dd6b3	0.9915573
20	0x3f79f6a1	0.9764195
21	0x3f6c4ced	0.9230488
22	0x3f8543f9	1.0411369
23	0x3f64d9d6	0.8939489
24	0x3f79855e	0.9746913
25	0x3f6bfdd2	0.92184174
26	0x3f7ffb4b	0.9999282
27	0x3f787cfe	0.9706572
28	0x3f8899bb	1.0671915
29	0x3f76edc3	0.96456546
30	0x3f80f30f	1.0074176
31	0x3f858a13	1.0432762

cnn.1.bias f4 [32]
0	0xbd902d6c	-0.070399135
1	0xbd978c04	-0.07399753
2	0xbd324e8e	-0.043531947
3	0xbc490749	-0.012269803
4	0xbc1bd116	-0.009510299
5	0xbd0f0188	-0.03491357
6	0xbd18741e	-0.037220113
7	0xbd1867cd	-0.037208367
8	0xbd8beae6	-0.06831913
9	0xbda1fcf4	-0.07909575
10	0x3ca09404	0.01960183
11	0xbc4df211	-0.01256992
12	0xbd00e8ec	-0.03147213
13	0xbd00ad8e	-0.031415515
14	0xbdf2df62	-0.11859013
15	0x3de46df3	0.11153784
16	0x3b151655	0.0022748907
17	0xbd083847	-0.033256795
18	0xbd1ed637	-0.03877851
19	0xbca55f03	-0.020186907
20	0xbd4092f7	-0.047015157
21	0xbd3f1cd9	-0.04665837
22	0xbcbfd0eb	-0.02341505
23	0xbdadd748	-0.08488327
24	0xbd10a5e6	-0.035314463
25	0xbd879b53	-0.066214226
26	0xbc0dae65	-0.008647536
27	0xbd3f31dc	-0.04667841
28	0xbca30a5d	-0.019902403
29	0xbd764eef	-0.06013387
30	0x3d3b59fe	0.04574012
31	0xbde233f4	-0.110450655

cnn.1.running_mean f4 [32]
0	0x3f5cc5cc	0.86239314
1	0x3e2cb1fb	0.16864769
2	0x3ef9c6c0	0.48784447
3	0xbe9a39af	-0.30122134
4	0xbc3b3b26	-0.011427676
5	0xbeec031b	-0.4609612
6	0x3cf6a583	0.030108219
7	0x3f1a64e4	0.60310197
8	0x3ee71696	0.4513442
9	0xbe820f00	-0.2540207
10	0xbef2fd6f	-0.4745898
11	0x3e0e5097	0.1389793
12	0x3e7a0aee	0.24418232
13	0xbe16f6de	-0.1474261
14	0xbe4c5325	-0.19953592
15	0xbe3ec3f8	-0.18629444
16	0xbedcafb4	-0.431028
17	0x3db7360e	0.08945857
18	0x3eaee898	0.3416183
19	0xbf0ae1c6	-0.5425075
20	0xbde2af43	-0.11068585
21	0xbeec9de7	-0.4621422
22	0x3cab89ba	0.020939697
23	0xbf12f439	-0.57403904
24	0xbd379309	-0.044817958
25	0x3d7f1e26	0.06228461
26	0x3e5fcbc2	0.21855071
27	0xbf08ff67	-0.53514713
28	0xbe639f79	-0.22228803
29	0x3ecabf56	0.39599103
30	0xbdaf21a4	-0.08551338
31	0xbdb5fb25	-0.08885793

cnn.1.running_var f4 [32]
0	0x3d7621fa	0.060090996
1	0x3b2c8b10	0.0026328005
2	0x3d5b0cba	0.053478934
3	0x3af064dc	0.0018340605
4	0x3c2fce4f	0.01073034
5	0x3d450e48	0.048109323
6	0x3c504597	0.012711904
7	0x3c66f066	0.014095401
8	0x3d366a9a	0.044535257
9	0x3aa13650	0.0012299512
10	0x3c940829	0.018070297
11	0x3c051aa1	0.008124025
12	0x3a402124	0.0007329157
13	0x3baf545b	0.005350632
14	0x3c080aaa	0.008303324
15	0x3c0020fd	0.007820365
16	0x3bdbc650	0.0067069903
17	0x3b1e1c88	0.0024125893
18	0x3a9e299e	0.0012066846
19	0x3c0352a1	0.008015306
20	0x3c4dd65b	0.012563313
21	0x3e19efc6	0.15032873
22	0x3c1073cb	0.00881667
23	0x3d4d8c0e	0.050182395
24	0x3cd7da8f	0.026349334
25	0x3c3d8c26	0.0115690585
26	0x3b539494	0.0032284604
27	0x3d64e30f	0.055880602
28	0x3a9f59f1	0.0012157542
29	0x3d0a3d97	0.033750143
30	0x3acd7564	0.0015675244
31	0x3af6ad82	0.001882002

cnn.3.weight f4 [64, 32, 5]
0	0x3d76b4ce	0.060231023
1	0x3d9c6c3f	0.07637834
2	0x3a28a8c6	0.00064338406
3	0xbc0d6e5e	-0.008632271
4	0x3c1e6268	0.009667017
5	0x3c8b59f0	0.017010659
6	0x3d12ab58	0.035807937
7	0x3d190b7a	0.03736446
8	0xbd74819d	-0.05969392
9	0xbcc21d72	-0.023695681
10	0x3d9b88eb	0.075944744
11	0x3d21a634	0.039465144
12	0x3b9bc424	0.0047536064
13	0xbd1f2e62	-0.038862593
14	0xbd20afb6	-0.03923007
15	0xbd54b50d	-0.051930476
16	0xbc2c7084	-0.010524873
17	0x3d23102b	0.03981034
18	0x3d87efd5	0.06637541
19	0x3d6ab335	0.05729981
20	0xbde7e48a	-0.11322887
21	0xbdc3a485	-0.09552864
22	0xbd82272a	-0.06355126
23	0x3cf44355	0.029817263
24	0xbd0e6faa	-0.03477446
25	0xbd836411	-0.064155705
26	0xbc593c30	-0.013258979
27	0xbda4ac22	-0.08040644
28	0xbdce6c8e	-0.10079299
29	0x3bddc83e	0.0067682555
30	0xbccd63f5	-0.025072077
31	0xbbb6363c	-0.0055606645
32	0xbd8b8358	-0.06812161
33	0x3d804cd5	0.062646545
34	0x3d8f73c5	0.07004503
35	0x3d268f49	0.04066399
36	0xbd3de126	-0.046357296
37	0xbd8fc849	-0.07020623
38	0xbd65af15	-0.056075174
39	0x3d89b141	0.067232616
40	0x3d421520	0.047383428
41	0x3d9d69f6	0.07686226
42	0x3d516885	0.05112507
43	0x3cd735bc	0.02627074
44	0x3b523d8e	0.0032080146
45	0xbc825aba	-0.015912402
46	0xbd0704da	-0.03296361
47	0xbd42b439	-0.047535155
48	0x3d77b307	0.06047347
49	0xbc8958ac	-0.016765915
50	0xbd67896c	-0.05652754
51	0xbda23e75	-0.07922069
52	0xbd3813fb	-0.04494093
53	0xbdbaa07b	-0.091126405
54	0xbdb09652	-0.08622421
55	0x3d311df9	0.043241475
56	0xbc40b0db	-0.011760916
57	0x3d78a61d	0.060705293
58	0xbc48cd79	-0.01225602
59	0xbd3ae7c5	-0.04563119
60	0xbbedd4a0	-0.007258013
61	0xbd02e6bc	-0.031958327
62	0xbc855ba9	-0.016279059
63	0xbd72f1df	-0.059312697
64	0x3d825b46	0.06365065
65	0xbd8bcd56	-0.06826274
66	0x3c4da835	0.012552311
67	0xbc44510c	-0.011982214
68	0x3c9b9f71	0.018996926
69	0xbdd85bad	-0.10564361
70	0x3deb99a2	0.115039125
71	0xbba8431d	-0.0051349537
72	0x3d2bf954	0.041985825
73	0x3db21379	0.0869512
74	0x3b4b5f35	0.003103209
75	0x3c9d1925	0.019177029
76	0x3c0f932f	0.008763119
77	0xbd07f08d	-0.03318839
78	0x3d81b7c5	0.063338794
79	0xbd83a01d	-0.064270236
80	0x3c945670	0.018107623
81	0x3cf4abc8	0.029867068
82	0x3d617599	0.05504379
83	0xbd10aa52	-0.03531868
84	0xbdac790d	-0.08421526
85	0x3a95cc51	0.0011428689
86	0x3cd8da51	0.026471289
87	0xbdd892ce	-0.10574876
88	0xbd06189e	-0.03273832
89	0xbd6bc3fd	-0.057559956
90	0x3c946790	0.018115789
91	0xbce16363	-0.027513212
92	0xbcd7f287	-0.026360763
93	0xbcae05d9	-0.021243023
94	0xbd913f65	-0.0709217
95	0x3d10a58e	0.035314135
96	0x3cc59e1f	0.02412325
97	0xbd902e21	-0.070400484
98	0xbd79d88d	-0.060997535
99	0xbdb208cf	-0.08693086
100	0xbde7424d	-0.11291943
101	0xbdeec3de	-0.116584525
102	0xbc941fd5	-0.018081585
103	0xbdbc49b4	-0.09193745
104	0xbdccb625	-0.09995679
105	0xbd592e50	-0.053022683
106	0xbd90fd67	-0.07079583
107	0xbd944e09	-0.072414465
108	0xbd30bcc5	-0.043148775
109	0xbd822134	-0.06353989
110	0x3cd795b3	0.0263165
111	0xbb6e5cdd	-0.0036371269
112	0xbd6c6167	-0.057710078
113	0x3d9f9323	0.07791736
114	0xbc91d118	-0.017799899
115	0xbcade0d6	-0.021225374
116	0xbd8b22b1	-0.06793726
117	0xbd1c94b3	-0.038227748
118	0x3cfe8392	0.031068597
119	0xbc123eb1	-0.00892608
120	0xbdddb8c2	-0.108262554
121	0xbc569be7	-0.013098693
122	0x3c9f7e99	0.019469546
123	0xbd185230	-0.037187755
124	0xbb8eae38	-0.0043542646
125	0x3d2184ea	0.039433397
126	0xbd336076	-0.043793164
127	0xbc5fe768	-0.013666011
128	0xbdb056a9	-0.08610279
129	0xbd475997	-0.048669424
130	0x3dda407c	0.10656831
131	0x3da55e4e	0.08074628
132	0xbcae33e0	-0.02126497
133	0xbcefa07b	-0.029251328
134	0xbc70458a	-0.014665017
135	0xbe036b37	-0.12833868
136	0xbdd96af8	-0.10616106
137	0xbd7cd726	-0.06172862
138	0x3c672381	0.014107586
139	0xbcd9092e	-0.026493635
140	0xbc928ec0	-0.017890334
141	0xbce5b73f	-0.02804148
142	0x3d4a3e55	0.04937585
143	0xbd1bb9c7	-0.038018968
144	0x3c870d4b	0.01648583
145	0x3d469dab	0.048490208
146	0xbce0dc65	-0.027448842
147	0x3b0f42c1	0.0021859857
148	0x3b8d1fe3	0.0043067797
149	0xbc3674fe	-0.011136292
150	0xbc44b3c2	-0.012005748
151	0xbcefb5e4	-0.029261537
152	0xbcc016cf	-0.023448376
153	0xbc0a856f	-0.008454665
154	0x3dd31223	0.10306194
155	0xba406d99	-0.000734055
156	0xbcb65734	-0.022258379
157	0x3d3bad72	0.045819707
158	0x3d554970	0.05207199
159	0x3d9a3e09	0.075313635
160	0x3d4ab874	0.049492314
161	0x3d0464d2	0.032322712
162	0xbdaf809e	-0.08569454
163	0x3b9ed2c7	0.004846904
164	0x3d2fb16f	0.042893823
165	0x3d1397d5	0.03603347
166	0xbd9c5f62	-0.0763538
167	0x3d831d6f	0.064020984
168	0xbc451e8d	-0.01203121
169	0x3acec58b	0.0015775425
170	0xbdab8e9b	-0.08376809
171	0xbb975f04	-0.004619481
172	0x3d047b8e	0.032344393
173	0x3c7f3d70	0.015578613
174	0x3c23d65c	0.009999838
175	0xbd2f90d6	-0.042862736
176	0xbd2f440e	-0.04278951
177	0x3ca51bea	0.020154912
178	0x3d96e65a	0.07368155
179	0x3d49253b	0.04910777
180	0xbd27a941	-0.040932897
181	0xbc83d98f	-0.016094951
182	0xbd2c18bf	-0.042015787
183	0xbcfe5021	-0.031044068
184	0x3cbe156b	0.023203572
185	0x3d3f2940	0.0466702
186	0x3d886965	0.066607274
187	0xbd85cb2d	-0.06532893
188	0x3d5b59b4	0.053552344
189	0xbd49de14	-0.049284056
190	0x3d090730	0.03345412
191	0x3d6f6dba	0.058454253
192	0xbbeb3acc	-0.00717864
193	0x3d96a4ea	0.073556736
194	0xbd6ccae4	-0.05781068
195	0xbd2576cc	-0.040396497
196	0x3d11022a	0.035402454
197	0xbd20e3ea	-0.039279856
198	0xbd108b3b	-0.03528903
199	0xbd2b3817	-0.04180154
200	0x3d49303f	0.049118277
201	0x3cfdea4c	0.03099551
202	0x3c9f6c6e	0.019460883
203	0xbd2e9ca3	-0.04262985
204	0xbd792fe4	-0.060836688
205	0x3d917034	0.07101479
206	0x3c6b5d59	0.0143655175
207	0xbd8428a9	-0.06453068
208	0xbca5c461	-0.020235242
209	0x3de826a6	0.113354966
210	0xbc30f365	-0.010800217
211	0xbb88594a	-0.0041610347
212	0xbd076de7	-0.033063795
213	0xbdcf7877	-0.10130399
214	0xbde7f140	-0.11325312
215	0xbd1e6ca8	-0.03867784
216	0xbd892f78	-0.06698507
217	0xbb10b918	-0.002208298
218	0xbd150ad6	-0.036387287
219	0xbcea6cc8	-0.028616324
220	0x3db7f8dc	0.08983013
221	0x3cbe5e94	0.023238458
222	0x3d7b0c90	0.061291277
223	0xbd45d172	-0.048295446
224	0xbd714f10	-0.05891329
225	0x3d7682ba	0.060183264
226	0xbc8383d4	-0.016054071
227	0xbd23d34f	-0.03999644
228	0x3cc83e95	0.024443904
229	0x3d08dcc3	0.03341366
230	0xbd238baf	-0.039928135
231	0x3c526e6d	0.01284371
232	0x3c461e11	0.012092129
233	0xbca73fa5	-0.02041609
234	0x3ca4e738	0.020129785
235	0xbda9965c	-0.08280632
236	0xbd669dca	-0.056302823
237	0xbcc93152	-0.02455965
238	0xbca9a0df	-0.020706592
239	0xbdd53de0	-0.10412192
240	0xbd25fb51	-0.040522877
241	0x3cc905ea	0.024538953
242	0xbdd89348	-0.10574967
243	0x3c12a6fe	0.008950947
244	0xbdb0e143	-0.08636715
245	0x3c935356	0.017984074
246	0x3cc0b63b	0.023524394
247	0x3cce3ae0	0.025174558
248	0xbbdfaf78	-0.0068263374
249	0x3db6f5a6	0.089335725
250	0x3d2fdd53	0.04293568
251	0x3cd40c6e	0.025884833
252	0x3d836dfd	0.06417463
253	0xbd03e6a1	-0.032202367
254	0xbc8681ce	-0.016419318
255	0x3dbcadda	0.09212847

cnn.3.bias f4 [64]
0	0x3d7ec004	0.06219484
1	0xbd95bdd2	-0.07311596
2	0xbd8f8035	-0.070068754
3	0x3d11882c	0.035530254
4	0xbd249e0c	-0.040189788
5	0x3ce454c5	0.027872453
6	0x3debbc91	0.115105756
7	0x3dbbb0f0	0.091646075
8	0x3d8fb1f3	0.07016363
9	0xbdd5bc20	-0.104362726
10	0x3be801ce	0.0070802933
11	0x3cc76da6	0.024344277
12	0xbdaf77e8	-0.08567792
13	0x3ce09307	0.027413858
14	0x3d706fac	0.05870025
15	0xbd789e13	-0.060697626
16	0x3c1d6975	0.009607662
17	0xbc8f0f71	-0.017463418
18	0x3d018826	0.031623982
19	0x3c07e4a6	0.00829426
20	0xbd136c86	-0.035992168
21	0x3ce41032	0.027839754
22	0xbd23192b	-0.039818924
23	0x3cb57c8e	0.022154119
24	0x3d679dbd	0.056546915
25	0xba0a6c19	-0.000528039
26	0xbd012407	-0.0315285
27	0x3c3e22c3	0.0116049675
28	0xbdb8264d	-0.0899168
29	0x3d371e89	0.044706855
30	0xbca53049	-0.020164626
31	0x3d3aa5af	0.045568164
32	0x3c5412aa	0.012943903
33	0xbd1d85d4	-0.038457707
34	0xbd13d8fe	-0.03609561
35	0x3d96d836	0.07365458
36	0xbd471c97	-0.04861125
37	0x3b52f282	0.0032188003
38	0x3da591b6	0.08084433
39	0xbcd9f51c	-0.026606135
40	0xbdb90e11	-0.09035886
41	0x3d07ff62	0.033202536
42	0xbcf871db	-0.030327728
43	0xbd82e26a	-0.06390841
44	0x3d95f191	0.07321466
45	0xbdc1ccc0	-0.09462881
46	0xbd1c18e6	-0.038109683
47	0xbd6f2254	-0.058382347
48	0x3d008970	0.03138107
49	0x3ca43185	0.020043144
50	0x3d34e787	0.044166114
51	0xbc2c442d	-0.010514301
52	0x3c8cf3be	0.01720607
53	0xbd8d8d67	-0.06911736
54	0x3d648890	0.0557943
55	0x3ccc9dcb	0.024977585
56	0x3ced0fe7	0.028938247
57	0xbd878fdd	-0.066192366
58	0xbda6b692	-0.08140291
59	0xbd92c514	-0.07166496
60	0xbc71ded4	-0.014762599
61	0xbc534e52	-0.012897091
62	0xbd3db6ad	-0.04631679
63	0x3d19ec42	0.03757883

cnn.4.weight f4 [64]
0	0x3f7ab187	0.97927135
1	0x3f80f4b8	1.0074682
2	0x3f81842b	1.011846
3	0x3f8073ff	1.0035399
4	0x3f7d0d85	0.98848754
5	0x3f7e63e8	0.99371195
6	0x3f809f42	1.0048602
7	0x3f803307	1.0015572
8	0x3f82a626	1.0206954
9	0x3f7bdd2b	0.9838435
10	0x3f808689	1.0041057
11	0x3f7cb585	0.98714477
12	0x3f81bc59	1.0135604
13	0x3f853956	1.0408123
14	0x3f804ab8	1.0022802
15	0x3f812afd	1.0091244
16	0x3f817496	1.0113704
17	0x3f81157e	1.0084684
18	0x3f7d7dfe	0.99020374
19	0x3f821a1a	1.0164216
20	0x3f811ff1	1.0087873
21	0x3f7ed47e	0.9954299
22	0x3f802256	1.0010478
23	0x3f7ef87a	0.99597895
24	0x3f83b6ff	1.0290221
25	0x3f805434	1.0025697
26	0x3f8223d2	1.0167181
27	0x3f801c6e	1.0008676
28	0x3f80b02b	1.0053762
29	0x3f82ea41	1.0227739
30	0x3f80c348	1.0059595
31	0x3f7e49d8	0.99331427
32	0x3f7ff937	0.99989647
33	0x3f8465fe	1.0343626
34	0x3f80a36f	1.0049876
35	0x3f80e33c	1.0069346
36	0x3f80bd95	1.0057856
37	0x3f7b3093	0.98120993
38	0x3f7a7029	0.9782739
39	0x3f7f5f38	0.9975467
40	0x3f803b18	1.0018034
41	0x3f802fac	1.0014548
42	0x3f80d0d8	1.0063734
43	0x3f817cb3	1.011618
44	0x3f816ba7	1.0110978
45	0x3f8017ef	1.0007304
46	0x3f805236	1.0025089
47	0x3f824334	1.0176759
48	0x3f829d03	1.0204166
49	0x3f8067df	1.0031699
50	0x3f812340	1.0088882
51	0x3f8149e5	1.0100676
52	0x3f853868	1.0407839
53	0x3f80d5a6	1.00652
54	0x3f81432b	1.0098623
55	0x3f80d1e2	1.0064051
56	0x3f801cd0	1.0008793
57	0x3f7be1ed	0.9839161
58	0x3f817753	1.011454
59	0x3f7d2e92	0.98899186
60	0x3f8288bf	1.0197982
61	0x3f7bbcba	0.9833485
62	0x3f7e5c19	0.9935928
63	0x3f8039fa	1.0017693

cnn.4.bias f4 [64]
0	0xbc6fe5a7	-0.014642156
1	0xbc907f19	-0.01763873
2	0xbc97ead7	-0.018544598
3	0xbcaaadc6	-0.020834815
4	0xbd12adb3	-0.035810184
5	0xbc91c99c	-0.01779633
6	0xbca8e29f	-0.020615874
7	0xbca4c8d5	-0.020115295
8	0xbc690b0f	-0.014223828
9	0xbcf44403	-0.029817587
10	0xbcbc9bce	-0.023023512
11	0xbd0777bf	-0.033073183
12	0xbcc67283	-0.024224525
13	0x3b76f88b	0.0037684764
14	0xbcbd4ba1	-0.023107352
15	0xbcf574f8	-0.029963002
16	0xbc9559e6	-0.018231343
17	0xbca9713f	-0.020683883
18	0xbd06140e	-0.03273397
19	0x3bfbb3d6	0.00768135
20	0xbc603b0e	-0.013685955
21	0xbcb3217c	-0.021866553
22	0xbcbdc451	-0.0231649
23	0xbcc99238	-0.024605855
24	0xbb06f54b	-0.0020592983
25	0xbcaa8b2e	-0.02081832
26	0x3bcd189e	0.006259038
27	0xbc9fe2d7	-0.019517345
28	0xbcc7d48a	-0.024393339
29	0xbc854b58	-0.016271278
30	0xbcd27ab9	-0.025693284
31	0xbcf8632c	-0.030320726
32	0xbcc6aacb	-0.024251362
33	0xbc7145bc	-0.014726099
34	0x3b5e3296	0.0033904663
35	0xbcd14caa	-0.025549252
36	0xbcb80d72	-0.022467349
37	0xbc6d3b51	-0.014479474
38	0xbcf80bf5	-0.030279139
39	0xbc9c3c5b	-0.019071748
40	0xbca70c4e	-0.02039161
41	0xbcee2350	-0.029069573
42	0xbcb5def4	-0.022201039
43	0x3b7def7d	0.0038747482
44	0xbca22790	-0.019794255
45	0xbca15d0e	-0.019697692
46	0xbc721f03	-0.014777902
47	0x3c08771c	0.008329179
48	0xbc6e173b	-0.014531906
49	0xbc7ea419	-0.015542054
50	0xbca16648	-0.019702092
51	0xbc41cd30	-0.011828706
52	0x39d6c00b	0.00040960344
53	0xbc901e2b	-0.01759251
54	0xba51ba9c	-0.0008000524
55	0xbcd149c5	-0.025547871
56	0xbcbdda57	-0.023175402
57	0xbd0d8ba0	-0.034556985
58	0xbb799bd1	-0.0038087259
59	0xbce05950	-0.027386338
60	0xbcc658e1	-0.024212303
61	0xbd2a961c	-0.04164706
62	0xbc978da2	-0.018500153
63	0xbc10f3d5	-0.008847197

cnn.4.running_mean f4 [64]
0	0xbf2b26d2	-0.6685611
1	0x3d95c367	0.07312661
2	0x3f50d1cb	0.8157012
3	0x3e295c11	0.16539027
4	0x3e357807	0.17721568
5	0x3f0c38a9	0.54773957
6	0x3f20c02e	0.6279324
7	0x3f485cc4	0.7826655
8	0x3e9706be	0.2949733
9	0x3f014685	0.5049823
10	0x3ee2398f	0.4418454
11	0x3effff6e	0.49999565
12	0x3f237d17	0.63862747
13	0xbd94f7d5	-0.07273833
14	0x3dcdbd3c	0.10045859
15	0x3f19cfa2	0.6008245
16	0x3f1eab82	0.6198045
17	0x3e2e5244	0.1702357
18	0x3ee9dd39	0.45676592
19	0xbe771626	-0.24129543
20	0x3f396e16	0.724336
21	0x3ea5092a	0.32233554
22	0x3e834b9a	0.25643617
23	0x3ea8f18b	0.32996783
24	0xbeca2d8d	-0.39487877
25	0x3eb31ff6	0.34985322
26	0xbe952da1	-0.29136375
27	0x3e1b2d42	0.15153983
28	0x3f56835d	0.83794194
29	0x3ed0dbcd	0.40792695
30	0x3e178748	0.147977
31	0x3ed00034	0.40625155
32	0x3de9252e	0.113840446
33	0xb7a059c0	-1.911528e-05
34	0xbea17af0	-0.31539106
35	0x3db593ff	0.08866119
36	0xbd47a43b	-0.048740607
37	0x3e269843	0.1626902
38	0x3d00c609	0.03143886
39	0x3d408828	0.04700485
40	0x3e4aff15	0.19823869
41	0x3efeb47d	0.49747077
42	0x3d794e76	0.06086584
43	0xbee3d254	-0.44496405
44	0x3f5b2de8	0.8561692
45	0x3f137ab4	0.57609105
46	0x3eb813d6	0.35952634
47	0xbee82cd1	-0.45346692
48	0x3efac80f	0.48980758
49	0x3f0377cb	0.51354665
50	0x3e5bf36e	0.2147958
51	0x3f71fcbe	0.9452628
52	0xbe593756	-0.21212515
53	0x3ea51c75	0.32248273
54	0x3f34bc39	0.70599705
55	0x3f046ae8	0.51725626
56	0x3ef8d67a	0.48601133
57	0x3f27f3f1	0.656066
58	0x3eb369ba	0.350416
59	0xbe0340ac	-0.12817639
60	0x3ee9c288	0.45656228
61	0x3f4a4728	0.79014826
62	0x3ea42674	0.32060587
63	0xbd15abdd	-0.036540855

cnn.4.running_var f4 [64]
0	0x4042e2d2	3.045094
1	0x3e2c926d	0.16852732
2	0x3e8a9331	0.27065423
3	0x3e8a9c42	0.2707234
4	0x3e3f0bb7	0.18656813
5	0x3f5e2be7	0.8678574
6	0x3eaa5d23	0.33274183
7	0x3edd6518	0.4324119
8	0x3e1415b6	0.14461407
9	0x3ed5e348	0.41774964
10	0x3e1d058d	0.15334149
11	0x3e8768c8	0.2644713
12	0x3e43af29	0.19109787
13	0x3da23cd5	0.07921759
14	0x3dfbae2b	0.12289079
15	0x3e55413d	0.20825668
16	0x3e894b55	0.26815286
17	0x3e44c480	0.19215584
18	0x3e8395f7	0.25700352
19	0x3e3ea6fc	0.18618387
20	0x3e2697f1	0.16268899
21	0x3e9dc432	0.30813748
22	0x3ea524ba	0.32254583
23	0x3e81fe10	0.25389147
24	0x3eed22c8	0.46315598
25	0x3e842795	0.2581145
26	0x3e89411f	0.26807496
27	0x3e2844e4	0.1643253
28	0x3e862040	0.2619648
29	0x3e28626a	0.16443792
30	0x3ec6e41f	0.38845918
31	0x3e88f1fa	0.26747113
32	0x3e3314b1	0.17488362
33	0x3dbe2447	0.09284263
34	0x3ea1c1d4	0.31593192
35	0x3e81fdd7	0.25388977
36	0x3e39a3cb	0.18128888
37	0x3f0ad33f	0.54228586
38	0x3e6c543b	0.23079006
39	0x3e8e0772	0.27740055
40	0x3e8c0684	0.2734872
41	0x3e24b4c4	0.16084582
42	0x3edd2a3f	0.43196294
43	0x3e7a0e0a	0.24419418
44	0x3e954b0f	0.29158828
45	0x3ed37a52	0.4130426
46	0x3ea611fd	0.324356
47	0x3e5a9fd8	0.21350038
48	0x3df974fc	0.12180516
49	0x3ec09f91	0.3762174
50	0x3e9a5ca9	0.3014882
51	0x3fcd1ef4	1.6025071
52	0x3e2afe3e	0.16698548
53	0x3e636f73	0.22210483
54	0x3ea95028	0.33068967
55	0x3e4a4b16	0.19755206
56	0x3e60f505	0.21968468
57	0x3e5bd4cf	0.21467899
58	0x3fad218d	1.3525864
59	0x3f00b5e1	0.50277525
60	0x3e1ba216	0.1519855
61	0x3e9b111a	0.30286485
62	0x3e1fa958	0.15591943
63	0x3ddeabd8	0.1087262

lstm.weight_ih_l0 f4 [512, 64]
0	0x3d989785	0.07450775
1	0xbceba3cf	-0.028764633
2	0xbb5a513a	-0.0033312575
3	0x3b334464	0.0027353996
4	0x3d589d5e	0.052884452
5	0x3d1a92c6	0.03773763
6	0xbc26237a	-0.010140294
7	0x3d4313bc	0.047626242
8	0xbd0b037f	-0.03393888
9	0xbc9ec6d6	-0.019381922
10	0xbd7c6945	-0.06162383
11	0xbdc076d7	-0.09397667
12	0x3d2e1c18	0.04250726
13	0xbd9b066e	-0.07569586
14	0xbdbe0a78	-0.092793405
15	0xbd909c6a	-0.070610836
16	0xbc236567	-0.009972907
17	0xbc1b45f2	-0.0094771255
18	0x3d11e1de	0.035615794
19	0x3d57a43c	0.05264686
20	0x3cd38a4a	0.025822777
21	0xbd9e9b43	-0.077444576
22	0x3d0d9391	0.03456456
23	0x3d27d3c5	0.040973444
24	0xbd87c90a	-0.06630142
25	0xbb9db703	-0.0048130765
26	0x3c77d811	0.015127198
27	0x3bd8721f	0.006605401
28	0x3c977aa6	0.0184911
29	0x3d36b759	0.044608448
30	0x3dac98af	0.084275596
31	0x3c75903b	0.0149880005
32	0x3d51afe7	0.051193144
33	0x3cfc0d38	0.030768022
34	0xbd5d59ab	-0.054040592
35	0x3d72a6e0	0.059241176
36	0xbbeaca32	-0.007165217
37	0x3cbeafd7	0.023277206
38	0xbd76591e	-0.060143583
39	0x3d8907bf	0.066909306
40	0x3c6769d7	0.014124355
41	0xbc0e1c30	-0.008673713
42	0xbda71360	-0.08157992
43	0xbbb48029	-0.005508442
44	0xbd76e4fa	-0.060276963
45	0x3d9fdba6	0.078055665
46	0xbdae10b5	-0.0849928
47	0xbc90f411	-0.017694505
48	0xbd971380	-0.07376766
49	0xbd8ecfde	-0.06973241
50	0x3d055765	0.03255405
51	0xbd864401	-0.065559395
52	0x3c929fae	0.017898407
53	0x3bf0e2b7	0.0073512453
54	0xbd852270	-0.06500709
55	0xbd2a36d0	-0.04155618
56	0x3b29d342	0.0025913273
57	0xbd875ba4	-0.06609276
58	0xbd75a832	-0.059974857
59	0xbd40d668	-0.047079474
60	0xbc4a9135	-0.012363722
61	0xbdd56880	-0.104203224
62	0x3d672080	0.05642748
63	0x3d601200	0.054704666
64	0x3dc2a564	0.09504202
65	0x3d4c2983	0.049844276
66	0xbc9ff60c	-0.019526504
67	0xbd63d35d	-0.055621494
68	0x3d367fb3	0.044555377
69	0xbc8d578a	-0.017253656
70	0xbdc2a005	-0.095031776
71	0xbd7d5667	-0.061849978
72	0x3dd5cf37	0.10439914
73	0xbd6fc506	-0.058537506
74	0x3d831ee2	0.06402375
75	0xbd4e1b30	-0.050318897
76	0x3db5419d	0.08850405
77	0x3d6db81b	0.058036905
78	0x3d0fac2f	0.035076316
79	0x3d187cd1	0.03722841
80	0x3daa0f27	0.08303671
81	0x3d2bba4d	0.041925717
82	0xbd1e0c64	-0.038586035
83	0xbd81770a	-0.06321533
84	0xbd0a40bb	-0.033753138
85	0x3cf33435	0.02968798
86	0xbdb93f46	-0.090452716
87	0xbdc8c6d1	-0.09803546
88	0xbd115f93	-0.035491537
89	0xbd8380ab	-0.06421026
90	0x3cc91606	0.024546634
91	0xbdd5fb6c	-0.104483455
92	0xbc5b1108	-0.01337076
93	0x3e012739	0.12612619
94	0xbd2f4f2c	-0.042800114
95	0xbd736859	-0.059425686
96	0x3c91445b	0.01773279
97	0xbde0c0fc	-0.10974309
98	0xbd867a15	-0.06566254
99	0xbc86af95	-0.016441146
100	0xbb59a23d	-0.0033208274
101	0xbd961cb4	-0.073296934
102	0x3da68b0a	0.08131988
103	0xbd5abbda	-0.053401805
104	0xbc132e52	-0.008983212
105	0x3dc182e8	0.094487965
106	0x3bd054f5	0.006357784
107	0x3d0e1ced	0.034695555
108	0xbd3ebee4	-0.046568766
109	0xbddfd93b	-0.10930105
110	0x3c6a97cd	0.014318419
111	0x3bcc6625	0.0062377625
112	0x3dba1360	0.09085727
113	0x3c9ce003	0.019149786
114	0xbdcd1329	-0.1001342
115	0x39e480e8	0.00043583591
116	0xbce90f61	-0.028449716
117	0xbd9a7253	-0.07541337
118	0x3d3b3148	0.045701295
119	0x3cba893a	0.022770513
120	0xbda0f28c	-0.07858762
121	0x3d655d0d	0.055996943
122	0x3d32b6d0	0.043631375
123	0xbdbbeee1	-0.09176422
124	0x3df46991	0.11934198
125	0x3d9cb7fa	0.07652278
126	0xbcc869fb	-0.024464598
127	0xbd99b3a4	-0.07504967
128	0xbd06c251	-0.03290016
129	0x3d007360	0.03136003
130	0xbc99567e	-0.018718
131	0xbcbc5950	-0.022991806
132	0xbd0f2c03	-0.034954082
133	0x3d8af2e1	0.06784607
134	0x3d9e8c37	0.077415876
135	0xbd8952da	-0.06705256
136	0xbba2adf2	-0.0049645836
137	0x3da6e46b	0.08149036
138	0x3c539a77	0.012915245
139	0xbd0013da	-0.031268932
140	0x3c9cd210	0.019143134
141	0x3d9a25de	0.07526754
142	0x3b0ff110	0.0021963753
143	0xbd849c9e	-0.06475185
144	0xbbc6ffcc	-0.006072974
145	0x3d4a85cc	0.049444005
146	0xbc2f7f11	-0.010711447
147	0x3d808c15	0.062767185
148	0x3d4583b7	0.048221316
149	0xba95006f	-0.0011367927
150	0x3d0a2afa	0.033732392
151	0xbc3319b7	-0.010931424
152	0xbd981e56	-0.07427661
153	0xbd992993	-0.07478633
154	0xbd800adb	-0.062520705
155	0xbc4876b1	-0.0122353295
156	0xbd559d27	-0.052151825
157	0x3d14823d	0.036257017
158	0x3c9388a3	0.01800949
159	0x3d8d6c1d	0.069053866
160	0x3bb5b584	0.00554532
161	0x3d039784	0.03212692
162	0x3d32d0fb	0.04365633
163	0xbc96b4c3	-0.01839674
164	0xbd2e3d4d	-0.04253893
165	0xbd96d2b7	-0.073644094
166	0xbda434c2	-0.08017875
167	0x3c88da8e	0.016705777
168	0xbd27a735	-0.040930945
169	0x3d27f2c1	0.041002993
170	0x3cb18a21	0.02167231
171	0x3d92327c	0.071385354
172	0x3b985425	0.0046487027
173	0x39c0d31b	0.0003677838
174	0x3d85052b	0.06495126
175	0x3c6264ae	0.013817949
176	0x3d6a0c80	0.057140827
177	0xbd3d534a	-0.04622201
178	0xbd72bb1c	-0.059260473
179	0x3d81642c	0.063179344
180	0x3d8dd80c	0.06925973
181	0xbce46cea	-0.027883966
182	0x3cb76581	0.022387268
183	0xbd8f7686	-0.070050284
184	0x3c03c51e	0.008042602
185	0xbd8f7751	-0.0700518
186	0x3d3934f3	0.045216512
187	0xbdaf3b09	-0.08556182
188	0xbc31c7d7	-0.010850868
189	0x3dbfe225	0.093693055
190	0xbcd57614	-0.02605728
191	0xbd23941f	-0.03993618
192	0x3db5aa6b	0.08870395
193	0xbd1267c9	-0.03574351
194	0x3d021f62	0.03176821
195	0x3d6f122b	0.058366936
196	0x3cf5b898	0.029995248
197	0xbd827768	-0.06370431
198	0x3dbaa8d9	0.091142364
199	0x3d559ee1	0.05215347
200	0xbd5b0fee	-0.05348199
201	0xbd335028	-0.043777615
202	0xbc6f8a27	-0.01462034
203	0x3d2680c0	0.04065013
204	0x3d0ee397	0.034885015
205	0x3c00b587	0.0078557795
206	0x3d99f558	0.07517499
207	0x3dc5b17c	0.09652993
208	0x3cd2fb51	0.025754603
209	0x3d3dcaf9	0.046336148
210	0x3d7e2ce4	0.06205453
211	0x3cc31e67	0.023818208
212	0x3c81f64b	0.015864512
213	0x3db04aaa	0.08607991
214	0x3d8ebb30	0.06969297
215	0x3d8631dc	0.06552479
216	0xbd39ade3	-0.045331847
217	0xbd05d8a6	-0.032677315
218	0xbd170244	-0.036867395
219	0xbd84ca38	-0.06483883
220	0x3b15c218	0.0022851285
221	0x3d5d66ae	0.054053
222	0x3cc2838b	0.023744365
223	0xbca638d4	-0.02029077
224	0xbc03d1a9	-0.008045592
225	0xbd3e3b9c	-0.046443567
226	0xbd1e4d4c	-0.038647935
227	0x3c919d70	0.017775267
228	0xbd3279c0	-0.04357314
229	0x3cd6a825	0.026203224
230	0x3d93a3e2	0.072089925
231	0x3d0ea167	0.034821894
232	0x3d9f2c23	0.0777209
233	0xbd494cb0	-0.0491454
234	0x3c2ed4a5	0.010670816
235	0xbda2ada9	-0.07943279
236	0x3b632d7a	0.0034664557
237	0xbd605243	-0.05476595
238	0x3dbd9514	0.0925695
239	0xbd8a99f5	-0.06767646
240	0x3d012498	0.03152904
241	0xbd315516	-0.043294035
242	0x3d11e972	0.03562302
243	0x3b91e117	0.0044518816
244	0xbc720552	-0.014771776
245	0xbcbd8434	-0.023134328
246	0x3d6fbb2b	0.058528107
247	0xbc192df8	-0.009349339
248	0x3c876bd8	0.016530916
249	0xbca6921e	-0.020333346
250	0xbd7873cf	-0.06065732
251	0xbd1a8d14	-0.0377322
252	0x3d9590fc	0.07303044
253	0x3db8c8f8	0.09022707
254	0xbd14fb2a	-0.03637234
255	0x3c78283a	0.0151463095

lstm.weight_hh_l0 f4 [512, 128]
0	0x3d963b65	0.07335547
1	0xbd1a399b	-0.037652593
2	0x3d9b0a26	0.07570295
3	0x3cb16be7	0.021657897
4	0xbce055e9	-0.027384715
5	0x3d9bc0a8	0.07605106
6	0xbdc41615	-0.09574524
7	0x3c3b3d5a	0.011428202
8	0xbd9dfd2b	-0.077143036
9	0x3d68ad9e	0.0568062
10	0x3caebcab	0.021330198
11	0x39aca4e4	0.0003292925
12	0x3ade808b	0.0016975565
13	0xbd52b0ca	-0.05143813
14	0x3c668f94	0.014072318
15	0x3d0abe43	0.033872854
16	0xbcbabc63	-0.022794908
17	0xbd095169	-0.033524904
18	0x3d762720	0.060095906
19	0xbc55c4af	-0.013047381
20	0x3d454d95	0.04816969
21	0x3d33077f	0.04370832
22	0xbd2200a1	-0.03955138
23	0xbc7d21dd	-0.015449968
24	0xbd763a23	-0.060114037
25	0x3ca88931	0.02057323
26	0x3d7233d1	0.059131447
27	0xbd6ea03d	-0.058258284
28	0x3d70a2be	0.058748953
29	0xbbb4c68b	-0.005516832
30	0x3d6d4206	0.057924293
31	0x3cfece1c	0.03110414
32	0x3ccaf1dd	0.024773533
33	0x3d4ee691	0.050512854
34	0x3b90ff94	0.0044249985
35	0xbd68b428	-0.056812435
36	0xbd910583	-0.070811294
37	0x3d89ed8f	0.06734764
38	0x3d1907cb	0.037360948
39	0xbc1d27c8	-0.009592004
40	0x3d0b8855	0.034065563
41	0xbd3d4ac4	-0.04621388
42	0xbd395b75	-0.045253236
43	0x3cd3848f	0.025820045
44	0xbd86adde	-0.06576131
45	0xbd1131ec	-0.035448
46	0xbd8e4049	-0.06945855
47	0x3d3defb0	0.046371162
48	0xbc7e79fb	-0.015532012
49	0x3cf0e6d1	0.029406937
50	0xbb787f57	-0.0037917697
51	0x3d9d7213	0.076877736
52	0x3d612605	0.0549679
53	0x3d4cfc13	0.050045084
54	0xbccccc09	-0.024999635
55	0x3d02097b	0.031747323
56	0x3ce5dce6	0.028059434
57	0xbd8ba900	-0.068193436
58	0xbcfe7eff	-0.031066416
59	0x3d0fe54c	0.035130784
60	0xbdad370d	-0.08457766
61	0xbd18a3ca	-0.037265576
62	0xbc6c8ad5	-0.014437397
63	0x3da67fa2	0.08129813
64	0xbdb3ee3e	-0.087856755
65	0xbc9017a0	-0.01758939
66	0xbd300773	-0.042975854
67	0x3ddc3e9b	0.107541285
68	0xbd89a16b	-0.06720241
69	0x3d0194d9	0.031636093
70	0xbd532989	-0.051553283
71	0xbd68b5d9	-0.05681405
72	0xbcbe5102	-0.023231987
73	0x3be1f1bd	0.0068952725
74	0xbd9c2703	-0.076246284
75	0xbd9877f8	-0.07444757
76	0xbd8fd6f4	-0.07023421
77	0xbd722346	-0.05911567
78	0x3d29f1ce	0.04149037
79	0x3d078dd5	0.033094246
80	0xbd011f81	-0.031524185
81	0xbb8f0215	-0.004364262
82	0x3da40ed1	0.080106385
83	0xbd9d1861	-0.076706655
84	0x3d828688	0.06373316
85	0xbc8f7ed2	-0.017516527
86	0xbd9dc14f	-0.07702886
87	0x3d18e208	0.037324935
88	0x3d85856f	0.06519591
89	0x3d98055c	0.07422897
90	0xbd60971d	-0.054831613
91	0xbd1fcf74	-0.039016202
92	0x3cd0a64b	0.02546992
93	0xbdb66210	-0.08905423
94	0x3c3f0195	0.011658092
95	0xbd9dd3bd	-0.077064015
96	0x3d070cc5	0.032971162
97	0x3cadf34b	0.021234175
98	0x3d72ff41	0.05932546
99	0xbdcec0ff	-0.10095405
100	0xbd8128fc	-0.06306645
101	0x3dae4bcb	0.0851055
102	0xbce07cab	-0.027403196
103	0x3d0bc35e	0.034121864
104	0xbda60077	-0.081055574
105	0x3cb48b9c	0.022039227
106	0x3c11b7ca	0.008893916
107	0x3dae7ec5	0.08520273
108	0x3d833c9f	0.06408047
109	0x3d4a3c9f	0.04937422
110	0x3beb4aab	0.007180532
111	0x3cf385fa	0.029726971
112	0x3dab2d6e	0.083582744
113	0xbd79fa4e	-0.061029725
114	0xbddfd45a	-0.10929175
115	0xbcce16ed	-0.025157416
116	0xbdada0df	-0.08477949
117	0x3d329dd5	0.04360755
118	0x3cd9d1d8	0.02658932
119	0x3d9a1526	0.07523565
120	0x3d94ffc4	0.07275346
121	0xbda3c816	-0.07997148
122	0x3d803e37	0.062618665
123	0xbdba2f44	-0.090910465
124	0xbd8beaa0	-0.068318605
125	0xbd30ba06	-0.043146156
126	0x3d20d5e5	0.039266486
127	0xbc8f8f33	-0.017524337
128	0x3c7c5651	0.015401439
129	0x3c4df0c0	0.012569606
130	0xbc366011	-0.011131302
131	0xbd4c84ee	-0.04993146
132	0x3d42f49f	0.04759657
133	0x3ca0b4dc	0.01961749
134	0xbce7bf7e	-0.028289553
135	0x3d108a9c	0.03528844
136	0x3d4b1ae8	0.049586207
137	0xbcaa2f20	-0.020774424
138	0xbd09938f	-0.03358799
139	0x3bec213a	0.0072061094
140	0xba0ca290	-0.00053648
141	0x3d222e16	0.039594732
142	0x3da56a62	0.080769315
143	0xbdb06efe	-0.0861492
144	0xbd900bc3	-0.07033493
145	0xbddd5123	-0.10806491
146	0x3cdeda29	0.027203636
147	0x3db364a3	0.08759429
148	0x3d1ff53b	0.03905223
149	0xbc730612	-0.01483299
150	0xbd0cb1d6	-0.034349285
151	0x3d9de68b	0.07709988
152	0xbd8ff809	-0.07029731
153	0x3d308492	0.04309518
154	0xbb827685	-0.003981414
155	0xbc970523	-0.018435067
156	0x3ca2a320	0.019853175
157	0x3d67f87a	0.05663345
158	0x3d0cce30	0.034376323
159	0xbcb3aa2b	-0.021931728
160	0xbd466cb5	-0.048443515
161	0xbd9f9807	-0.07792669
162	0xbd9f3812	-0.077743664
163	0x3c3720bc	0.011177238
164	0xbdb1328c	-0.08652219
165	0x39c84c63	0.00038203885
166	0x3d78cfcb	0.06074504
167	0x3cd6f565	0.02624006
168	0xbd9cc46f	-0.07654654
169	0xb9361f14	-0.0001736845
170	0xbda04e92	-0.07827486
171	0xbd36bfe5	-0.0446166
172	0xbd8d43a3	-0.06897666
173	0x3db4a254	0.08820024
174	0xbcae855c	-0.021303825
175	0xbd134572	-0.0359549
176	0xbb82cf50	-0.0039919987
177	0xbb3c192f	-0.0028701534
178	0x3dc141c0	0.09436369
179	0xbb49f328	-0.0030815098
180	0x3d87faf2	0.06639661
181	0xbd8ea48d	-0.06964979
182	0x3cab5cbd	0.020918244
183	0xbd7d27cc	-0.06180553
184	0xbce4c5bb	-0.027926316
185	0xbdee596f	-0.11638152
186	0x3c9a2e76	0.018820982
187	0x3dbc1681	0.0918398
188	0xbdacf700	-0.08445549
189	0xbc921b32	-0.017835233
190	0x3d6cccf3	0.057812642
191	0xbdb79b27	-0.0896514
192	0xbd738f03	-0.05946256
193	0x3c47ce02	0.012195112
194	0x3caa85fe	0.020815846
195	0x3c2bdebb	0.010490115
196	0x3aa77d31	0.0012778399
197	0xbdc1407b	-0.09436127
198	0xbd2b5414	-0.04182823
199	0x3d359772	0.044333883
200	0x3dc132bd	0.09433506
201	0x3d70bfdb	0.058776718
202	0xbd1e72e1	-0.038683776
203	0x3d36deac	0.04464595
204	0xbd578c9c	-0.05262433
205	0xbdb8f53b	-0.09031149
206	0xbd2c6934	-0.042092517
207	0x3d72c1b9	0.05926678
208	0x3d484534	0.048894122
209	0x3d0ed94b	0.034875195
210	0xbd30a839	-0.04312918
211	0xbd9f9b34	-0.077932745
212	0x3dab7d03	0.083734535
213	0x3da6d5f1	0.08146275
214	0x3daf0b20	0.08547044
215	0xbd69a50c	-0.057042167
216	0x3dd8aba4	0.10579613
217	0x3d022131	0.031769935
218	0x3d9a8b92	0.07546152
219	0x3dc11363	0.09427526
220	0xbd300e75	-0.042982537
221	0x3dc3e36e	0.09564863
222	0xbc4e16a0	-0.012578636
223	0xbd33c103	-0.043885242
224	0x3da7dd3a	0.081964925
225	0x3cd59cf6	0.026075821
226	0x3d8c176f	0.06840407
227	0x3ccc79d4	0.024960436
228	0x3cdcb394	0.026941098
229	0x3d868c2a	0.06569703
230	0x3d94cdff	0.07265853
231	0x3d735fe9	0.05941764
232	0xbbe7a58b	-0.007069295
233	0xbd67ce15	-0.05659302
234	0x3c639a0d	0.013891709
235	0xbdc99d58	-0.09844464
236	0xbc6a90b5	-0.014316727
237	0x3d9adb6e	0.07561384
238	0xbd873c39	-0.066032834
239	0xbcb91627	-0.02259357
240	0xbd5c29df	-0.05375087
241	0x3d3b29f2	0.0456943
242	0xbd92595f	-0.071459524
243	0x3d2017d7	0.039085235
244	0xbd25b831	-0.04045886
245	0xbdbc95ca	-0.092082575
246	0xbcf2299f	-0.029560862
247	0xbdc1be56	-0.09460132
248	0x3dc1f102	0.09469797
249	0x3d2582db	0.040407997
250	0x3d0d8795	0.03455313
251	0xbd177517	-0.0369769
252	0xbbbd3c51	-0.0057750125
253	0x3d078180	0.033082485
254	0xbd17f924	-0.037102833
255	0xbd26221a	-0.040559866

lstm.bias_ih_l0 f4 [512]
0	0x3aaf6236	0.001338071
1	0xbd079475	-0.033100564
2	0x3b568227	0.0032731385
3	0xbd1d4cd7	-0.03840336
4	0xbc59b701	-0.01328826
5	0xbb82b277	-0.00398856
6	0x3d14cfa5	0.036330838
7	0x3c88ce77	0.016700013
8	0xbbcedcde	-0.0063129505
9	0xbca4e9cd	-0.020131016
10	0x3ba7358b	0.0051028184
11	0x3d1ee00a	0.03878788
12	0x3d838765	0.06422309
13	0x3db8987d	0.0901346
14	0x3ce09f11	0.027419599
15	0xbcaa0ad1	-0.02075711
16	0xbdbbf237	-0.09177058
17	0xbd476ec9	-0.048689637
18	0x3da15eb8	0.07879394
19	0x3cb61918	0.022228763
20	0xbca0eba5	-0.019643614
21	0xbc53bf49	-0.012924024
22	0x3d72736f	0.059192117
23	0xbb92cc49	-0.004479919
24	0xbd6c4cf0	-0.05769056
25	0x3c317e6f	0.010833367
26	0xbda591ef	-0.08084475
27	0xbcad06cc	-0.021121405
28	0xbd2fab75	-0.042888124
29	0xbdccc805	-0.09999088
30	0x3d842c6e	0.06453787
31	0x3c9698f1	0.018383475
32	0x3d8bd209	0.068271704
33	0x3d8b650a	0.06806381
34	0xbddada7b	-0.10686203
35	0xbdacceec	-0.08437905
36	0xbcf26164	-0.029587455
37	0x3dc18d4f	0.094507806
38	0x3dee8bb5	0.11647741
39	0xbce051df	-0.02738279
40	0xbd7b4f55	-0.061354954
41	0xbca910d4	-0.020637907
42	0x3dabb05a	0.08383246
43	0xbd26e82f	-0.04074877
44	0x3d1b1218	0.037859052
45	0xbd11dcea	-0.03561107
46	0xbd60184f	-0.054710682
47	0x3d1836b5	0.037161548
48	0x3d124102	0.035706528
49	0xbd86694e	-0.06563054
50	0x3d8fc356	0.07019679
51	0x3d275cda	0.040860035
52	0xbb9be8de	-0.0047579845
53	0xbd8e6b8b	-0.06954106
54	0xbd1bc780	-0.038032055
55	0xbd32c271	-0.043642465
56	0x3d47f084	0.048813358
57	0xbcd1e182	-0.025620226
58	0xbd083466	-0.033253096
59	0xbd126427	-0.035740044
60	0x3c9db2f4	0.01925037
61	0x3d7d6dcb	0.061872285
62	0x3cd5b020	0.02608496
63	0xbd8aa970	-0.06770599
64	0xbcdecdd2	-0.027197752
65	0x3d55ff2b	0.0522453
66	0xbce2fc21	-0.027708115
67	0x3da25d76	0.079279825
68	0xbd6e3ec6	-0.058165334
69	0xbda4a646	-0.08039527
70	0x3bae4390	0.0053181127
71	0x3da5bd48	0.08092743
72	0x3d8d461d	0.06898139
73	0x3d29c05e	0.04144322
74	0x3c37742f	0.011197134
75	0x3dc4c48c	0.09607801
76	0x3c7274ce	0.014798356
77	0xbd7552c6	-0.059893392
78	0xbdbca95e	-0.09211992
79	0xbc832882	-0.016010527
80	0xbd187c95	-0.037228186
81	0xbd0fbeda	-0.03509412
82	0xbd9a1f90	-0.07525551
83	0xbd710aa3	-0.058848035
84	0x3bcc0c1c	0.0062270295
85	0x3d127834	0.035759166
86	0xbd0e7cee	-0.03478711
87	0x3aa987ad	0.0012934111
88	0x3d894de4	0.067043096
89	0x3d856675	0.06513683
90	0x3dbed54e	0.093180284
91	0x3d81142e	0.06302677
92	0xbbba5282	-0.005686105
93	0x3d1fdaed	0.039027143
94	0xbd12a7ca	-0.035804547
95	0xbcf20e3e	-0.029547807
96	0x3bb9776c	0.005659988
97	0x3ce35b59	0.027753519
98	0x3c989768	0.018626884
99	0xbd64b0ea	-0.05583278
100	0xbd3ad538	-0.045613497
101	0xbcf43408	-0.029809967
102	0x3d55cbbc	0.05219625
103	0xbd3446cb	-0.044012826
104	0x3c5ce776	0.013482919
105	0x3d25e7c3	0.04050423
106	0x3d9e6b46	0.077353045
107	0x3c479b74	0.012183059
108	0xbdd26f9b	-0.10275193
109	0xbc8b15e6	-0.016978215
110	0x3c8955d0	0.016764551
111	0x3d7176fd	0.058951367
112	0xbda41757	-0.08012264
113	0xbd1b744e	-0.037952714
114	0xbdb44f30	-0.08804166
115	0xbc66ac4f	-0.0140791675
116	0xbd2d2c97	-0.042278852
117	0xbcb35cd3	-0.021894848
118	0x3d5bccab	0.053661983
119	0xbd2cef05	-0.042220134
120	0xbddebda0	-0.10876012
121	0x3d83c3a0	0.06433797
122	0xbd0305e8	-0.031988055
123	0x3d498762	0.049201377
124	0xbd8649bc	-0.065570325
125	0x3dcae88d	0.09907637
126	0x3d29d16b	0.041459482
127	0xbca6b731	-0.020351024
128	0x3d84b66e	0.06480108
129	0xbc233734	-0.009961892
130	0xbd45136e	-0.048114233
131	0xbd0c6574	-0.03427644
132	0x3d2c60be	0.042084448
133	0x3d80cb6f	0.06288802
134	0x3d2981bc	0.04138349
135	0x3d3260da	0.043549396
136	0x3d103957	0.035210934
137	0xbd9f80c5	-0.07788233
138	0x3d6720ba	0.056427695
139	0x3d0dfe84	0.034666553
140	0x3dd3eb34	0.10347596
141	0x3df47d9c	0.119380206
142	0xbd705ea3	-0.058684003
143	0xbd45094c	-0.04810457
144	0xbcaad247	-0.020852221
145	0xbd3b116a	-0.045670904
146	0x3cafbc62	0.021452133
147	0x3d9fc953	0.078020714
148	0xbd903d8b	-0.070429884
149	0x3d62ced8	0.055373043
150	0xbcce9610	-0.02521804
151	0xbc1b89fd	-0.009493348
152	0xbdbc09ca	-0.091815546
153	0xbd332246	-0.043733858
154	0x3c3d17bb	0.011541302
155	0xba680f5e	-0.00088523875
156	0xbd21a961	-0.039468173
157	0x3c2df134	0.010616589
158	0x3af05dd7	0.0018338513
159	0x3d7822f2	0.0605802
160	0x3d3212fc	0.043475136
161	0xbd263422	-0.04057706
162	0x3d304302	0.043032654
163	0x3d6a89d4	0.05726035
164	0xbcfbe789	-0.030750053
165	0x3d3432f6	0.043993913
166	0x3dd69dec	0.1047934
167	0x3ceadf6f	0.028670995
168	0xbd540dff	-0.05177116
169	0xbb0b9026	-0.0021295636
170	0x3d698f21	0.057021264
171	0x3c0e2754	0.008676369
172	0x3c9e0140	0.019287705
173	0xbd76b615	-0.06023224
174	0x3cdd011b	0.026978066
175	0xbdb91570	-0.09037292
176	0xbd16c25d	-0.036806453
177	0xbd88cbbd	-0.06679485
178	0xbc029628	-0.00797037
179	0xbd55059c	-0.052007303
180	0xbd8cfffd	-0.068847634
181	0xbc712538	-0.014718346
182	0x3c612f9b	0.01374426
183	0xbd15d1d8	-0.036577076
184	0x3d007527	0.031361725
185	0x3ad54e01	0.0016273857
186	0x3ddb8726	0.10719137
187	0xbcd6a04f	-0.026199488
188	0xbd639afc	-0.055567726
189	0xbd8a2d8f	-0.06746971
190	0x3d094219	0.0335103
191	0x3d15aa1b	0.03653918
192	0x3d9b6453	0.07587495
193	0xbc731ce3	-0.01483843
194	0x3d818f33	0.06326141
195	0xbd7f67b9	-0.062354777
196	0x3c93dc53	0.018049395
197	0x3c86cbeb	0.016454658
198	0xbcf79118	-0.030220553
199	0x3d496f33	0.049178313
200	0xbb651da1	-0.0034960287
201	0xbd710902	-0.05884648
202	0x3ce04158	0.027374908
203	0xbbf0205f	-0.0073280777
204	0x3da81a88	0.082081854
205	0xbc631fef	-0.013862594
206	0x3b9671b5	0.0045911917
207	0xbbce0993	-0.0062877624
208	0xbd448d09	-0.047986064
209	0x3dd1c8a1	0.10243345
210	0x3d603f95	0.054748137
211	0x3d8e2750	0.06941092
212	0x3cc883e3	0.024476951
213	0xbd587d53	-0.052853893
214	0x3dbfda0f	0.09367763
215	0xbd8e1006	-0.0693665
216	0x3d1c5c3c	0.0381739
217	0x3dcf5acb	0.10124739
218	0x3ce3a824	0.027790137
219	0x3cad5f4e	0.021163609
220	0xbdb6d9c5	-0.08928255
221	0xbd96426a	-0.07336886
222	0x3d112072	0.035431333
223	0x3d20d65b	0.039266925
224	0xbdb4d1de	-0.088290915
225	0x3d6ab7bf	0.05730414
226	0x3d9538e4	0.07286242
227	0xbcb80214	-0.022461928
228	0x3d669755	0.056296665
229	0xbcb80626	-0.02246387
230	0x3c4a7edc	0.012359347
231	0xbcb7d387	-0.022439731
232	0xbdbb3357	-0.09140652
233	0x3d9d42cd	0.07678757
234	0xbd8bead2	-0.06831898
235	0xbd399f88	-0.045318156
236	0x3d32d38c	0.043658778
237	0x3c7ebd40	0.01554805
238	0xbd0d91b7	-0.034562793
239	0xbd821713	-0.06352057
240	0x3d0069f1	0.031351034
241	0x3cbb71e8	0.022881463
242	0x3cd46ab9	0.025929796
243	0x3d9f5d9a	0.07781525
244	0xbc880200	-0.016602516
245	0x3b7f15ef	0.0038922986
246	0x3b4df441	0.0031426104
247	0x3d825d8f	0.06365501
248	0xbd1d1eb0	-0.038359344
249	0x3c9331fa	0.017968167
250	0xbd7077ec	-0.058708116
251	0xb8bc6cc4	-8.984798e-05
252	0xbdc8c8d5	-0.09803931
253	0x3dd0f864	0.10203627
254	0xbbf2b687	-0.007407013
255	0x3d9739a4	0.07384041
