cnn_lstm_2task_inst.pt (torch, 449905 bytes, 18 tensors)

cnn.0.weight f4 [32, 1, 5]
0	0x3e989d34	0.29807436
1	0x3ed5a6cb	0.41728815
2	0xbd7b53d8	-0.061359257
3	0x3ed350a2	0.41272455
4	0xbddc28c7	-0.10749965
5	0x3d7eba19	0.062189195
6	0xbe8229b5	-0.25422445
7	0x3e76dabc	0.24106878
8	0x3ebfffa4	0.37499726
9	0xbeaf7ce8	-0.34274983
10	0x3ed71a83	0.42012414
11	0x3dc9a85f	0.09846567
12	0x3e9bfeea	0.30467921
13	0x3d393539	0.045216773
14	0x3e2ba8d3	0.1676362
15	0xbdf35134	-0.11880723
16	0x3e9ee644	0.31035054
17	0x3c2e32db	0.010632242
18	0xbe76d1cd	-0.2410347
19	0x3db89784	0.09013274
20	0xbe279e87	-0.16369067
21	0xbc914592	-0.017733369
22	0xbe22e018	-0.15905797
23	0x3e98c680	0.29838943
24	0xbec95cde	-0.39328665
25	0xbe117d34	-0.14207917
26	0xbd7be905	-0.06150152
27	0xbe6229ee	-0.22086307
28	0x3d90efe7	0.07077008
29	0xbf014025	-0.504885
30	0x3eb39ae7	0.3507912
31	0xbee677db	-0.45013317
32	0x3e8ff617	0.2811744
33	0x3d21a5e0	0.03946483
34	0xbe338896	-0.17532572
35	0x3e9d5dfa	0.3073576
36	0x3db3c321	0.08777452
37	0x3e9343bc	0.28762615
38	0xbc2f42cc	-0.010697078
39	0xbe349204	-0.17633826
40	0x3d77dd49	0.06051377
41	0xbe0b9afe	-0.13633344
42	0x3e551d2a	0.20811906
43	0x3eeac636	0.45854348
44	0x3e87bfbb	0.26513466
45	0xbe53a420	-0.20668077
46	0x3e78fead	0.24315901
47	0x3d9c0b71	0.0761937
48	0x3e53581d	0.20639081
49	0xbe96e3c7	-0.29470655
50	0xbee73adc	-0.45162094
51	0xbe2fcc22	-0.17167714
52	0xbeb942f0	-0.36183882
53	0x3eb1f631	0.34758142
54	0x3e0b7369	0.13618244
55	0x3e255ad2	0.16147926
56	0x3de46fe2	0.111541525
57	0xbd4b3aae	-0.04961651
58	0x3ea2b606	0.31779498
59	0xbeb42a0c	-0.3518833
60	0x3d68461f	0.056707498
61	0xbe919998	-0.28437495
62	0x3e32d41d	0.17463727
63	0xbe0c08de	-0.13675258
64	0x3e188c4d	0.1489727
65	0xbd30b3d4	-0.043140247
66	0x3edc75fc	0.43058765
67	0xbe5672a9	-0.20942177
68	0xbe4e6717	-0.20156513
69	0xbe69e042	-0.22839454
70	0x3ec25aa4	0.37959778
71	0x3e0e8cb8	0.13920867
72	0x3ed4bd04	0.41550457
73	0xbec4c7d7	-0.38433716
74	0xbeedd611	-0.46452382
75	0xbebbb2ba	-0.36659795
76	0xbea8dba9	-0.32980087
77	0x3e0eb542	0.13936332
78	0x3e0fabda	0.140304
79	0x3eb8212e	0.35962814
80	0xbe6b23cf	-0.22962879
81	0xbe9fede0	-0.31236172
82	0x3e5fad32	0.21843413
83	0xbe34b556	-0.17647299
84	0x3e929ab8	0.28633666
85	0xbd88b5a4	-0.0667527
86	0x3e9b494f	0.30329368
87	0xbea197de	-0.31561178
88	0xbe4104b2	-0.18849447
89	0x3e09889e	0.13431022
90	0x3d7af919	0.061272714
91	0xbe10b1f3	-0.14130382
92	0x3e5c63e0	0.21522474
93	0x3e83f1ae	0.25770324
94	0xbec0bec4	-0.37645543
95	0xbe3f4100	-0.1867714
96	0x3eeba1d3	0.460219
97	0xbdde9223	-0.10867717
98	0xbde4b3bf	-0.11167096
99	0xbed603a1	-0.41799644
100	0xbe2a77fd	-0.16647334
101	0x3e3e428a	0.1858007
102	0xbbbb129e	-0.0057090065
103	0xbec2734f	-0.37978598
104	0xbd2c11f7	-0.04200932
105	0xbe731a35	-0.23740466
106	0xbe9bab56	-0.30404156
107	0xbe7ce830	-0.24697948
108	0xbeec23f3	-0.46121177
109	0xbeb3ec60	-0.35141277
110	0x3ee71b19	0.4513786
111	0x3dce6fd8	0.10079926
112	0x3e1b7a98	0.15183485
113	0xbed0231e	-0.40651792
114	0xbe95c6ae	-0.29253143
115	0xbda8b4e6	-0.08237629
116	0x3e068d18	0.1313976
117	0xbec26219	-0.37965468
118	0xbe757460	-0.23970175
119	0xbe95e821	-0.29278663
120	0x3d8813d6	0.066444084
121	0xbdcbdf00	-0.09954643
122	0x3cc47aca	0.023984332
123	0xbe963afa	-0.2934187
124	0xbeb81575	-0.3595387
125	0xbe8e562f	-0.27800128
126	0xbe3787c8	-0.1792289
127	0xbeb7bd69	-0.35886696
128	0x3eb8bdaa	0.36082202
129	0xbdc90eee	-0.09817301
130	0x3ea96cb9	0.3309076
131	0x3db55ce4	0.08855608
132	0xbedfaf77	-0.43688557
133	0x3e87fa6a	0.26558238
134	0xbe248627	-0.160668
135	0xbdd789db	-0.10524341
136	0xbe956eeb	-0.29186186
137	0xbefd659d	-0.49491587
138	0x3daea548	0.08527619
139	0xbe2bc250	-0.16773343
140	0x3e5c6d19	0.21525992
141	0xbea87a26	-0.32905692
142	0x3ec0b1d3	0.3763567
143	0xbe910857	-0.28326675
144	0xbcbab9fc	-0.022793762
145	0x3ddf5b92	0.109061375
146	0x3e79373b	0.24337475
147	0x3eab4c3a	0.33456594
148	0x3ed1580b	0.40887484
149	0xbeb2758a	-0.348553
150	0x3dce3dd8	0.100703895
151	0xbe496bc9	-0.19670023
152	0xbd5eee83	-0.05442668
153	0xbea5cd4b	-0.3238319
154	0x3ed5a54b	0.4172767
155	0xbe9d0416	-0.3066718
156	0x3e7ed6fd	0.24886699
157	0x3e34fd66	0.17674789
158	0x3e14354e	0.14473459
159	0xbe8155d5	-0.25260797

cnn.0.bias f4 [32]
0	0x3ed700da	0.41992837
1	0x3df5c999	0.12001342
2	0x3d99bcbd	0.07506702
3	0xbecea85c	-0.40362823
4	0x3e40d483	0.18831067
5	0xbd8090a6	-0.062775895
6	0xbe70af55	-0.23504384
7	0x3ea23fd4	0.31689322
8	0x3d79bb85	0.06096985
9	0xbe48e1df	-0.19617413
10	0xbe713fd2	-0.23559502
11	0xbd39fcec	-0.04540722
12	0x3e7ffe84	0.24999434
13	0xbe051236	-0.12995228
14	0xbe83e139	-0.2575777
15	0xbe37f3cb	-0.17964093
16	0xbeaaa357	-0.33327743
17	0x3e0ce962	0.13760903
18	0x3ea499fb	0.32148728
19	0xbedd7203	-0.43251047
20	0x3e009987	0.12558566
21	0x3e68fa10	0.22751641
22	0x3d96a9b4	0.07356587
23	0xbe50f234	-0.20404893
24	0x3e82e7c4	0.25567448
25	0x3e81f2d6	0.25380582
26	0x3e595dc8	0.21227181
27	0xbd874591	-0.066050656
28	0xbdf705e6	-0.12061672
29	0xbcad981f	-0.021190701
30	0xbd3ceaac	-0.046122238
31	0xbdf1265a	-0.11774893

cnn.1.weight f4 [32]
0	0x3f76efd2	0.96459687
1	0x3f7d7970	0.99013424
2	0x3f7655d3	0.9622471
3	0x3f81649e	1.0108831
4	0x3f7a55d1	0.97787195
5	0x3f77a77f	0.96739954
6	0x3f7d32c4	0.9890559
7	0x3f741fd9	0.95361096
8	0x3f7210eb	0.94557065
9	0x3f822188	1.0166483
10	0x3f804d5d	1.0023609
11	0x3f7ff438	0.99982023
12	0x3f79a139	0.9751163
13	0x3f80848d	1.0040451
14	0x3f84c9ae	1.0374048
15	0x3f8ab40e	1.0836198
16	0x3f7e7cd7	0.9940924
17	0x3f808610	1.0040913
18	0x3f8045ba	1.0021279
19	0x3f815ef0	1.0107098
20	0x3f7a4f3d	0.9777716
21	0x3f6ee889	0.9332357
22	0x3f82f85f	1.0232047
23	0x3f74e0a6	0.95655286
24	0x3f796c88	0.9743123
25	0x3f6d5119	0.9270187
26	0x3f82528e	1.0181444
27	0x3f651d97	0.89498276
28	0x3f8662f1	1.0498945
29	0x3f7201da	0.94534075
30	0x3f840774	1.0314775
31	0x3f84a0fd	1.036163

cnn.1.bias f4 [32]
0	0xbd7717c9	-0.060325418
1	0xbd825045	-0.063629664
2	0xbd50939d	-0.050922025
3	0x3b49d300	0.0030795932
4	0xbc9ffc50	-0.019529492
5	0xbd0088ea	-0.03138057
6	0xbd012260	-0.031526923
7	0xbd8b919d	-0.06814883
8	0xbd658e16	-0.056043707
9	0xbd976ef1	-0.07394207
10	0x3bd734bf	0.006567567
11	0x3d45ce50	0.048292458
12	0xbc3acf1b	-0.011401917
13	0xbcb6bcd2	-0.022306833
14	0xbdcbc8a9	-0.09950382
15	0x3ddacf19	0.10684032
16	0x3c98c9f2	0.018650983
17	0xbc838d2b	-0.016058525
18	0xbcae0654	-0.021243252
19	0xbcc80164	-0.024414726
20	0xbcdf5218	-0.027260825
21	0xbd014542	-0.03156019
22	0xbe010cac	-0.1260249
23	0xbd867d88	-0.06566912
24	0xbd1ccd4d	-0.038281728
25	0xbd7cf9f6	-0.06176182
26	0x3cc9ba39	0.02462493
27	0xbd353b70	-0.044246137
28	0xbc52af5b	-0.012859191
29	0xbd7ccd71	-0.06171936
30	0x3d8e7b0d	0.06957064
31	0xbd881552	-0.066446915

cnn.1.running_mean f4 [32]
0	0x3f59734f	0.8494157
1	0x3e26012e	0.16211388
2	0x3f0a7456	0.54083765
3	0xbec1815b	-0.37794003
4	0xbb0526df	-0.0020317358
5	0xbee337dc	-0.44378555
6	0xbe5818d1	-0.21103217
7	0x3f0b3b57	0.5438742
8	0x3ee296c4	0.4425565
9	0xbe379086	-0.17926225
10	0xbeec7e3a	-0.46190053
11	0x3d3786d5	0.04480632
12	0x3e69bc62	0.22825769
13	0xbe78b490	-0.24287629
14	0xbe56c765	-0.209745
15	0xbe5687bf	-0.2095022
16	0xbedbc480	-0.42923355
17	0x3d9b4abd	0.075826146
18	0x3eac0388	0.33596444
19	0xbf17e649	-0.5933576
20	0xbd63b961	-0.055596713
21	0xbef84f90	-0.484982
22	0x3da2c62c	0.079479545
23	0xbf169282	-0.58817303
24	0xbd1656ea	-0.03670398
25	0x3bd7638b	0.0065731457
26	0x3e80fb16	0.25191563
27	0xbf011fd1	-0.50439173
28	0xbe0b0357	-0.13575493
29	0x3ea21b50	0.31661463
30	0xbd9b4148	-0.07580811
31	0xbdd64a53	-0.10463395

cnn.1.running_var f4 [32]
0	0x3d5c78ed	0.05382626
1	0x3b0cc34b	0.0021478708
2	0x3d7bcc28	0.061473995
3	0x3a925157	0.0011163157
4	0x3c375b04	0.011191133
5	0x3d2e752f	0.042592224
6	0x3af6d47e	0.0018831638
7	0x3c800c46	0.015630852
8	0x3d36da6f	0.04464191
9	0x3aa53544	0.0012604375
10	0x3c9bc6d5	0.019015709
11	0x3b5fc5b9	0.0034144951
12	0x3a4d6bdb	0.0007836201
13	0x3beb4c42	0.0071807215
14	0x3c0e88af	0.00869958
15	0x3c014e7c	0.007892247
16	0x3bb65a1e	0.005564942
17	0x3b1f48b3	0.0024304807
18	0x3a9b2cea	0.0011838947
19	0x3c3497c2	0.01102251
20	0x3c2d76dd	0.010587421
21	0x3e15c1ad	0.14624663
22	0x3bff1076	0.0077839447
23	0x3d361dc3	0.044461977
24	0x3cdec1ec	0.027192079
25	0x3c9b987c	0.018993609
26	0x3b5ffefd	0.0034179084
27	0x3d6156fe	0.055014603
28	0x3a9d8890	0.0012018848
29	0x3d0806b8	0.033209532
30	0x3acb01ff	0.0015488266
31	0x3af4b249	0.0018668856

cnn.3.weight f4 [64, 32, 5]
0	0x3d087eb5	0.033323962
1	0x3d52bef6	0.051451646
2	0xbcba00fc	-0.022705548
3	0xbd1cd26d	-0.038286615
4	0xbcb1c951	-0.02170244
5	0xbd131990	-0.03591305
6	0xbd039e03	-0.032133114
7	0x3cb9383d	0.022609824
8	0xbdb5b794	-0.088729054
9	0xbd759c3c	-0.05996345
10	0x3d4dc3e5	0.050235648
11	0x3c801239	0.01563369
12	0xbcb38056	-0.021911781
13	0xbd8f2e02	-0.06991197
14	0xbd904d3a	-0.0704598
15	0xbdd48352	-0.1037661
16	0xbd4348d9	-0.047676895
17	0xbc4aaf74	-0.012370933
18	0x3cfbf021	0.03075415
19	0x3b1516b8	0.0022749137
20	0xbd45da45	-0.04830386
21	0xbd2669fa	-0.04062841
22	0x39e33753	0.00043338034
23	0x3db0fe98	0.0864231
24	0x3cdbb22e	0.026818361
25	0x3a174364	0.0005770235
26	0x3d332c64	0.043743506
27	0xbc9e2210	-0.019303352
28	0xbd1a8ebc	-0.03773378
29	0x3d9a7fb8	0.07543892
30	0xbd821fb4	-0.06353703
31	0xbd6c0d24	-0.05762972
32	0xbdcfd69b	-0.101483546
33	0x3d100492	0.03516061
34	0x3d06ec05	0.03293993
35	0x3c255ee9	0.010093429
36	0xbd94a721	-0.0725844
37	0xbdb9f42a	-0.09079774
38	0xbd9aac0a	-0.07552345
39	0x3d250db8	0.040296286
40	0x3cb2cd5d	0.02182644
41	0x3d3d086a	0.046150602
42	0x3c987567	0.01861067
43	0xbbb570c8	-0.005537126
44	0xbcb8213b	-0.022476783
45	0xbda65ec9	-0.081235476
46	0xbdc73159	-0.09726209
47	0xbd92cf42	-0.071684375
48	0x3d4bf3d8	0.049793094
49	0xbd895cfd	-0.06707189
50	0x3cf7c9c3	0.030247575
51	0xbc935772	-0.017986033
52	0x3c47ef68	0.012203075
53	0xbc84d233	-0.016213512
54	0xbbbf2804	-0.0058336277
55	0x3b72bf74	0.0037040384
56	0xbd5733dd	-0.052539695
57	0x3d2ff0f9	0.04295442
58	0xbd1c1f12	-0.03811557
59	0xbdb05c04	-0.086113006
60	0x3c14247e	0.009041904
61	0xbd08f810	-0.033439696
62	0xbc88b343	-0.016687041
63	0xbd3a0b53	-0.045420956
64	0x3d7878f3	0.06066222
65	0xbd4097f9	-0.047019932
66	0x3d3d2785	0.046180267
67	0x3d25701e	0.040390126
68	0x3d5a4e80	0.05329752
69	0xbd7040b1	-0.058655445
70	0x3d82015c	0.063479155
71	0xbd108ba2	-0.035289414
72	0x3d399d18	0.045315832
73	0x3de15912	0.11003317
74	0x3c68ccee	0.014209015
75	0x3d0acc12	0.033886023
76	0xbb91c674	-0.0044487063
77	0xbd2ed6b9	-0.042685244
78	0x3dc85d30	0.09783399
79	0x3cabb5ae	0.020960655
80	0x3dbd576a	0.092451885
81	0x3db1a7b8	0.08674568
82	0x3dc3995c	0.09550735
83	0x3cfb0108	0.03064014
84	0xbc0ee8df	-0.008722513
85	0x3cdcbf9d	0.026946837
86	0x3d7302d2	0.05932886
87	0xbd81aa5e	-0.06331323
88	0xbc2d42e6	-0.010575032
89	0xbd500483	-0.050785553
90	0xbcd6800a	-0.0261841
91	0xbdaaa3bd	-0.08332012
92	0xbce3872e	-0.02777442
93	0xbcc09b35	-0.023511508
94	0xbdc0bb71	-0.094107516
95	0x3d989539	0.07450337
96	0x3d8f9d08	0.07012373
97	0xbc164c44	-0.009173457
98	0xbbd4e4f2	-0.006497019
99	0xbcbb7b7b	-0.022886029
100	0xbd5818dd	-0.052758086
101	0xbd7480b1	-0.059693042
102	0x3d05f6d3	0.032706093
103	0xbd140406	-0.03613665
104	0xbd151a24	-0.036401883
105	0x3c88f630	0.016718954
106	0xbc28a325	-0.010292803
107	0xbc7da876	-0.015482059
108	0x3c8ca022	0.017166201
109	0x3b033f96	0.0020026914
110	0xbc58f53d	-0.013242063
111	0xbcea16e6	-0.028575372
112	0xbd6be981	-0.057595734
113	0x3dc12f1d	0.09432814
114	0xbc68204d	-0.014167857
115	0x3d1d929d	0.0384699
116	0xbc7c5f77	-0.01540362
117	0x3c787ede	0.015166966
118	0x3daae2a4	0.083440095
119	0x3d4c1aec	0.049830362
120	0xbd562fbb	-0.052291613
121	0x3d26058c	0.040532634
122	0x3da495df	0.08036398
123	0x3d127309	0.035754237
124	0x3d8ac5ef	0.06776034
125	0x3de7a468	0.11310655
126	0x3b7d0c55	0.0038612087
127	0x3d075ba3	0.033046376
128	0xbd0b380d	-0.033989
129	0x3c1c22ef	0.009529813
130	0x3d0447b2	0.032294936
131	0x3c00e972	0.007868158
132	0xbd89e1c5	-0.06732515
133	0xbdc27bf2	-0.09496297
134	0xbdafca29	-0.08583481
135	0xbd520536	-0.0512745
136	0xbd369d1d	-0.04458343
137	0xbba9e0c3	-0.0051842644
138	0x3d88db85	0.06682495
139	0x3cf6aea6	0.030112576
140	0xbd8c13c3	-0.06839707
141	0xbda50c70	-0.08059013
142	0x3c9d3c97	0.01919393
143	0xbd350833	-0.044197273
144	0xbc8ea1a3	-0.017411059
145	0x3c98c1ae	0.018647041
146	0xbd62a8d5	-0.055336792
147	0xbca732a3	-0.020409888
148	0xbcbf383b	-0.023342242
149	0xbd31988c	-0.04335837
150	0xbccead2b	-0.025229057
151	0xbd171dcd	-0.036893655
152	0xbc98961a	-0.018626262
153	0x3cd8f98f	0.026486186
154	0x3dade36c	0.08490643
155	0xbd2ad0cf	-0.04170304
156	0xbd87e92f	-0.06636273
157	0x3c9ad624	0.018900938
158	0x3d129241	0.03578401
159	0x3d2fb260	0.04289472
160	0x3d3468b2	0.044045158
161	0x3cef5f76	0.029220324
162	0xbdb59db9	-0.08867974
163	0xbabc0bca	-0.0014346775
164	0x3d17c489	0.037052665
165	0x3c5381ea	0.012909392
166	0xbd844ce7	-0.064599805
167	0x3d862760	0.06550479
168	0xbb611fa0	-0.0034351125
169	0xbc9c7877	-0.01910041
170	0xbdb2425b	-0.087040626
171	0xbc0ac2e5	-0.008469318
172	0x3cddd800	0.027080536
173	0x3c2246c5	0.009904568
174	0x3b8d43ae	0.0043110466
175	0xbd57ed08	-0.052716285
176	0xbd5240b0	-0.051331222
177	0x3c431e4f	0.011909082
178	0x3d8aed8a	0.06783588
179	0x3d679df7	0.05654713
180	0xbd4323e1	-0.04764164
181	0xbc8a64a5	-0.016893694
182	0xbd31cb85	-0.043406982
183	0xbcd14901	-0.025547506
184	0x3cde221f	0.02711588
185	0x3d286d38	0.041119784
186	0x3d83536a	0.06412394
187	0xbd7cdf17	-0.061736193
188	0x3d7d266c	0.06180422
189	0xbd2bb7b5	-0.041923244
190	0x3d4af32c	0.049548313
191	0x3d85adc2	0.06527282
192	0x3bcc83d4	0.006241301
193	0x3dc2bc09	0.09508521
194	0xbd3e680a	-0.046485938
195	0xbd382b72	-0.044963308
196	0x3cfe9922	0.031078879
197	0xbd0eaa4c	-0.034830377
198	0xbcfd236b	-0.030900678
199	0xbd36158c	-0.044454142
200	0x3d2f4356	0.042788826
201	0x3cda9fb3	0.026687479
202	0x3c633188	0.01386679
203	0xbd4ee578	-0.050511807
204	0xbd923fe8	-0.071410954
205	0x3d338f0b	0.04383759
206	0x398878ba	0.0002602989
207	0xbd924fee	-0.07144152
208	0xbd13ec4c	-0.036114022
209	0x3e032548	0.1280719
210	0xbc77b1a6	-0.015118038
211	0xbc405a35	-0.011740257
212	0xbd0fd0a6	-0.035111092
213	0xbdd65e39	-0.1046719
214	0xbdeccb66	-0.11562233
215	0xbd3898bd	-0.045067538
216	0xbd870dd3	-0.06594434
217	0x3b69197b	0.0035568166
218	0xbd089908	-0.033349067
219	0xbce4af3c	-0.02791559
220	0x3d9d5493	0.07682147
221	0x3cdd9870	0.027050227
222	0x3d5d1adf	0.053980704
223	0xbd458e75	-0.04823156
224	0xbd6d475b	-0.057929378
225	0x3d3b8f92	0.045791216
226	0xbcf9dd62	-0.030501071
227	0xbd079156	-0.033097588
228	0x3cad79c8	0.021176234
229	0x3cbb7e12	0.022887263
230	0xbd886c62	-0.066612974
231	0xbb03e978	-0.0020128172
232	0x3c001d6a	0.007819513
233	0xbd01974f	-0.03163844
234	0x3c6804b7	0.01416128
235	0xbe024c51	-0.12724425
236	0xbd9fa89d	-0.07795832
237	0xbd3a072a	-0.04541699
238	0xbd35d906	-0.044396423
239	0xbdf3b9ff	-0.1190071
240	0xbd43f348	-0.047839433
241	0x3cd5dbe6	0.026105832
242	0xbdc1ff17	-0.09472483
243	0x3c07fb4a	0.008299658
244	0xbdb03261	-0.08603359
245	0x3a6051df	0.00085571216
246	0x3af257e5	0.0018489329
247	0x3c9ebea0	0.019378006
248	0xbc8b7979	-0.017025696
249	0x3d9fe295	0.07806889
250	0x3ca8e694	0.02061776
251	0x3d2cff15	0.042235453
252	0x3d82db49	0.063894816
253	0xbcae4333	-0.021272277
254	0xbcad5d05	-0.02116252
255	0x3da757ba	0.081710294

cnn.3.bias f4 [64]
0	0x3cb4f1ad	0.022087896
1	0xbd96c134	-0.07361069
2	0xbd74e453	-0.05978806
3	0x3cc49029	0.023994522
4	0xbb2385e8	-0.002495164
5	0xbc823a87	-0.015897049
6	0x3dd073b2	0.10178317
7	0x3d56d10e	0.052445464
8	0x3db12939	0.08650441
9	0xbd8f1d6b	-0.06988033
10	0xbc2fcaf0	-0.010729536
11	0x3d4974ad	0.049183536
12	0xbdce156a	-0.10062678
13	0x3da60d61	0.081080206
14	0x3d8889fc	0.066669434
15	0xbd026026	-0.031829976
16	0xbcb9adfc	-0.02266597
17	0xbd50a869	-0.05094186
18	0x3d3d372e	0.0461952
19	0x3c18b159	0.009319627
20	0xbc263705	-0.010144954
21	0x3d0acd80	0.033887386
22	0x3c4dc0f2	0.012558209
23	0x3c7d7619	0.015470051
24	0x3d3c1d1b	0.045926195
25	0xbd073efa	-0.033019044
26	0xbd973b29	-0.07384331
27	0x3db9f08a	0.09079082
28	0xbd1c3558	-0.03813681
29	0x3d63cd41	0.055615667
30	0x3c4b3b11	0.012404219
31	0x3d80d6cd	0.0629097
32	0x3d3c270b	0.04593567
33	0xbda065cf	-0.078319184
34	0xbcf2b868	-0.029628947
35	0x3dad65b2	0.084666625
36	0x3bcb3655	0.0062015452
37	0x3d01c9fc	0.031686768
38	0x3d3e7243	0.046495687
39	0xbd88ca0f	-0.066791646
40	0xbd0d075d	-0.03443085
41	0x3cc96177	0.024582608
42	0xbce1fd68	-0.027586654
43	0xbdae0572	-0.08497132
44	0x3d48b75e	0.049002998
45	0xbd06e96a	-0.032937445
46	0xbd77251f	-0.060338136
47	0xbd9c26e8	-0.07624608
48	0x3d2597ee	0.040428095
49	0x3adf54e9	0.0017038855
50	0x3d3e8bcb	0.046520036
51	0x3d99da42	0.075123325
52	0x3c345236	0.011005929
53	0xbbbbe3d8	-0.005733948
54	0x3d919016	0.0710756
55	0x3d0b483a	0.034004427
56	0x3d07ed75	0.03318544
57	0xbd8c23ac	-0.06842741
58	0xbda715e3	-0.081584714
59	0xbd843a35	-0.064564146
60	0xbc6d276d	-0.014474732
61	0x3c6a78f4	0.014311064
62	0x3b49cb07	0.003079118
63	0x3d243c72	0.040096708

cnn.4.weight f4 [64]
0	0x3f8023e3	1.0010952
1	0x3f81c2b9	1.013755
2	0x3f824907	1.0178536
3	0x3f818aea	1.0120518
4	0x3f801280	1.0005646
5	0x3f8482b5	1.0352389
6	0x3f80ea6d	1.0071541
7	0x3f80decb	1.0067991
8	0x3f817d29	1.0116321
9	0x3f7c8490	0.98639774
10	0x3f834d96	1.0258052
11	0x3f8072f9	1.0035087
12	0x3f8121a2	1.0088389
13	0x3f858fa4	1.0434461
14	0x3f808f73	1.0043777
15	0x3f81e6f1	1.0148603
16	0x3f81b923	1.0134624
17	0x3f8225ea	1.016782
18	0x3f7c0938	0.98451567
19	0x3f79941f	0.9749164
20	0x3f8362e6	1.0264556
21	0x3f8122a0	1.0088692
22	0x3f815996	1.0105464
23	0x3f801112	1.000521
24	0x3f811a01	1.0086061
25	0x3f80bc49	1.005746
26	0x3f7f5d87	0.99752086
27	0x3f7f3e32	0.9970428
28	0x3f7f9dee	0.99850357
29	0x3f828448	1.0196619
30	0x3f8141c6	1.0098197
31	0x3f7bfbd8	0.9843116
32	0x3f80f5c1	1.0074998
33	0x3f83030d	1.0235306
34	0x3f8009f1	1.0003034
35	0x3f80c235	1.0059267
36	0x3f81648e	1.0108812
37	0x3f81f4b8	1.0152807
38	0x3f70dbe3	0.9408552
39	0x3f802fff	1.0014647
40	0x3f80ebe5	1.0071989
41	0x3f81e15f	1.0146903
42	0x3f80d9ae	1.006643
43	0x3f7e9321	0.9944325
44	0x3f804511	1.0021077
45	0x3f807d9b	1.0038332
46	0x3f814075	1.0097796
47	0x3f797b9c	0.9745424
48	0x3f854df4	1.0414414
49	0x3f814261	1.0098382
50	0x3f81ef49	1.0151149
51	0x3f7fb611	0.99887186
52	0x3f848d9b	1.0355715
53	0x3f81b921	1.0134622
54	0x3f811a50	1.0086155
55	0x3f7c5a3c	0.98575187
56	0x3f807051	1.0034276
57	0x3f7fcc99	0.99921566
58	0x3f7c5d73	0.9858009
59	0x3f735d1f	0.95063967
60	0x3f8192b5	1.0122896
61	0x3f7a9e4c	0.9789779
62	0x3f7c346f	0.9851751
63	0x3f8058ae	1.0027063

cnn.4.bias f4 [64]
0	0x3bba653b	0.005688337
1	0xbc77e667	-0.015130616
2	0x3c555011	0.013019578
3	0xbc73f458	-0.014889799
4	0xbcc2142d	-0.023691261
5	0x3c81d3f6	0.015848141
6	0xbc70c7f5	-0.014696111
7	0xbc2a9b2a	-0.010412971
8	0xbc8dc898	-0.017307565
9	0xbd0db9bf	-0.03460097
10	0x3b21385c	0.0024600243
11	0xbcb2c932	-0.021824453
12	0xbcd5eecf	-0.02611485
13	0x3c715756	0.014730295
14	0xbc72244f	-0.014779164
15	0xbce162be	-0.027512904
16	0xbc8a518e	-0.016884591
17	0xbc1fc188	-0.009750731
18	0xbce11f8b	-0.027480861
19	0xbcca1a67	-0.024670793
20	0x3bdd7c70	0.006759219
21	0xbc7ef309	-0.015560874
22	0xbc70d7cf	-0.01469989
23	0xbcc2acc5	-0.023764024
24	0xbc3371aa	-0.010952393
25	0xbc954423	-0.018220967
26	0xba8c1be0	-0.001068946
27	0xbcd09d10	-0.025465518
28	0xbcc21658	-0.023692295
29	0xbc80f88a	-0.015743513
30	0xbcb20734	-0.02173195
31	0xbd01307e	-0.031540386
32	0xbcbaa947	-0.022785796
33	0xbc2be052	-0.010490494
34	0xb9a23564	-0.00030938827
35	0xbc6489da	-0.013948882
36	0xbc16ddb5	-0.0092081325
37	0x3bc8f41b	0.0061326153
38	0xbd38e479	-0.045139764
39	0xbcb7fe3a	-0.022460092
40	0xbc907075	-0.017631749
41	0x3b01c9db	0.0019804153
42	0xbc944ee9	-0.018104034
43	0xbc557e45	-0.013030593
44	0xbcd89960	-0.026440322
45	0xbca69d8b	-0.020338794
46	0xbc315d7b	-0.01082551
47	0xbc26fc72	-0.010192024
48	0x3c915d11	0.017744573
49	0xbc1fa77a	-0.009744519
50	0xbc0f8452	-0.008759575
51	0xbca3ab71	-0.01997921
52	0x3c4e646e	0.0125971865
53	0xbc8e12d9	-0.017342972
54	0x3b9e31e4	0.004827725
55	0xbc1c7aa2	-0.009550722
56	0xbc7b9a2f	-0.015356584
57	0xbb9cd8aa	-0.0047865706
58	0xbcde5b7a	-0.027143229
59	0xbd2110a0	-0.039322495
60	0xbcafabd8	-0.021444246
61	0xbc4c427b	-0.012467022
62	0xbcca4743	-0.024692183
63	0x3b916760	0.004437372

cnn.4.running_mean f4 [64]
0	0xbe5bd266	-0.2146698
1	0xbe8a0592	-0.26957375
2	0xbe351fd4	-0.17687923
3	0x3ca0f307	0.019647134
4	0x3e80f8a4	0.25189698
5	0xbeeb77c2	-0.45989805
6	0x3f21c863	0.6319639
7	0x3eba2ff0	0.36364698
8	0x3f50623b	0.8139989
9	0x3eaf0873	0.34186134
10	0xbe026a8c	-0.12735957
11	0x3f42f229	0.7615076
12	0x3f3abf6f	0.72948354
13	0xbda0e401	-0.07855988
14	0xbce5f935	-0.028072933
15	0x3f43b369	0.76445633
16	0x3f576dff	0.84152216
17	0xbc8b6a2f	-0.017018406
18	0x3b3257ad	0.0027212903
19	0xbdf8c0de	-0.121461615
20	0xbe831805	-0.25604263
21	0xbd33e7ca	-0.043922223
22	0x3e6b1344	0.22956568
23	0x3e78fd9e	0.24315497
24	0xbe9780f0	-0.2959056
25	0x3e2b3394	0.16718894
26	0xbf1ac0c4	-0.60450387
27	0x3ce98b51	0.028508814
28	0x3f1631bf	0.58669657
29	0x3f1a1866	0.6019348
30	0x3ee5d37b	0.4488791
31	0x3e8d331d	0.2757806
32	0x3d88bcdf	0.06676649
33	0x39434210	0.0001862126
34	0xbed64ad5	-0.41853967
35	0x3e83bc44	0.25729573
36	0xbdc774be	-0.09739064
37	0xbeae5764	-0.3405105
38	0x3dec990e	0.1155263
39	0xbe6be7b0	-0.230376
40	0x3e9d0ec3	0.30675325
41	0xbe7d1cf5	-0.24718077
42	0x3e4044fa	0.18776312
43	0xbf2739a9	-0.6532236
44	0x3f816f6d	1.011213
45	0x3ed72e36	0.42027444
46	0xbdc75e8c	-0.0973483
47	0xbf72f34d	-0.949025
48	0xbdeffe79	-0.11718459
49	0xbe28a9ad	-0.16470976
50	0x3e96d8e1	0.2946234
51	0x3f16cc34	0.5890534
52	0xbe2cdc26	-0.16880855
53	0x3e91d474	0.284824
54	0x3aaccd6a	0.0013183777
55	0xbe1bc998	-0.1521362
56	0x3f0658e0	0.5247936
57	0xbde3c1c7	-0.111209445
58	0x3e32f261	0.17475273
59	0x3de7cf6c	0.113188595
60	0x3f274580	0.65340424
61	0x3f28666f	0.657813
62	0xbe0c3c32	-0.13694838
63	0xbec22d0b	-0.3792499

cnn.4.running_var f4 [64]
0	0x3f1b7ace	0.6073426
1	0x3e246ff0	0.16058326
2	0x3e8b9ba3	0.2726718
3	0x3e9e8e2b	0.3096784
4	0x3e34e7ae	0.17666504
5	0x3ec9a096	0.3938033
6	0x3f17d951	0.59315974
7	0x3e9553e9	0.2916558
8	0x3e99e829	0.30059937
9	0x3ea4709c	0.32117164
10	0x3e19da21	0.15024616
11	0x3e9d4641	0.30717662
12	0x3e8bc8db	0.27301678
13	0x3e3bc3ad	0.18336363
14	0x3e245f55	0.16051991
15	0x3ea1e58f	0.31620452
16	0x3ecb1aab	0.39668784
17	0x3e3be04f	0.18347286
18	0x3e73269b	0.23745196
19	0x3e9a8083	0.30176172
20	0x3e8a026c	0.26954973
21	0x3e7575e7	0.23970757
22	0x3efe15aa	0.49625903
23	0x3eae4397	0.34035942
24	0x3f1d3abc	0.61417747
25	0x3e83b9bb	0.2572764
26	0x3ef128ba	0.47101384
27	0x3e2484b8	0.16066253
28	0x3e803efb	0.2504805
29	0x3e6cc21b	0.2312092
30	0x3ee899af	0.4542975
31	0x3e8e070a	0.27739745
32	0x3e2ff72d	0.17184134
33	0x3dacbd3a	0.084345296
34	0x3ebd59d5	0.369826
35	0x3e9b41a5	0.3032352
36	0x3e4ad17a	0.19806471
37	0x3e8cf8d8	0.27533603
38	0x3eb69046	0.35656947
39	0x3e521fb6	0.2051991
40	0x3e98897c	0.29792392
41	0x3e9fd7c9	0.31219319
42	0x3ee0dd6d	0.43918934
43	0x3ec009e2	0.3750754
44	0x3ee59055	0.4483668
45	0x3eb2e0c1	0.349371
46	0x3e5a6d5a	0.21330777
47	0x3f430512	0.7617961
48	0x3e1b946f	0.15193342
49	0x3e89a300	0.26882172
50	0x3e85cf86	0.2613489
51	0x3ee26e0e	0.4422459
52	0x3e664583	0.22487454
53	0x3e2b1388	0.1670667
54	0x3e9362c7	0.287863
55	0x3ee52309	0.44753292
56	0x3e83a3a0	0.25710773
57	0x3e2381f2	0.15967539
58	0x3e80249b	0.25027928
59	0x3f237e09	0.6386419
60	0x3e74c74f	0.23904155
61	0x3f0d7f3e	0.5527228
62	0x3dcb7222	0.099338785
63	0x3e685b1f	0.2269101

lstm.weight_ih_l0 f4 [512, 64]
0	0x3db0fb38	0.08641666
1	0xbc8589bb	-0.016301027
2	0x3c4d252e	0.012521071
3	0x3c86583e	0.016399499
4	0x3d8c6f26	0.068571374
5	0x3d2469dc	0.040140018
6	0x3c6de9e6	0.014521098
7	0x3d82db32	0.063894644
8	0xbd2fa828	-0.042884976
9	0x3a0ef058	0.0005452684
10	0xbd13891f	-0.03601944
11	0xbddec738	-0.10877842
12	0x3d113403	0.035449993
13	0xbd434035	-0.047668654
14	0xbda7593b	-0.08171316
15	0xbda32a15	-0.07967011
16	0xbca7464f	-0.020419268
17	0x3bf61785	0.007510128
18	0x3d28d496	0.041218363
19	0x3d86b201	0.0657692
20	0x3d56557d	0.05232762
21	0xbd768435	-0.060184676
22	0x3d694036	0.056946002
23	0x3d826a46	0.06367926
24	0xbd1afb23	-0.03783716
25	0x3c657c01	0.014006616
26	0xbcb470a7	-0.022026373
27	0x3cb67fc2	0.022277717
28	0x3c92c243	0.017914897
29	0x3d187f7f	0.037230965
30	0x3dcd0552	0.100107804
31	0x3d17845a	0.036991455
32	0x3d866f9e	0.06564258
33	0x3d347c58	0.044063896
34	0xbdb17d58	-0.086664855
35	0x3da63230	0.08115041
36	0x3c728c2a	0.0148039255
37	0x3d09a6bb	0.033606272
38	0xbd523e22	-0.051328786
39	0x3d98cac2	0.07460548
40	0x3d0b2404	0.033969894
41	0x3c625e58	0.013816439
42	0xbd7640d7	-0.06012043
43	0xbd322331	-0.043490592
44	0xbd925112	-0.07144369
45	0x3dc4850f	0.095956914
46	0xbda08e0c	-0.07839593
47	0xbca22aa5	-0.019795725
48	0xbd1fd34b	-0.039019864
49	0xbd56502e	-0.05232256
50	0x3d426ae1	0.04746521
51	0xbd3ad7e6	-0.045616053
52	0x3d163247	0.036669042
53	0x3cbf5ccd	0.02335968
54	0xbd48f291	-0.049059454
55	0xbd5ac979	-0.053414796
56	0x3c94a814	0.018146552
57	0xbd8a5260	-0.06753993
58	0xbd257e31	-0.04040355
59	0xbd1720ee	-0.03689664
60	0xbc4bcde4	-0.012439225
61	0xbda1acaa	-0.07894261
62	0x3d322133	0.043488692
63	0x3cb158cf	0.021648793
64	0x3daa0134	0.08301011
65	0x3d306125	0.043061394
66	0xbd1cd5ec	-0.03828995
67	0xbd78944c	-0.060688302
68	0x3d3bfb3a	0.045893885
69	0x3cd749b9	0.02628027
70	0xbdc8c03f	-0.09802293
71	0xbd86c596	-0.06580655
72	0x3db7359e	0.089457735
73	0xbd8658f3	-0.065599345
74	0x3d48aa8b	0.048990767
75	0xbd502719	-0.050818536
76	0x3da87be6	0.08226757
77	0x3d560c36	0.05225774
78	0x3d03e4a6	0.032200478
79	0x3cecd209	0.028908746
80	0x3d9096e9	0.07060034
81	0x3d27fc31	0.041011993
82	0xbce81080	-0.02832818
83	0xbd987d3a	-0.0744576
84	0xbd3c49cb	-0.045968812
85	0x3ce2374c	0.027614258
86	0xbdb8ce92	-0.09023775
87	0xbdcc24ae	-0.099679336
88	0xbd83c925	-0.0643485
89	0xbd830b6c	-0.06398663
90	0x3cdb2242	0.026749734
91	0xbddd1803	-0.107955955
92	0xbcdeb470	-0.027185649
93	0x3de23ae6	0.1104639
94	0xbd4c0da8	-0.04981771
95	0xbd59960c	-0.05312161
96	0x3cc39123	0.023872918
97	0xbdeea8fc	-0.11653325
98	0xbd8e0790	-0.06935036
99	0xbc90ab6f	-0.01765987
100	0xbbe737c0	-0.0070562065
101	0xbd9b6f8a	-0.07589634
102	0x3d92a14c	0.07159671
103	0xbd8611de	-0.06546377
104	0xbc0984f8	-0.008393519
105	0x3d9fad92	0.07796778
106	0x3bc23446	0.0059266416
107	0x3d0815c4	0.033223882
108	0xbd690f93	-0.05689962
109	0xbdd1a6fa	-0.102369264
110	0x3c246532	0.0100338925
111	0x3b91cb27	0.0044492665
112	0x3d9d0f08	0.076688826
113	0x3c8b1f50	0.016982704
114	0xbdd1d1b2	-0.10245074
115	0x3aff1266	0.0019460439
116	0xbd2263e3	-0.03964604
117	0xbda05b91	-0.07829965
118	0x3d18d525	0.037312645
119	0x3b50db4e	0.0031868997
120	0xbd99fc4f	-0.07518827
121	0x3d4150dd	0.047196258
122	0x3d3f7c8f	0.046749648
123	0xbdb249f6	-0.08705513
124	0x3dd930ee	0.10605036
125	0x3d4e724a	0.050401963
126	0xbc3ebbcd	-0.011641455
127	0xbd9ee8a4	-0.077592164
128	0xbd2dfcdc	-0.042477474
129	0x3d0ed7f5	0.03487392
130	0xbcdf089b	-0.027225783
131	0xbca6d3ca	-0.02036466
132	0xbcf22497	-0.029558463
133	0x3db35c43	0.08757832
134	0x3da0db51	0.07854331
135	0xbd8090f9	-0.06277651
136	0xbc836eec	-0.016044103
137	0x3db4b1ce	0.08822976
138	0xbb72f17d	-0.0037070208
139	0xbd00df6e	-0.03146308
140	0x3c5f1371	0.013615475
141	0x3d9a7fd8	0.075439155
142	0xba5ac9f0	-0.0008346131
143	0xbd9a67d4	-0.07539335
144	0xbca56c42	-0.020193223
145	0x3d61b7f7	0.055107083
146	0xbc7119a4	-0.014715586
147	0x3d811aff	0.06303977
148	0x3d096124	0.033539906
149	0x3bb78dff	0.005601644
150	0x3d22e0f4	0.039765313
151	0xbbc054cf	-0.005869485
152	0xbdaab95f	-0.08336138
153	0xbd94ef48	-0.07272202
154	0xbd593c68	-0.053036124
155	0xbc504fbc	-0.012714323
156	0xbd67c025	-0.056579728
157	0x3cb47020	0.022026122
158	0x3c88b977	0.016689999
159	0x3d8c8c10	0.06862652
160	0x3c2a82b4	0.010407139
161	0x3ccde6a7	0.025134398
162	0x3d30bcea	0.043148912
163	0xbc96ecec	-0.01842352
164	0xbd1f05c9	-0.038823877
165	0xbda34326	-0.07971792
166	0xbda65f7a	-0.081236795
167	0x3c58be68	0.01322899
168	0xbd154148	-0.03643921
169	0x3ce8c75e	0.028415378
170	0x3cd45b9b	0.025922587
171	0x3da38d10	0.0798589
172	0xbb9e8102	-0.0048371563
173	0x3b63c50a	0.0034754896
174	0x3d8aee80	0.067837715
175	0x3c877b88	0.016538396
176	0x3d18f600	0.03734398
177	0xbd1f42e9	-0.03888217
178	0xbd62e0fc	-0.055390343
179	0x3d8ccd03	0.068750404
180	0x3d960514	0.07325187
181	0xbcb88060	-0.022522151
182	0x3cb1fa92	0.021725927
183	0xbd9a28ed	-0.07527337
184	0x3c2f0027	0.010681189
185	0xbd961c02	-0.07329561
186	0x3d59c917	0.05317029
187	0xbdb2f89a	-0.08738823
188	0xbc9ff50c	-0.019526027
189	0x3da21be5	0.07915477
190	0xbcb44e03	-0.022009855
191	0xbd098eac	-0.033583328
192	0x3da35fe0	0.07977271
193	0xbd1f2edc	-0.038863048
194	0x3d0ea2f4	0.034823373
195	0x3d69b43e	0.057056658
196	0x3d0b5486	0.034016155
197	0xbd51d0fb	-0.05122469
198	0x3dba3c63	0.09093549
199	0x3d5c952e	0.053853206
200	0xbd3c4112	-0.045960493
201	0xbd2ec254	-0.042665794
202	0xbc846d3a	-0.016165365
203	0x3d4f3d6c	0.050595686
204	0x3d310cc4	0.043225065
205	0x3c61509d	0.01375213
206	0x3d89be2c	0.067257255
207	0x3dcda1ba	0.100406125
208	0x3cfe05fb	0.031008711
209	0x3d3b0f95	0.045669157
210	0x3d6178e2	0.055046923
211	0x3ca9c5b3	0.020724153
212	0x3c32d88d	0.010915888
213	0x3db0e7af	0.0863794
214	0x3d8c0f85	0.068388976
215	0x3d879bd1	0.066215165
216	0xbd2513d0	-0.040302098
217	0xbd0714cf	-0.03297883
218	0xbd580ff7	-0.0527496
219	0xbd8eea97	-0.06978338
220	0x3b8a617f	0.004223048
221	0x3d82fdda	0.063960746
222	0x3cc95f69	0.024581628
223	0xbcc8adfb	-0.024497023
224	0xbba8dfb2	-0.0051536197
225	0xbd5dc310	-0.054141104
226	0xbd7be2ec	-0.061495706
227	0x3c8ad203	0.016945845
228	0xbd38da2e	-0.045129947
229	0x3c91cc58	0.017797634
230	0x3da5655b	0.08075973
231	0x3cd510b7	0.026008947
232	0x3d9d7246	0.076878116
233	0xbd33f480	-0.043934345
234	0x3c1d8340	0.009613812
235	0xbdd7bd39	-0.10534138
236	0x3c2ceaeb	0.010554056
237	0xbd59b470	-0.053150594
238	0x3db6edfe	0.08932112
239	0xbda25a46	-0.079273745
240	0x3cc86f00	0.024466991
241	0xbd338a24	-0.043832913
242	0x3d0f8cce	0.03504639
243	0x3c1b9a9d	0.009497312
244	0x3a8bdcf3	0.0010670706
245	0xbcb825e0	-0.022478998
246	0x3d8641d8	0.065555274
247	0xbc8874a4	-0.016657181
248	0x3ca34102	0.01992846
249	0xbc9a228a	-0.018815298
250	0xbd5abf9c	-0.05340539
251	0xbd1c68a6	-0.038185738
252	0x3d9f61dc	0.07782337
253	0x3da61e20	0.08111215
254	0xbd07c639	-0.033148024
255	0xbc0da843	-0.008646074

lstm.weight_hh_l0 f4 [512, 128]
0	0x3daecc44	0.08535054
1	0xbc475f1b	-0.012168671
2	0x3db955ee	0.09049593
3	0x3d1bb8fe	0.03801822
4	0xbd376c9a	-0.044781305
5	0x3d6b8a50	0.057504952
6	0xbdc287fe	-0.09498595
7	0xbbc6de20	-0.00606896
8	0xbd852df6	-0.06502907
9	0x3cdc4906	0.026890289
10	0xbc04a1d6	-0.008095225
11	0x3cbcc6ef	0.023044078
12	0xbcdd11d1	-0.026986035
13	0xbd903bca	-0.07042654
14	0xbc2ddcd6	-0.010611733
15	0x3c9871cc	0.01860895
16	0xbca240ba	-0.019806255
17	0xbd5ac3f2	-0.053409524
18	0x3da5e044	0.08099416
19	0x3cc08ac9	0.023503678
20	0x3d8db0a9	0.06918461
21	0x3d8897a1	0.06669546
22	0xbc3936af	-0.0113045415
23	0xbbcb9e4c	-0.006213939
24	0xbd309337	-0.043109145
25	0x3cd72456	0.026262444
26	0x3d728868	0.05921212
27	0xbd05aec9	-0.03263739
28	0x3dcba66f	0.09943854
29	0xbcbfa624	-0.023394652
30	0x3d77228c	0.06033568
31	0x3d31357a	0.04326389
32	0x3d4ff889	0.05077413
33	0x3d2c6015	0.04208382
34	0x39a31eae	0.0003111264
35	0xbd68f165	-0.056870837
36	0xbd8811fb	-0.066440545
37	0x3dabb9a2	0.08385016
38	0x3c031b37	0.008002094
39	0xbcd0a83d	-0.025470847
40	0x3c009193	0.007847208
41	0xbd4b516d	-0.0496382
42	0xbdd3cef7	-0.1034221
43	0x3cd1973a	0.025584806
44	0xbdac9a6d	-0.08427892
45	0xbc6d00ff	-0.0144655695
46	0xbd6da45e	-0.05801808
47	0x3dbe1391	0.09281076
48	0xbd37557e	-0.044759266
49	0x3d1e4e07	0.03864863
50	0xb97907d3	-0.00023749405
51	0x3d61e267	0.055147555
52	0x3db3ab3f	0.08772897
53	0x3d4958a0	0.049156785
54	0xbd33d2fe	-0.04390239
55	0x3c6e5623	0.014546904
56	0x3d28ea97	0.041239347
57	0xbd84e725	-0.064894
58	0x3b0b2490	0.002123151
59	0x3d6876b0	0.056753814
60	0xbdca04fc	-0.09864232
61	0xbd02b615	-0.03191193
62	0xbcfcc0f2	-0.030853722
63	0x3d8e588a	0.06950481
64	0xbdb03552	-0.0860392
65	0xbbdb2836	-0.006688143
66	0xbd49bf37	-0.049254622
67	0x3d9ac7a1	0.075576074
68	0xbd81d8f8	-0.06340212
69	0x3cb9e184	0.022690542
70	0xbce1e8d8	-0.027576849
71	0xbd106582	-0.035253055
72	0xb9671a18	-0.00022039597
73	0xbc6d69d5	-0.014490564
74	0xbd19e231	-0.03756923
75	0xbdcbe930	-0.09956586
76	0xbd75bb0f	-0.059992846
77	0xbd127ce3	-0.035763633
78	0x3d3d8282	0.04626704
79	0x3ce31cdf	0.027723728
80	0xbd1b7c43	-0.037960302
81	0xb98c2a1e	-0.0002673426
82	0x3d9061e2	0.0704992
83	0xbdb8d301	-0.09024621
84	0x3daa20ac	0.08307013
85	0xba146487	-0.00056607317
86	0xbd7e4eca	-0.062086858
87	0x3cc4f4b8	0.024042472
88	0x3dba49ca	0.090961054
89	0x3d27fa1d	0.04101001
90	0xbd1bef79	-0.038070176
91	0xbd883b88	-0.0665198
92	0x3cfcb54d	0.03084817
93	0xbd9ae074	-0.07562342
94	0x3d215960	0.039391875
95	0xbdc1b007	-0.09457403
96	0x3cc399aa	0.023876984
97	0xbc67f4c3	-0.014157477
98	0x3da1eeb5	0.07906858
99	0xbde4d4c8	-0.11173397
100	0xbda42fca	-0.080169275
101	0x3d4d1219	0.050066087
102	0xbc9f274f	-0.019427923
103	0x3d6b85d9	0.057500694
104	0xbdbf910f	-0.093538396
105	0x3d21b92b	0.03948323
106	0xbc563a91	-0.013075487
107	0x3d688bf6	0.056774102
108	0x3d8f1425	0.06986264
109	0x3ce7a594	0.028277196
110	0xbc5debde	-0.013545005
111	0x3d55833d	0.05212711
112	0x3d98509d	0.07437251
113	0xbd6fd016	-0.058548056
114	0xbdde03a4	-0.10840538
115	0xbbe6e44a	-0.007046257
116	0xbd8b28b6	-0.06794874
117	0xbb9a68e4	-0.004712211
118	0x3c39610f	0.0113146445
119	0x3d7813ea	0.060565867
120	0x3d8a24e9	0.06745321
121	0xbdd0d118	-0.101961315
122	0x3d9aa8f7	0.07551759
123	0xbda3e482	-0.08002569
124	0xbdaa69b3	-0.08320942
125	0xbc9e2541	-0.019304873
126	0x3c3a2c4e	0.011363102
127	0xbd0c6d99	-0.034284208
128	0xbceff3d1	-0.029291065
129	0x3bab1018	0.0052204244
130	0xbc90c558	-0.017672226
131	0xbd91a369	-0.07111246
132	0x3d5ba50b	0.053624194
133	0x3d041606	0.032247566
134	0xbcc80519	-0.024416493
135	0x3cfe27ac	0.031024776
136	0x3d650cda	0.05592046
137	0xbb014f56	-0.0019731126
138	0xbc9c266a	-0.019061286
139	0x3cfbc5de	0.030733999
140	0x3c244aab	0.010027568
141	0x3d8d2376	0.06891529
142	0x3da3224e	0.079655275
143	0xbd8955e4	-0.067058355
144	0xbceccc9e	-0.028906163
145	0xbda112a3	-0.07864883
146	0x3c841682	0.016124014
147	0x3db0443f	0.08606767
148	0x3cea9505	0.028635511
149	0xbbf55fa1	-0.0074882065
150	0xbbf43af4	-0.007453317
151	0x3d747ba5	0.05968823
152	0xbd6ef09d	-0.058334935
153	0x3d24a71f	0.04019844
154	0xbb96c518	-0.004601132
155	0xbc89645b	-0.016771486
156	0xbcfc3e79	-0.030791508
157	0x3d6a09c5	0.057138223
158	0x3d1a22bd	0.037630785
159	0xbc85c059	-0.01632707
160	0xbccb5802	-0.024822239
161	0xbda2985e	-0.07939218
162	0xbd9dce37	-0.07705348
163	0xbcef011d	-0.029175336
164	0xbd5ccf57	-0.053908672
165	0xbbaee5f4	-0.005337471
166	0x3da0bcf8	0.07848543
167	0x3d16d2e4	0.036822215
168	0xbd60ef80	-0.054915905
169	0xbb1b16c5	-0.0023664695
170	0xbd5cf7a2	-0.0539471
171	0xbd48a520	-0.0489856
172	0xbd358f4c	-0.04432611
173	0x3d9b319c	0.075778216
174	0xbd1155bb	-0.03548215
175	0xbd125068	-0.035721213
176	0x3b3adb04	0.002851189
177	0x3b40bd6b	0.0029409777
178	0x3da0b36e	0.078467235
179	0x3cea5537	0.028605087
180	0x3d819407	0.06327062
181	0xbd839c58	-0.064263046
182	0x3d31dba4	0.043422356
183	0xbd94497d	-0.07240579
184	0xbd079d0b	-0.033108752
185	0xbda5065c	-0.080578536
186	0x3c1c0460	0.009522527
187	0x3da58883	0.08082678
188	0xbd9611c4	-0.07327607
189	0xbd2bce13	-0.041944575
190	0x3d9b8e57	0.075955085
191	0xbda383f0	-0.079841495
192	0xbd6592d9	-0.056048248
193	0x3c3cefba	0.011531765
194	0x3cb015bb	0.021494737
195	0x3cca5b43	0.02470172
196	0x3ce5603d	0.027999992
197	0xbd98780a	-0.07444771
198	0xbd7c4d85	-0.061597366
199	0x3d8b4bde	0.0680158
200	0x3da55dd9	0.08074541
201	0x3cb03c97	0.021513266
202	0xbd4f4084	-0.050598636
203	0x3d775253	0.060381245
204	0xbd8627ba	-0.06550546
205	0xbdb3e447	-0.08783775
206	0x3bb091c9	0.0053884727
207	0x3db0f4c6	0.08640437
208	0x3d7bd85f	0.061485644
209	0x3d7ceb27	0.061747696
210	0xbd0e4412	-0.034732886
211	0xbdb68dc7	-0.08913761
212	0x3d9af87b	0.07566925
213	0x3d8123ff	0.06305694
214	0x3d8ece10	0.06972897
215	0xbd9bebcd	-0.07613335
216	0x3dd4d82c	0.10392794
217	0x3d0a9055	0.033829052
218	0x3d914080	0.070923805
219	0x3d952951	0.07283271
220	0xbd0a6bec	-0.03379433
221	0x3db29b5f	0.08721041
222	0xbcd8d2df	-0.026467739
223	0xbd050474	-0.03247495
224	0x3da648dc	0.081193656
225	0x3cda5f03	0.026656633
226	0x3d5e18f3	0.054223012
227	0x3d2cb869	0.042168055
228	0x3d1f1b39	0.03884432
229	0x3d882b2f	0.066488616
230	0x3d8d9541	0.069132335
231	0x3d375743	0.044760954
232	0xbc33c8c5	-0.01097316
233	0xbd059d7e	-0.0326209
234	0x3d341de1	0.043973807
235	0xbda90f52	-0.08254875
236	0xbc876661	-0.01652831
237	0x3d9d161e	0.07670234
238	0xbd79ae00	-0.060956955
239	0xbc1d280a	-0.009592066
240	0xbd44c080	-0.048035145
241	0x3d442e8d	0.047895957
242	0xbd854087	-0.06506448
243	0x3d16319c	0.036668405
244	0xbd2d12f5	-0.042254407
245	0xbda51f88	-0.08062655
246	0xbd2cff20	-0.042235494
247	0xbda134cd	-0.07871399
248	0x3db6ca93	0.08925357
249	0x3d2ca088	0.042145282
250	0x3cd6bcd2	0.026213083
251	0xbd36c9bb	-0.04462598
252	0xbd4f1605	-0.05055811
253	0x3cab0056	0.020874184
254	0xbccd933b	-0.025094619
255	0xbd180d80	-0.03712225

lstm.bias_ih_l0 f4 [512]
0	0xbc978548	-0.01849617
1	0xbd1584fb	-0.036503773
2	0x3c08f6e1	0.008359642
3	0xbd07ea39	-0.033182357
4	0xbcaa062c	-0.020754896
5	0xbb66413f	-0.0035134105
6	0x3d25e63f	0.040502783
7	0x3d08b051	0.033371273
8	0xbc99ad3e	-0.018759366
9	0xbcf183ab	-0.02948173
10	0xba955daa	-0.0011395712
11	0x3d16bd1d	0.036801446
12	0x3d12a507	0.035801914
13	0x3db8d580	0.09025097
14	0x3cbd707a	0.023124922
15	0xba10d2a4	-0.0005524552
16	0xbda4f657	-0.08054798
17	0xbd270f0b	-0.04078583
18	0x3d655103	0.055985462
19	0x3c8d3db9	0.017241346
20	0xbc7e8b03	-0.015536073
21	0x3c685892	0.014181273
22	0x3d421932	0.04738731
23	0x3c3ecc69	0.011645415
24	0xbd58cda8	-0.052930504
25	0x3c33c1e7	0.010971523
26	0xbdf08ba8	-0.11745387
27	0xbca3b7fe	-0.019985195
28	0xbd9b82ae	-0.075932845
29	0xbdafd9bc	-0.085864514
30	0x3da07b3f	0.07836007
31	0x3c92f9d7	0.017941399
32	0x3d97588b	0.07389935
33	0x3da2c1cb	0.07947119
34	0xbdc79d9b	-0.09746858
35	0xbdb155a0	-0.0865891
36	0xbc84c931	-0.016209217
37	0x3dcaa0b0	0.0989393
38	0x3de73428	0.11289245
39	0xbcc7e6ed	-0.024402106
40	0xbcccc936	-0.024998289
41	0xbcb0b027	-0.021568371
42	0x3d63b4dd	0.055592407
43	0xbd0aebb6	-0.033916198
44	0x3d93237a	0.07184501
45	0xbccd043a	-0.02502643
46	0xbd548850	-0.05188781
47	0x3d4a1310	0.049334586
48	0x3d0ed4e6	0.034871005
49	0xbd8dfcb0	-0.06932962
50	0x3d8aa333	0.06769409
51	0x3d6dd7f2	0.05806727
52	0xbc5692f8	-0.0130965635
53	0xbd9e7ce9	-0.077386685
54	0xbcb7c971	-0.022434922
55	0xbd329a5a	-0.043604232
56	0x3d1f2c6f	0.038860735
57	0xbd549396	-0.05189856
58	0xbd3d5dbb	-0.046231966
59	0xbca1b061	-0.019737424
60	0x3ce9f6ee	0.028560128
61	0x3da0c686	0.07850365
62	0x3d8ec777	0.06971639
63	0xbd6fda12	-0.058557577
64	0xbd0902c3	-0.0334499
65	0x3d87f16e	0.06637846
66	0xbd0a7f68	-0.03381291
67	0x3d8ce57b	0.068797074
68	0xbd6b1a93	-0.05739839
69	0xbd8abbd0	-0.06774104
70	0x3c3dd71b	0.01158693
71	0x3d62713f	0.05528378
72	0x3d715c84	0.05892612
73	0x3d206047	0.039154317
74	0x3bc493f7	0.005999084
75	0x3db82490	0.08991349
76	0x3cc350fa	0.023842324
77	0xbd82e942	-0.06392147
78	0xbd188de8	-0.037244707
79	0x3cbcd9dc	0.023053102
80	0xbd3ff656	-0.046865784
81	0xbd71e90f	-0.059060153
82	0xbd8e0c36	-0.06935923
83	0xbd1bd69b	-0.03804646
84	0xb9e77be0	-0.00044152047
85	0x3d331741	0.04372335
86	0xbd40e631	-0.047094528
87	0x3cef2c41	0.029195907
88	0x3d9f4d2e	0.07778393
89	0x3d4c14ae	0.04982441
90	0x3dbbf18a	0.09176929
91	0x3d867e56	0.065670654
92	0xbb141be7	-0.002259964
93	0x3d107d78	0.035275906
94	0xbcc0b10a	-0.023521919
95	0xbcc77de2	-0.024352018
96	0x3c9bf7a2	0.019038979
97	0x3c85de65	0.016341398
98	0x3cc90ffc	0.024543755
99	0xbd696bb5	-0.056987483
100	0xbd0efde6	-0.034910105
101	0xbd1fdaa7	-0.039026882
102	0x3d62178e	0.055198245
103	0xbd891364	-0.066931516
104	0x3cba6267	0.022752
105	0x3d4062c2	0.046969183
106	0x3dc40e02	0.09572984
107	0x3c15fbcb	0.00915427
108	0xbdb524ea	-0.088449314
109	0xbc753701	-0.014966727
110	0x3c8dcfb3	0.017310953
111	0x3d4ef046	0.05052211
112	0xbd97d52c	-0.07413706
113	0xbd4145d1	-0.047185723
114	0xbda63f5f	-0.08117556
115	0xbc97cc89	-0.018530147
116	0xbd30e94f	-0.04319125
117	0xbcf3dd7a	-0.029768694
118	0x3cde4dbd	0.027136678
119	0xbd8647d7	-0.06556671
120	0xbdd26394	-0.10272899
121	0x3d40ffd3	0.047118973
122	0xbd1fd585	-0.039021987
123	0x3d6651b5	0.056230266
124	0xbd88d097	-0.0668041
125	0x3dd2fe46	0.10302405
126	0x3d32d285	0.0436578
127	0xbc89aa2f	-0.016804783
128	0x3d22d46d	0.039753366
129	0xbc528116	-0.012848159
130	0xbd243727	-0.04009166
131	0xbd14324a	-0.036180772
132	0x3d29cfc6	0.041457914
133	0x3d84906a	0.06472857
134	0x3d3274c5	0.04356839
135	0x3d6c353a	0.05766795
136	0x3cca6bbe	0.024709579
137	0xbdb19cd6	-0.08672492
138	0x3d5256ff	0.051352497
139	0x3d103cd2	0.035214253
140	0x3dac9704	0.084272414
141	0x3df8ae2f	0.12142598
142	0xbd71ec3e	-0.05906319
143	0xbca82670	-0.02052614
144	0xbc2a3842	-0.0103893895
145	0xbd0d012c	-0.034424946
146	0x3b3ce65b	0.0028823826
147	0x3d9827a8	0.07429439
148	0xbd83303c	-0.06405684
149	0x3da6428a	0.0811816
150	0xbd1700a7	-0.036865856
151	0x3bb36084	0.005474152
152	0xbdafab9f	-0.08577656
153	0xbd31df3c	-0.043425784
154	0xbcd90bad	-0.026494825
155	0x3bdbb62c	0.006705066
156	0xbd82a38b	-0.063788496
157	0x3ce382b3	0.027772283
158	0x3c20805d	0.009796229
159	0x3d69431c	0.056948766
160	0x3d52d9d0	0.051477253
161	0xbcec9d48	-0.028883591
162	0x3d5cbcec	0.053891107
163	0x3d84a9dc	0.064777106
164	0xbca8727e	-0.020562407
165	0x3d46af09	0.04850677
166	0x3dc320e6	0.09527759
167	0x3d15a661	0.036535624
168	0xbca390d3	-0.019966519
169	0xbb607404	-0.0034248838
170	0x3d07c05a	0.033142425
171	0x3c7e0306	0.0155036505
172	0x3d64d8f9	0.055870984
173	0xbd5be518	-0.053685278
174	0x3cf1b0df	0.029503284
175	0xbd97cad3	-0.074117325
176	0xbd088b47	-0.03333595
177	0xbd937183	-0.07199385
178	0xbc0a9ffc	-0.008460995
179	0xbcedf9a5	-0.029049704
180	0xbd9b034d	-0.07568989
181	0xbc906b82	-0.017629389
182	0x3d101819	0.03517923
183	0xbd018feb	-0.03163139
184	0x3cff5c13	0.031171834
185	0xbc4d2117	-0.012520096
186	0x3db92183	0.09039595
187	0xbb976bb6	-0.0046209944
188	0xbd2e4181	-0.04254294
189	0xbd5eb0be	-0.054367773
190	0x3d957590	0.07297814
191	0x3d3db55a	0.04631553
192	0x3d93f90b	0.072252356
193	0xbb0a7344	-0.0021125833
194	0x3d80d077	0.062897615
195	0xbd8fc38c	-0.070197195
196	0x3cd3c156	0.025849026
197	0x3cf393e2	0.029733602
198	0xbcaff8f5	-0.021481017
199	0x3d022654	0.031774834
200	0xbc9b86f0	-0.018985242
201	0xbd60251c	-0.05472289
202	0x3cc5518d	0.024086738
203	0xbbede0c6	-0.007259461
204	0x3db701d0	0.089358926
205	0xbc5b53ca	-0.013386676
206	0x3d21b25b	0.039476734
207	0x3ce9ca0f	0.028538732
208	0xbd590067	-0.0529789
209	0x3da763af	0.0817331
210	0x3d8736a1	0.066022165
211	0x3d9d9f99	0.076964565
212	0x3c813b7c	0.015775435
213	0xbd309cc1	-0.043118242
214	0x3da04108	0.07824904
215	0xbd2f0615	-0.04273041
216	0x3d56b01f	0.052414056
217	0x3dbabbd8	0.091178596
218	0x3cbed5d7	0.023295326
219	0x3c8c31d1	0.017113598
220	0xbdb0167c	-0.085980386
221	0xbd9e0264	-0.077153
222	0x3d474873	0.048653077
223	0x3d33cde0	0.04389751
224	0xbd9481e4	-0.07251337
225	0x3d3c1928	0.04592243
226	0x3daab508	0.0833531
227	0xbcbef6bc	-0.023311011
228	0x3d8fe14e	0.07025395
229	0xbcf17923	-0.029476708
230	0x3c6c18ea	0.014410237
231	0xbd34d638	-0.044149607
232	0xbda4994d	-0.08037052
233	0x3da7edfe	0.0819969
234	0xbd4d3b2f	-0.05010527
235	0xbd2e6e5c	-0.042585716
236	0x3d798469	0.06091729
237	0x3c9778ff	0.018490313
238	0xbd144461	-0.036198024
239	0xbd86b2eb	-0.06577095
240	0x3d111bf2	0.03542704
241	0x3c0ed3a2	0.008717449
242	0x3d0e9208	0.034807235
243	0x3d9c8989	0.0764342
244	0xbc9e37be	-0.01931369
245	0x3b4e7b23	0.00315065
246	0xbcad7358	-0.021173164
247	0x3d43e39c	0.047824487
248	0xbce62edc	-0.028098516
249	0xbaf3e51e	-0.0018607711
250	0xbd83e9b1	-0.064410575
251	0x3bbe288d	0.005803174
252	0xbdc49b3f	-0.09599923
253	0x3de3e831	0.11128271
254	0xbacdb49f	-0.0015694088
255	0x3d998ad6	0.07497184
