lstm_svd.pt (torch, 400929 bytes, 5 tensors)

lstm.weight_ih_l0 f4 [512, 64]
0	0x3d8df973	0.06932344
1	0x3d9edfff	0.077575676
2	0xbca82f89	-0.020530479
3	0x3d972459	0.0737998
4	0xbd0eb417	-0.034839716
5	0x3a58722f	0.0008256761
6	0xbd746a74	-0.059671834
7	0x3d23cc05	0.03998949
8	0x3d88b40e	0.06674968
9	0xbd9d2fa7	-0.076751046
10	0x3d8cfa7f	0.06883716
11	0x3bd6afff	0.006551742
12	0x3d4618fd	0.048363674
13	0xba3916c3	-0.00070605817
14	0x3ce77669	0.028254705
15	0xbcf774cc	-0.03020706
16	0x3d4f5204	0.050615326
17	0xbba83bf1	-0.0051340987
18	0xbd7688ca	-0.060189046
19	0x3befe5ca	0.007321094
20	0xbd641cc0	-0.05569148
21	0xbcbdb969	-0.0231597
22	0xbd3edce8	-0.04659739
23	0x3d4239d7	0.04741844
24	0xbda193ff	-0.07889556
25	0xbd390ff5	-0.045181233
26	0xbcff090b	-0.031132242
27	0xbd7ed40a	-0.062213935
28	0xbb83f8b0	-0.0040274486
29	0xbdc2766c	-0.094952434
30	0x3d962adf	0.07332396
31	0xbda51f60	-0.08062625
32	0x3d88ca9d	0.066792704
33	0x3ca63683	0.020289665
34	0xbcb9d39e	-0.022683915
35	0x3d7d18b5	0.06179114
36	0x3c7bef18	0.015376829
37	0x3d90e657	0.07075184
38	0x3c5d6d26	0.013514793
39	0xbcec7179	-0.028862702
40	0x3cb09357	0.021554632
41	0xbcf27a38	-0.029599294
42	0x3cd8a8d0	0.026447684
43	0x3d8423b9	0.06452126
44	0x3d066d70	0.03281921
45	0xbd718d15	-0.058972437
46	0x3d03d828	0.032188565
47	0xbbc99a8d	-0.006152457
48	0x3cc0954f	0.023508696
49	0xbd8e4c82	-0.069481865
50	0xbdc6629c	-0.09686777
51	0xbd30dfe1	-0.043182258
52	0xbda176e2	-0.07884003
53	0x3d80a1ad	0.06280837
54	0x3ca0a9cd	0.019612217
55	0x3cd60649	0.026126044
56	0x3b966361	0.0045894836
57	0xbd1ab0f5	-0.037766416
58	0x3cbd95dd	0.02314275
59	0xbdf57a2c	-0.11986193
60	0xbd76d90b	-0.060265582
61	0xbe09005f	-0.13379048
62	0xbd55c7b9	-0.052192423
63	0xbdebe558	-0.11518353
64	0x3c9487ba	0.018131126
65	0xbcc825d3	-0.024432098
66	0x3d833e44	0.064083606
67	0xbd8b37f1	-0.06797779
68	0xbd992143	-0.07477047
69	0xbd99fa9a	-0.075185016
70	0x3d67c190	0.05658108
71	0x3c311648	0.010808535
72	0x3d8a47f3	0.067520045
73	0xbdbb3a9e	-0.0914204
74	0xbdd2f911	-0.10301412
75	0xbdafca72	-0.08583535
76	0xbda74779	-0.08167929
77	0x3c837e0e	0.016051318
78	0x3c139dcd	0.009009791
79	0x3d460744	0.048346773
80	0xbd9005dd	-0.07032368
81	0xbdace4ce	-0.084420785
82	0x3caa4671	0.020785542
83	0xbd6ca5ba	-0.057775237
84	0x3cffa8bc	0.031208389
85	0xbd2f0b81	-0.04273558
86	0x3cfbe4c9	0.030748742
87	0xbdb5205c	-0.08844063
88	0xbd7d7535	-0.061879355
89	0x3c671d7d	0.014106152
90	0x3b3fe1a4	0.002927878
91	0xbd23cf46	-0.039992593
92	0x3d002add	0.031290878
93	0x3d2e6562	0.042577155
94	0xbda477fe	-0.08030699
95	0xbd81452d	-0.06312022
96	0x3d8d289e	0.06892513
97	0xbd11fbb2	-0.035640426
98	0xbd1cf6b6	-0.03832122
99	0xbdbbf1fb	-0.091770135
100	0xbd7d7aa2	-0.06188453
101	0x3c1a64a5	0.00942341
102	0xbca5f3c1	-0.020257832
103	0xbd9f03e9	-0.07764418
104	0xbc4e8343	-0.012604537
105	0xbda234bc	-0.079202145
106	0xbdca7fa1	-0.098876245
107	0xbd9c9fc5	-0.07647661
108	0xbddf5268	-0.109043896
109	0xbdb769e6	-0.089557454
110	0x3d661954	0.0561765
111	0xbc95bcf2	-0.018278573
112	0xbbee4baa	-0.0072722035
113	0xbde51a03	-0.11186602
114	0xbda95514	-0.082681805
115	0xbd5d6826	-0.0540544
116	0xbc56ffa3	-0.013122472
117	0xbdd2c9d4	-0.10292402
118	0xbd751691	-0.059835974
119	0xbda0ec23	-0.078575395
120	0xbd182eaf	-0.037153896
121	0xbda74486	-0.08167367
122	0xbd815557	-0.063151054
123	0xbe01d4aa	-0.12678781
124	0xbe0a89a2	-0.13529065
125	0xbe0767c1	-0.13223173
126	0xbded8971	-0.115984805
127	0xbe2251db	-0.15851538
128	0x3d892ba6	0.066977784
129	0xbcb9a39c	-0.022661023
130	0x3d8b738a	0.06809147
131	0x3c59db43	0.013296905
132	0xbdc134e1	-0.09433914
133	0x3d2c5e42	0.04208208
134	0xbd31adb3	-0.043378543
135	0xbd49e626	-0.049291752
136	0xbdb62533	-0.08893814
137	0xbdd57e08	-0.10424429
138	0x3c40f7a8	0.011777796
139	0xbd0aab76	-0.033854924
140	0x3c6bb14f	0.014385535
141	0xbdb8450b	-0.08997544
142	0x3d4144eb	0.047184866
143	0xbdae8e18	-0.08523196
144	0xbd117a96	-0.035517298
145	0xbaf17b36	-0.001842356
146	0x3cc0b95e	0.02352589
147	0x3d5ad860	0.053429008
148	0x3d7d8343	0.06189276
149	0xbdb2eb1f	-0.08736252
150	0x3bfc7c50	0.007705249
151	0xbd5a417a	-0.0532851
152	0xbcbd1d86	-0.023085367
153	0xbd9b48ee	-0.075822696
154	0x3d8c2966	0.068438336
155	0xbd9f845e	-0.07788919
156	0x3cfa2f67	0.030540181
157	0x3c95db94	0.01829318
158	0x3c89e1f9	0.016831385
159	0xbd73aff3	-0.05949397
160	0x3d943cd1	0.07238162
161	0x3c8780f1	0.016540976
162	0x3be970c2	0.0071240375
163	0xbda53f4d	-0.08068714
164	0x3cf0e2a5	0.029404948
165	0xbcb35ef2	-0.02189586
166	0xbd3b7c4b	-0.045772832
167	0x3d878750	0.06617606
168	0x3c1d2033	0.009590196
169	0xbd7eaafc	-0.062174782
170	0xbd7b4e6e	-0.061354093
171	0xbcc31d85	-0.023817787
172	0x3cda7cf2	0.026670907
173	0xbd3c8717	-0.04602727
174	0xbd940c34	-0.0722889
175	0xbd5ed98f	-0.0544067
176	0xbdb721c1	-0.08941985
177	0x3c4da495	0.012551446
178	0x3d595a4e	0.053064637
179	0xbdcca351	-0.09992088
180	0x3a1388f1	0.0005628011
181	0x3cd92d9a	0.026511002
182	0xbaa79596	-0.0012785669
183	0xbd576415	-0.05258568
184	0x3c81aa05	0.015828142
185	0x3bf42a2d	0.007451317
186	0xbc493724	-0.012281213
187	0xbd8c5cba	-0.06853624
188	0xbda9dd90	-0.08294213
189	0xbd64073a	-0.055670954
190	0xbdaf255f	-0.0855205
191	0xbdc93410	-0.09824383
192	0x3d585af4	0.052821115
193	0x3d96e652	0.07368149
194	0xbc04fe57	-0.00811728
195	0xbc78526a	-0.015156368
196	0x3c73c806	0.014879232
197	0x3c462f23	0.012096199
198	0x3d24bc9b	0.04021893
199	0x3d28b2d0	0.041186154
200	0xbd8bab7e	-0.06819819
201	0xbca0e05b	-0.019638231
202	0x3dadf0e3	0.08493211
203	0x3d35cefb	0.044386845
204	0x3c0f9eac	0.008765858
205	0xbd216d9c	-0.039411172
206	0xbd19c7d1	-0.037544075
207	0xbd7e2f6a	-0.062056936
208	0xbc533ae8	-0.012892462
209	0x3d35aa48	0.044351846
210	0x3d93f7b4	0.0722498
211	0x3d5ffbe0	0.054683566
212	0xbd85568a	-0.06510647
213	0xbd28bcd6	-0.041195713
214	0xbb931800	-0.004488945
215	0x3dc2d83d	0.095139004
216	0x3caed64a	0.021342415
217	0xbc8f91d4	-0.017525591
218	0x3d309c35	0.04311772
219	0xbcd1dea4	-0.025618859
220	0xbd449038	-0.0479891
221	0x3d91de7f	0.07122516
222	0xbd0b172b	-0.03395764
223	0xbc37417e	-0.011185048
224	0xbdad6a0d	-0.08467493
225	0x3d6d024e	0.057863526
226	0x3d865c4d	0.06560574
227	0x3cf5d765	0.030009935
228	0xbd768a36	-0.060190402
229	0xbdaf1d5d	-0.085505225
230	0xbd9293e5	-0.07157115
231	0x3d90968a	0.07059963
232	0x3d3f0c79	0.046642754
233	0x3da60084	0.08105567
234	0x3d66bbae	0.05633133
235	0x3d0fa06c	0.0350651
236	0x3c6f0b0c	0.014590036
237	0xbd51cea1	-0.051222447
238	0xbd741ca3	-0.059597623
239	0xbd81df24	-0.06341389
240	0x3d5f0a1e	0.054453008
241	0xbce8af3b	-0.028403869
242	0xbbe31e18	-0.0069310777
243	0xbd303de3	-0.04302777
244	0xbc11a7f0	-0.008890137
245	0xbd643317	-0.055712786
246	0xbd56d5a4	-0.052449837
247	0x3d1b551b	0.03792296
248	0xbc2021f8	-0.009773724
249	0x3da0cccb	0.07851561
250	0x3b03d907	0.0020118372
251	0xbcd27349	-0.025689738
252	0x3cfcb088	0.030845895
253	0x3c0daa06	0.008646494
254	0x3ceb5e1a	0.028731395
255	0xbcb9e9f7	-0.022694571

lstm.weight_hh_l0 f4 [512, 128]
0	0xbbf52f09	-0.0074824137
1	0xbd644560	-0.055730224
2	0x3b09174f	0.0020918434
3	0x3d0dbf83	0.034606468
4	0xbd1147d2	-0.035468884
5	0x3d80e4b0	0.06293619
6	0xbda5459a	-0.08069916
7	0xbc35f0cb	-0.011104773
8	0xbd2dd5ad	-0.042440105
9	0xbcda805d	-0.026672537
10	0x3b0ccc61	0.0021484124
11	0x3db6a712	0.08918585
12	0xbd476d68	-0.048688322
13	0xbdbe61bd	-0.09295986
14	0xbd912fa7	-0.07089167
15	0xbd4f4768	-0.050605208
16	0x3d858dc8	0.06521183
17	0x3cd5889d	0.026066119
18	0xbd4f4f8b	-0.050612967
19	0xbca190e0	-0.019722402
20	0x3d27c2d8	0.0409573
21	0x3bc97024	0.0061474014
22	0x3c8f3a21	0.017483773
23	0xbd9ced45	-0.07662443
24	0xbbe06598	-0.0068480484
25	0xbd8120c6	-0.06305079
26	0xbc2088ee	-0.009798272
27	0x3b6f132f	0.003647994
28	0x3c4a1dcd	0.012336207
29	0xbdb07034	-0.08615151
30	0x3c059385	0.008152847
31	0x3da01f8e	0.078185186
32	0x3dc903c4	0.09815171
33	0x3bc12369	0.005894114
34	0x3b88908c	0.004167622
35	0xbcd62360	-0.026139915
36	0xbd02da84	-0.031946674
37	0x3cfb2a95	0.030659953
38	0xbd65ac7f	-0.05607271
39	0xbb3ba5b5	-0.0028632705
40	0xbdb48ca4	-0.088158876
41	0xbce81453	-0.028330004
42	0xbd38f7f6	-0.04515835
43	0x3b94508b	0.004526203
44	0xbd5bf861	-0.05370367
45	0xbd486bf3	-0.048931073
46	0xbdae4208	-0.08508688
47	0xbd61a263	-0.055086505
48	0xbdc0de75	-0.0941743
49	0xbcf81642	-0.03028405
50	0xbcf7e7ac	-0.030261837
51	0x3da05d7f	0.07830333
52	0x3cbb7aac	0.022885643
53	0xbdacc49c	-0.08435938
54	0x3d71a013	0.05899055
55	0xbd0b4db9	-0.03400967
56	0xbd79c085	-0.060974617
57	0x3c1d167b	0.009587879
58	0xbd395248	-0.045244485
59	0x3c94e9e6	0.018177938
60	0x3be5d053	0.0070133596
61	0xbc6fb067	-0.01462946
62	0xbdc700bb	-0.09716936
63	0xbc989d4f	-0.018629698
64	0x3d08122a	0.033220448
65	0x3d916310	0.07098973
66	0xbc3f54e4	-0.011677954
67	0x3d453be4	0.04815282
68	0x3cf4c292	0.029877935
69	0x3d770a34	0.060312465
70	0xbc2a33d3	-0.010388332
71	0xbc0a820a	-0.008453855
72	0x3c8dd56c	0.017313682
73	0xbda5d8a8	-0.080979645
74	0x3dcf4f4d	0.10122547
75	0x3d9674fe	0.07346533
76	0x3cae129e	0.021249112
77	0xbd7c03d2	-0.06152708
78	0x3d98bcb0	0.07457864
79	0x3dce35d0	0.10068858
80	0xbc0b2d21	-0.008494646
81	0x3cb24c17	0.021764798
82	0x3d72fe3e	0.059324495
83	0xbd624a3f	-0.055246588
84	0x3d832def	0.064052455
85	0xbd0000c8	-0.031250745
86	0xbd41334c	-0.04716806
87	0xbba3fffd	-0.0050048814
88	0x3bdb746d	0.0066972286
89	0x3bd130d1	0.006383993
90	0x3d8ba39f	0.068183176
91	0xbdad42a4	-0.08459976
92	0x3b5d7aa0	0.0033795014
93	0xbcaf872b	-0.021426758
94	0xbd8c62c8	-0.068547785
95	0xbd5ad6f6	-0.05342766
96	0xbca5961c	-0.02021318
97	0xbc6a0c34	-0.014285136
98	0xbc2ed522	-0.010670932
99	0xbca675f1	-0.02031991
100	0x3d97ebbf	0.07418012
101	0x3c69ad0e	0.014262451
102	0xbd8076e9	-0.0627268
103	0xbc5a74dd	-0.013333526
104	0xbd7d687b	-0.06186722
105	0x3d08f54f	0.03343707
106	0xbd71f9b2	-0.05907602
107	0x3d5f7d22	0.054562695
108	0x3d7c4bf9	0.06159589
109	0xbba5ca5e	-0.0050595244
110	0x3afe4b67	0.0019401134
111	0xbc94f0b0	-0.018181175
112	0xbd59c338	-0.05316469
113	0xbd95fcac	-0.07323584
114	0xbd43ee77	-0.04783484
115	0x3dd37e22	0.10326792
116	0xbd50e3f8	-0.050998658
117	0x3d756dfc	0.059919342
118	0xbbe3b1c2	-0.0069486806
119	0x3c927e60	0.017882526
120	0x3d5efd03	0.05444051
121	0x3d206143	0.039155256
122	0xbd6e66ab	-0.05820338
123	0xbbf721d6	-0.0075418754
124	0x3d1fd79b	0.039023977
125	0x3cf2aa45	0.029622206
126	0xbc98650f	-0.018602876
127	0x3d80c14b	0.06286868
128	0xbdac3dcf	-0.084102266
129	0x3d2d4f5f	0.042312022
130	0x3bc0af88	0.0058803
131	0x3db0ae2c	0.08626971
132	0x3cdba96b	0.026814183
133	0xbc9de3ca	-0.019273657
134	0xbcb9524d	-0.022622252
135	0xbdcf2168	-0.101137936
136	0xbbf77401	-0.0075516705
137	0xbb065f55	-0.00205036
138	0x3d8a87c7	0.06764179
139	0x3d87ef44	0.06637433
140	0xbdae5d98	-0.08513945
141	0x3dad851b	0.084726535
142	0xbdc9265c	-0.098217696
143	0x3bb7f2ef	0.0056136767
144	0x3d4f8607	0.050664928
145	0x3d64e35c	0.05588089
146	0x3da97af0	0.082754016
147	0xbd0e4c4e	-0.03474074
148	0x3da51caa	0.08062108
149	0x3cba8e18	0.022772834
150	0x3c95fb17	0.018308206
151	0xbd66df0d	-0.05636506
152	0xbdae3a1b	-0.085071765
153	0xbb9e7520	-0.0048357397
154	0xbc85acfe	-0.01631784
155	0xbae71210	-0.0017629284
156	0xbccd441f	-0.025056897
157	0xbcb11b50	-0.021619469
158	0x3d026fed	0.031845022
159	0xbc994436	-0.018709283
160	0x3c9cc9cc	0.019139193
161	0xbd726f9b	-0.059188467
162	0xbd2a961c	-0.04164706
163	0x3d873eda	0.06603785
164	0xbc23dc26	-0.010001218
165	0x3d7813bf	0.060565706
166	0xbc8c6738	-0.017139062
167	0xbcf0a48f	-0.029375343
168	0x3cc2e631	0.023791404
169	0xbd6b1c9c	-0.05740033
170	0x3d53effb	0.051742535
171	0x3da8e1a8	0.082461655
172	0x3d5b37bc	0.05351995
173	0xbcd0e0a1	-0.025497736
174	0xbd14f29d	-0.036364187
175	0xbd19af2d	-0.037520576
176	0x3d5cd161	0.053910617
177	0x3db5d407	0.08878332
178	0x3c47df24	0.012199197
179	0xbd29f855	-0.041496594
180	0x3d8aa9b7	0.06770652
181	0xbd49e404	-0.04928972
182	0x3d3e92aa	0.04652659
183	0x3d8690e4	0.065706044
184	0xbdc851e5	-0.09781245
185	0xbdcce376	-0.10004322
186	0xbd96cdae	-0.07363449
187	0xbd037b96	-0.032100283
188	0x3d79420f	0.060854014
189	0xbdc76a38	-0.097370565
190	0x3d98fd2d	0.074701644
191	0xbdad8767	-0.084730916
192	0x3a79a11a	0.0009522602
193	0x3cc89276	0.0244839
194	0xbd839b47	-0.06426101
195	0x3b675b93	0.0035302385
196	0xbda207bf	-0.07911634
197	0xbd8eddfe	-0.069759354
198	0x3cac5f9e	0.021041688
199	0xbd9a768e	-0.07542144
200	0x3da6f89c	0.08152887
201	0xbd798ddb	-0.0609263
202	0x3d3410e4	0.04396142
203	0x3da0d266	0.0785263
204	0xbcdde0ff	-0.027084826
205	0x3b2d066f	0.002640154
206	0x3c514e16	0.012774965
207	0xbccbac04	-0.024862297
208	0x3c94a239	0.01814376
209	0xbbecfbd6	-0.0072321696
210	0xbd17351b	-0.03691588
211	0xbd8b9855	-0.068161644
212	0x3d4dbbc9	0.050227914
213	0xbd92e630	-0.07172811
214	0xbcb26574	-0.021776892
215	0x3c952a5f	0.01820868
216	0xbdc4ddd4	-0.09612623
217	0x3c045c8b	0.008078705
218	0x3de990ba	0.114045575
219	0x3ad9c444	0.0016614278
220	0x3da0412f	0.07824933
221	0xbdbc1122	-0.09182955
222	0x3d0c9807	0.034324672
223	0xbb83e8c7	-0.004025552
224	0x3cef1454	0.029184498
225	0xbc70ceab	-0.014697711
226	0xbccdd0a3	-0.0251239
227	0x3d8e4090	0.06945908
228	0x3d36190e	0.044457488
229	0xbdb1c43f	-0.08680009
230	0x3d381bfe	0.04494857
231	0x3da1a886	0.078934714
232	0xbb4fa4c3	-0.00316839
233	0xbb5d80f3	-0.0033798784
234	0x3cb40be5	0.021978328
235	0xbdacd6c3	-0.084394
236	0x3d6a8615	0.057256777
237	0x3de0cb05	0.10976223
238	0xbd367fe1	-0.04455555
239	0xbdb3b917	-0.087755375
240	0xbcd627e4	-0.026142068
241	0x3d1936e8	0.03740588
242	0xbb83c264	-0.004020976
243	0xbaac0725	-0.0013124688
244	0x3c822fc2	0.015891913
245	0x3d1a26b9	0.037634585
246	0x3d652155	0.05593999
247	0xbc6093d5	-0.013707121
248	0xbdc94878	-0.098282754
249	0x3cee619a	0.029099274
250	0x3d985d26	0.07439642
251	0xbb999452	-0.0046868706
252	0xbd1c4b77	-0.038157906
253	0xbc6c5338	-0.014424138
254	0x3ce3014e	0.027710583
255	0x3d1dfcb0	0.03857106

lstm.bias_ih_l0 f4 [512]
0	0x3d4a246b	0.049351137
1	0xbc719b4f	-0.014746501
2	0xbd04b00a	-0.032394446
3	0xbc167259	-0.009182536
4	0x3b41486e	0.0029492634
5	0x3d970f38	0.073759496
6	0x3dac2e0e	0.08407222
7	0xbd99e502	-0.07514383
8	0xbd9e5f87	-0.07733064
9	0xbce1826e	-0.027528014
10	0xbd7861c2	-0.060640104
11	0xbd2a3192	-0.04155118
12	0x3d8ca180	0.06866741
13	0xbdce4a85	-0.10072807
14	0x3d97bc3f	0.07408952
15	0xbd12f9c8	-0.03588274
16	0x3d9d14ff	0.0767002
17	0x3d8624e5	0.06550006
18	0xbccd9851	-0.025097044
19	0x3d8190ff	0.06326484
20	0xb98e7c56	-0.00027176988
21	0x3da3b799	0.07994003
22	0x3d92b41b	0.07163259
23	0xbd459446	-0.048237108
24	0x3dcb37d3	0.09922757
25	0xbd6fe672	-0.05856938
26	0x3da57f4f	0.08080923
27	0x3d73f7d7	0.05956253
28	0x3dbc702e	0.09201084
29	0xbc85652c	-0.016283594
30	0xbc474448	-0.012162276
31	0x3c4b209f	0.012397914
32	0xbd2e342f	-0.042530235
33	0x3d011f63	0.031524073
34	0xbca78cf4	-0.020452954
35	0x3d516e48	0.051130563
36	0xbbeeaecc	-0.007284021
37	0x3d5413f5	0.051776845
38	0xbdb48305	-0.088140525
39	0xbd96d279	-0.07364363
40	0x3d89d229	0.06729538
41	0xbda1d85c	-0.079025954
42	0x3d7a6245	0.061128873
43	0x3d8ef37b	0.06980034
44	0xbd6ecf6e	-0.05830329
45	0x3d3c5cf9	0.045987103
46	0x3cee020e	0.029053714
47	0x3d38710a	0.045029677
48	0xbcdd8ed8	-0.027045652
49	0x3dbf5db7	0.093440466
50	0x3deb77a6	0.114974305
51	0xbd3b1f5c	-0.045684204
52	0x3c18bfc3	0.009323063
53	0x3d32b796	0.043632112
54	0xbd20fd97	-0.039304342
55	0x3d0258e3	0.03182305
56	0x3c85f821	0.016353669
57	0xbc2adda0	-0.010428816
58	0xbd785bd8	-0.060634464
59	0x3c9be7b3	0.019031381
60	0xbc382ff5	-0.011241903
61	0xbd53e856	-0.051735245
62	0xbbbb556f	-0.0057169716
63	0xbd3a9a9c	-0.045557603
64	0x3d91785a	0.07103033
65	0xbd1fa97d	-0.038979996
66	0xbdb8e8d3	-0.09028783
67	0xbdcbc3fb	-0.0994949
68	0xbd0eb7f4	-0.0348434
69	0x3dabcfca	0.08389242
70	0xbd8701e9	-0.06592161
71	0x3dbee94a	0.0932184
72	0x3aa76180	0.0012770146
73	0x3d5f5a72	0.054529615
74	0x3c8b20ef	0.016983477
75	0xbd606e78	-0.05479285
76	0x3dc3d3f4	0.09561911
77	0x3d1d46dc	0.038397655
78	0xbd4a0737	-0.049323287
79	0x3bb0bc8d	0.0053935708
80	0x3dc4a8d2	0.096025124
81	0xbd3c143b	-0.04591773
82	0xbd864af2	-0.065572634
83	0x3c3bc031	0.011459396
84	0x3c4b2108	0.012398012
85	0xbbab648b	-0.0052304915
86	0xbdb3de29	-0.08782608
87	0xbd8dff73	-0.06933489
88	0xbcac3bed	-0.021024669
89	0xbda04091	-0.07824815
90	0x3d94a515	0.072580494
91	0xbd36fc84	-0.04467441
92	0xbd879905	-0.06620983
93	0xbcc8bd00	-0.024504185
94	0x3d04ae59	0.032392833
95	0x3b674a9d	0.0035292276
96	0x3cf21b40	0.02955401
97	0xbd63b6b0	-0.055594146
98	0xbd90cb6f	-0.07070052
99	0x3d8f0da7	0.06985026
100	0x3dac245e	0.08405374
101	0xbd5f9d5c	-0.05459343
102	0xbd3186c4	-0.043341413
103	0xbccff629	-0.025385933
104	0xbced188d	-0.02894237
105	0xbd5fca68	-0.05463639
106	0x3d15505a	0.036453582
107	0x3b68cef8	0.0035523754
108	0xbcb06b7a	-0.021535624
109	0x3d223e16	0.03960999
110	0x3d95f3e0	0.07321906
111	0xbc3f93d2	-0.011692958
112	0xbd62c880	-0.055366993
113	0xbd23805d	-0.03991734
114	0xbd359274	-0.04432912
115	0xbd47d16d	-0.04878371
116	0xbda4e63b	-0.080517255
117	0xbd396ede	-0.045271747
118	0xbd529c35	-0.051418502
119	0x3d576e76	0.052595578
120	0x3c82913b	0.015938392
121	0xbd6ef36a	-0.058337606
122	0x3dae4705	0.0850964
123	0xbd11c826	-0.035591267
124	0xbd521603	-0.051290523
125	0x3d2ecc55	0.042675335
126	0xbc391465	-0.011296366
127	0x3cfbd4ab	0.030741056
128	0x3db66eca	0.0890785
129	0x3d18897b	0.037240487
130	0xbca9368c	-0.020655893
131	0x3c7db66b	0.015485386
132	0x3d421f87	0.047393348
133	0x3d24693e	0.04013943
134	0x3cb672a1	0.022271456
135	0xbd7c92d2	-0.061663456
136	0xbaab4a9b	-0.0013068499
137	0x3e0725c1	0.13197996
138	0xbd77f8c6	-0.060539983
139	0xbd507036	-0.050888263
140	0x3dbb05b6	0.09131949
141	0xbda010c5	-0.078156985
142	0x3d7d88aa	0.06189791
143	0x3d9d0359	0.07666654
144	0x3d72ec8e	0.059307627
145	0x3bae55f4	0.005320305
146	0x3d7d61c5	0.06186082
147	0xbb1e36da	-0.002414158
148	0x3da64906	0.08119397
149	0xbda4f015	-0.080536045
150	0xbd3f15cb	-0.046651643
151	0x3cbc51b1	0.022988172
152	0x3d871a2e	0.0659679
153	0x3d1ac7c2	0.03778816
154	0x3d67db05	0.056605358
155	0xbdaedfbd	-0.085387684
156	0x3da76e37	0.08175319
157	0xbd89b820	-0.06724572
158	0x3dd6a597	0.104808025
159	0xbd5db1d0	-0.054124653
160	0xbc9aa815	-0.018878976
161	0x3d51691e	0.05112564
162	0xbc94272e	-0.018085089
163	0x3dbc4a3c	0.091938466
164	0xbd75d293	-0.060015272
165	0xbdb0cb0a	-0.08632477
166	0xbdd48790	-0.10377419
167	0x3d860fc3	0.06545975
168	0x3d17ad19	0.037030313
169	0xbc209fc5	-0.009803717
170	0xbd50d287	-0.050982025
171	0x3d4eb545	0.05046584
172	0x3d1b178b	0.03786425
173	0xbc4acb9d	-0.012377647
174	0x3d46d817	0.048545923
175	0xbddaabe2	-0.10677315
176	0xbd349fd5	-0.04409774
177	0x3dd2a7ff	0.10285949
178	0xbc7345b5	-0.014848162
179	0x3d90f419	0.07077808
180	0x3d5f532b	0.054522675
181	0xbd4a29e8	-0.04935637
182	0xbd46232a	-0.04837338
183	0xbd028fb1	-0.031875316
184	0x3d2be458	0.041965812
185	0xbc8d7f5b	-0.017272642
186	0xbcae4210	-0.021271735
187	0x3c564d38	0.013079934
188	0x3d6885a6	0.056768082
189	0xbd8c0713	-0.06837287
190	0x3d158645	0.036505003
191	0x3d4c9011	0.04994208
192	0xbbbbf90f	-0.005736477
193	0xbc05f056	-0.008174976
194	0xbda714c0	-0.081582546
195	0xbd8001cf	-0.06250345
196	0xbd0cdcbc	-0.034390196
197	0xbc2ca1e2	-0.010536643
198	0x3d90724f	0.07053053
199	0xbcb3ce18	-0.02194886
200	0xbd6df4ec	-0.058094904
201	0x3be88fb2	0.007097208
202	0x3cb5d349	0.022195475
203	0x3dc4554b	0.09586581
204	0x3da6f189	0.08151538
205	0xbd568c62	-0.052379973
206	0xbda469e6	-0.08028011
207	0xbb9f4292	-0.0048602307
208	0x3d9d6cca	0.076867655
209	0x3d9ea969	0.07747156
210	0x3b60e81b	0.0034318033
211	0x3d6c0e79	0.05763099
212	0x3da7f327	0.082006745
213	0x3d102b1f	0.035197373
214	0x3c3a7a05	0.011381631
215	0xbd8a2346	-0.06745009
216	0x3b383b75	0.002811161
217	0xbd509f86	-0.050933383
218	0xbd7298a9	-0.05922762
219	0xbd97d75e	-0.07414125
220	0xbd634e50	-0.055494606
221	0x3d9f12b8	0.07767242
222	0xbc4f628d	-0.012657774
223	0x3c8c3565	0.017115304
224	0x3d0ecfc7	0.03486612
225	0xbd9eb919	-0.07750148
226	0xbcb688d5	-0.022282043
227	0xba065f9a	-0.000512594
228	0xbd377892	-0.04479272
229	0xbc60736d	-0.013699395
230	0xbd2565f5	-0.040380437
231	0x3b89489e	0.004189565
232	0x3d01bddd	0.03167521
233	0x3db9fe54	0.09081712
234	0xbd60c57d	-0.05487584
235	0xbda622f0	-0.081121325
236	0x3d915227	0.070957474
237	0xbd2e13c4	-0.04249932
238	0x3d404760	0.04694307
239	0x3d5495b1	0.05190057
240	0xbd762411	-0.06009299
241	0x3d99b2d1	0.0750481
242	0xbdb1b3d1	-0.086768754
243	0xbc3fb0c4	-0.011699859
244	0x3d56ac73	0.052410554
245	0xbd7997c7	-0.06093576
246	0xbcd9e4d3	-0.02659837
247	0x3d95e605	0.07319263
248	0x3cd5ac04	0.026083
249	0x3bc536ab	0.00601848
250	0xbd74e5e6	-0.05978956
251	0x3d2819f3	0.041040372
252	0x3b963e77	0.004585083
253	0x3d21fecb	0.03954963
254	0x3dc28eeb	0.09499916
255	0xbcfff8a7	-0.031246496

lstm.bias_hh_l0 f4 [512]
0	0x3d2d025a	0.04223857
1	0x3d13e8af	0.036110576
2	0x3b5722bb	0.0032827097
3	0xbd68e4f7	-0.056858983
4	0x3d45dfa2	0.048308976
5	0xbd790655	-0.060797054
6	0x3d8af33c	0.067846745
7	0x3cafbe0f	0.021452932
8	0x3d509f72	0.05093331
9	0xbc4b1414	-0.012394924
10	0xbda822d3	-0.08209767
11	0xbd7b98f1	-0.061425153
12	0xbc56143a	-0.013066346
13	0x3b7baa7c	0.0038401177
14	0x3b5f78c7	0.0034099089
15	0xbcaea1fa	-0.02131747
16	0x3c8c7f3f	0.01715052
17	0x3cd2164e	0.025645401
18	0xbd96b55a	-0.07358809
19	0xbd93f803	-0.07225039
20	0x3d137c63	0.036007296
21	0x3cc94c0c	0.024572395
22	0xb906095a	-0.0001278272
23	0xbcead365	-0.028665254
24	0xbd8a74ac	-0.06760535
25	0xbbabc562	-0.0052420357
26	0x3d8e61b4	0.06952229
27	0xbdafdbfe	-0.08586882
28	0x3d8f88a1	0.07008482
29	0xbd1cde82	-0.038298137
30	0x3d741b74	0.059596494
31	0xbb97191d	-0.004611148
32	0xbd73492b	-0.05939595
33	0x3d178ee9	0.037001524
34	0x3c1635e8	0.009168126
35	0xbd700955	-0.05860265
36	0x3d8d8316	0.06909768
37	0xbd1ca101	-0.038239483
38	0x3cc34aed	0.023839438
39	0xbdcba30b	-0.09943207
40	0xbd3d0282	-0.04614497
41	0x3daa0968	0.08302575
42	0xbaf6d5e4	-0.0018832055
43	0xbdbd4f4f	-0.092436425
44	0xbd95da5f	-0.073170416
45	0x3af13325	0.0018402083
46	0xbdc1c901	-0.094621666
47	0x3d7c1ba1	0.061549786
48	0x3d7ac2bd	0.061220873
49	0x3cb9ed96	0.022696298
50	0xbd63b125	-0.05558886
51	0xbd92cfa2	-0.07168509
52	0xbd42fab8	-0.047602385
53	0xbde2cb04	-0.110738784
54	0x3d6aa9c8	0.057290822
55	0x3c3c5411	0.011494652
56	0xbc0d5712	-0.008626716
57	0xbc285a9a	-0.010275507
58	0x3c8185c0	0.015810847
59	0x3ca326dc	0.01991599
60	0x3d069673	0.032858323
61	0xbbf4ca6a	-0.0074704187
62	0x3b7946cb	0.003803658
63	0x3d5b3225	0.05351462
64	0xbc89a443	-0.016801959
65	0xbc95f575	-0.01830552
66	0xbd11145a	-0.0354198
67	0xbdbc98e7	-0.09208851
68	0xbd4dc301	-0.0502348
69	0x3d8eae5c	0.0696685
70	0x3dc57c5d	0.09642861
71	0xbd24e3ef	-0.040256437
72	0x3d16a9de	0.03678309
73	0x3cf6f799	0.03014736
74	0xbda18f0b	-0.078886114
75	0xbc3a52ed	-0.01137231
76	0x3d3eabc9	0.046550546
77	0x3ca1ad61	0.019735994
78	0xbc46e8d8	-0.012140475
79	0x3d9a02af	0.07520043
80	0xbadba560	-0.001675766
81	0x3d3408a3	0.04395355
82	0x3d9f7140	0.077852726
83	0x3d8c1e6c	0.0684174
84	0x3b85a863	0.004078911
85	0x3d1822da	0.037142612
86	0xbdbc76a6	-0.09202318
87	0x3d3f7247	0.046739843
88	0x3ad500bb	0.0016250828
89	0x3d5026ff	0.05081844
90	0xbcbc2f39	-0.022971736
91	0xbd21b442	-0.039478548
92	0xbb02a502	-0.0019934778
93	0xbc66d2af	-0.014088317
94	0xbc86628e	-0.016404416
95	0xbdb62f27	-0.08895712
96	0xbc46738c	-0.012112509
97	0xbc2b8a00	-0.0104699135
98	0xbd77c74c	-0.0604928
99	0x3d465990	0.048425257
100	0xbccd7471	-0.025079938
101	0x3d819eaf	0.063290946
102	0xbd887849	-0.066635676
103	0x3d4222b9	0.047396395
104	0xbda9067c	-0.0825319
105	0x3dcc781d	0.09983847
106	0xbddbe6cd	-0.10737381
107	0xbd7d10f1	-0.061783735
108	0xbd3837f9	-0.044975255
109	0x3d203f00	0.03912258
110	0xbd831a32	-0.06401481
111	0xbdb51f30	-0.08843839
112	0x3d93fa4a	0.07225473
113	0x3b4b0731	0.0030979628
114	0x3d33b4e0	0.043873668
115	0x3d4de1c4	0.050264135
116	0xbda7521d	-0.08169959
117	0x3c8e7388	0.017389074
118	0xbd395f5d	-0.04525696
119	0xbd459c0b	-0.048244517
120	0x3c002c4d	0.007823062
121	0x3d097662	0.033560164
122	0x3d9cb6bb	0.076520406
123	0x3cccdef2	0.025008652
124	0xbd67e2e5	-0.056612868
125	0x3d0d4f27	0.034499314
126	0x3db4882d	0.08815036
127	0xbd6cbb1d	-0.057795633
128	0x3db5b4cc	0.08872375
129	0xbd6d40c8	-0.05792311
130	0x3d1893e8	0.03725043
131	0x3d46bf30	0.048522174
132	0x3db6c075	0.08923427
133	0x3cb7c6bd	0.022433633
134	0xbcc6549b	-0.024210265
135	0x3d076704	0.033057228
136	0x3d8a70b3	0.06759777
137	0xbd051cbb	-0.032498103
138	0xbcadbd6c	-0.021208487
139	0xbd7c50df	-0.061600562
140	0xbc9eb18f	-0.019371776
141	0x3d885ec7	0.06658702
142	0x3d41267d	0.047155846
143	0xba858d83	-0.0010189269
144	0x3adbdf27	0.0016774879
145	0xbbad4307	-0.0052875313
146	0x3d71caf5	0.059031446
147	0x3d48471b	0.048895936
148	0xba36aef6	-0.000696882
149	0x3daf9e83	0.085751556
150	0xbccdb7df	-0.02511209
151	0x3da9dc8f	0.08294021
152	0x3d1e92d4	0.038714245
153	0xbd35842e	-0.04431551
154	0xbd3e816c	-0.046510145
155	0x3db235e0	0.08701682
156	0x3d394acc	0.045237347
157	0x3c862205	0.016373644
158	0x3dacf254	0.08444658
159	0xbc2891ab	-0.010288636
160	0x3d3c6e4d	0.04600363
161	0x3c51c96a	0.0128043685
162	0x3db910c6	0.090364024
163	0x3d5114a4	0.051045075
164	0xbd0e2d08	-0.034710914
165	0xbd30856d	-0.043095995
166	0x3c13fb55	0.00903209
167	0xbd81cb22	-0.06337573
168	0x3b125413	0.0022327944
169	0x3d92b464	0.07163313
170	0xbd485a3c	-0.04891418
171	0x3c91bada	0.017789293
172	0xbda1e9af	-0.079059
173	0x3d099478	0.033588856
174	0xbd342c38	-0.043987483
175	0x3c276119	0.010216021
176	0xbd9014a9	-0.070351906
177	0xba6eab0b	-0.0009104467
178	0xbd850943	-0.06495907
179	0x3c944f8c	0.018104337
180	0x3c182782	0.009286763
181	0x3d1b9fd8	0.037994236
182	0x3d6762e1	0.056490783
183	0x3c0169c1	0.007898749
184	0xbd63d5e9	-0.055623922
185	0x3d9d4425	0.07679013
186	0x3d583982	0.05278922
187	0xbd9b30f5	-0.07577697
188	0x3ca161f2	0.019700024
189	0xbd0b559b	-0.034017187
190	0x3d38f6aa	0.045157112
191	0x3cb96082	0.022629026
192	0xbcdd206b	-0.026992997
193	0x3ccf0867	0.025272561
194	0xbc322354	-0.010872681
195	0xbd2b8999	-0.04187927
196	0x3c8ca934	0.017170526
197	0xbd453633	-0.04814739
198	0x3bf2fc15	0.0074153044
199	0xbd8b7f19	-0.06811351
200	0xbdaa5f6c	-0.083189815
201	0x3d984535	0.07435075
202	0x3d8e0437	0.06934398
203	0x3d5c9c4d	0.053859998
204	0xbd638c16	-0.05555352
205	0x3dc01d58	0.09380597
206	0xbca6e57e	-0.020373102
207	0xbda06826	-0.07832365
208	0xbd5decbf	-0.054180857
209	0x3db0db83	0.086356185
210	0x3d97dc65	0.07415084
211	0x3b952fad	0.0045528025
212	0xbd399bf5	-0.045314748
213	0xbddef06a	-0.10885699
214	0x3d558b69	0.052134905
215	0xbd606ddc	-0.05479227
216	0x3d327049	0.043564115
217	0xba9a5e7c	-0.0011777426
218	0xbc16d285	-0.009205465
219	0x3dbaa28a	0.09113033
220	0xbd47c2ff	-0.048769947
221	0xbd2f9342	-0.042865045
222	0xbbbace6a	-0.005700876
223	0x3d459a55	0.048242886
224	0xbd37a1cb	-0.044832032
225	0xbd8630c7	-0.06552272
226	0x3d10abcd	0.035320092
227	0x3df4fbd3	0.11962094
228	0xbcf30f48	-0.029670373
229	0xb9cdd378	-0.00039258203
230	0x3db21057	0.08694523
231	0xbd8a7f7a	-0.067625955
232	0xbd3ea607	-0.046545055
233	0x3cc54eaa	0.024085362
234	0x3d427c65	0.047481913
235	0xbdbcf955	-0.09227244
236	0x3d200bb2	0.039073654
237	0xbd3a39eb	-0.04546539
238	0xbdaf8d86	-0.08571915
239	0x3b2c6d73	0.0026310354
240	0x3d5de7d6	0.054176174
241	0x3c7e74cd	0.015530777
242	0xbd631b27	-0.055445816
243	0x3a160c10	0.00057238434
244	0xbc8cb26f	-0.017174928
245	0xbd74e9a2	-0.059793122
246	0x3d020f2e	0.031752758
247	0x3d593198	0.053025812
248	0xbd9432cd	-0.07236252
249	0xbd7e725c	-0.06212078
250	0x3d352a09	0.04422954
251	0x3c6cbf16	0.014449855
252	0x3d34633b	0.044039946
253	0x3daa5688	0.08317286
254	0x3cd7ce41	0.026343467
255	0x3d4e4d9c	0.050366983

head.0.weight f4 [1, 128]
0	0x3cf37781	0.02972007
1	0x3ca17aa0	0.019711792
2	0xbca3986a	-0.019970138
3	0xbdc4dd15	-0.096124806
4	0x3d2d9a49	0.042383466
5	0xbb3e443f	-0.0029032377
6	0x3d6cabde	0.057781093
7	0x3d6ae328	0.05734554
8	0x3d97cce1	0.074121244
9	0x3e0fecc3	0.14055161
10	0xbd17702b	-0.036972206
11	0xbd96cf96	-0.073638126
12	0x3db22978	0.08699316
13	0x3d6ee5eb	0.058324736
14	0x3d3fb173	0.04680009
15	0x3d212b9f	0.03934824
16	0x3d1ba6f1	0.038001005
17	0x3c55dbc4	0.0130528845
18	0xbd1d415b	-0.038392406
19	0x3d8d2ced	0.068933345
20	0xbd8c9f79	-0.068663545
21	0x3c63dbea	0.013907412
22	0xbda8c13a	-0.0823998
23	0x3c9cff7d	0.019164795
24	0x3dccfc5b	0.100090705
25	0xbcd814da	-0.02637713
26	0xbdeb4d3d	-0.114893414
27	0x3c6fa2be	0.014626203
28	0x3d909bf3	0.07060995
29	0x3d9f0c6a	0.0776604
30	0xbdd2086f	-0.10255515
31	0xbde7a7d0	-0.113113046
32	0xbd1e16aa	-0.038595833
33	0x3b2d99b6	0.0026489324
34	0x3dcf6aad	0.10127769
35	0x3dbf5ab6	0.093434736
36	0xbdb4765b	-0.08811637
37	0x3c7261d8	0.014793836
38	0x3ce3550c	0.027750514
39	0x3cff88bc	0.03119313
40	0x3c552ea5	0.013011609
41	0xbd11d89e	-0.035606973
42	0x3d9fe313	0.07806983
43	0xbcc9c123	-0.024628228
44	0xbd5b503d	-0.053543318
45	0x3d4100e4	0.04711999
46	0x3c8b2cc4	0.01698912
47	0x3cff207c	0.03114342
48	0x3cc9f7d3	0.024654305
49	0xbd7870b8	-0.060654372
50	0x3dcb7850	0.09935057
51	0xbd8597f7	-0.065231256
52	0xbcd7b59b	-0.026331713
53	0x3c3cea9d	0.011530546
54	0x3dce4c25	0.10073117
55	0xbdf58f62	-0.11990239
56	0x3d37a990	0.04483944
57	0x3d4fbda0	0.05071795
58	0x3dd8392d	0.105577804
59	0xbd8aef4a	-0.06783922
60	0xbdae1d07	-0.0850163
61	0x3c9dc36c	0.019258223
62	0x3da396cc	0.079877466
63	0x3ce81f10	0.028335124
64	0xbdb41b32	-0.087942496
65	0xbc3e04f9	-0.011597865
66	0x3d17da4c	0.03707342
67	0x3d7c47b3	0.061591815
68	0xbd62e85c	-0.055397376
69	0xbdb2a074	-0.0872201
70	0xbdd20c07	-0.102562
71	0x3dcf4cdf	0.10122084
72	0xbd4d072a	-0.05005566
73	0x3b64cf4f	0.0034913605
74	0xbd4ca441	-0.049961332
75	0xbd8ea630	-0.069652915
76	0x3ded0921	0.11574007
77	0xbd1c7a0e	-0.038202338
78	0x3cb99a68	0.022656634
79	0xbd5c28dc	-0.053749904
80	0x3dc85e98	0.09783667
81	0xbdda22c4	-0.10651162
82	0x3cc1e035	0.02366648
83	0xbdcc6062	-0.09979321
84	0x3dbb3e09	0.09142692
85	0x3d2aad87	0.041669395
86	0x3bac0b90	0.005250402
87	0x3daa6f13	0.08321967
88	0x3d6779d8	0.056512684
89	0x3cc05d31	0.023481937
90	0xbbc75726	-0.006083387
91	0x3db33eca	0.087522104
92	0xbd0bf9b1	-0.03417367
93	0x3db28b71	0.087180026
94	0x3ced805f	0.028991876
95	0xbd938d54	-0.072046906
96	0xbcc5b4c3	-0.024134045
97	0xbdcf8150	-0.10132086
98	0x3d36471b	0.044501405
99	0xbe1708f1	-0.14749505
100	0xbc7780c3	-0.015106383
101	0x3d5ee823	0.0544206
102	0x3d8171e1	0.06320549
103	0xbd4f723b	-0.050646048
104	0xbd9b0308	-0.075689375
105	0x3d941348	0.0723024
106	0x3d72f122	0.059311993
107	0x3d027402	0.031848915
108	0xbd627354	-0.055285767
109	0xbdb58e8c	-0.08865079
110	0x3c51f021	0.012813599
111	0x3c763f59	0.015029752
112	0xbdd0ee5e	-0.10201715
113	0x3d98e5d5	0.07465712
114	0x3c8ce742	0.017200116
115	0xbd911376	-0.0708379
116	0x3d537c2c	0.05163209
117	0xbdd1d430	-0.1024555
118	0xbd77492b	-0.060372513
119	0x3db642f6	0.088994905
120	0x3db38eba	0.08767457
121	0x3d88abf9	0.06673426
122	0xbd92be03	-0.07165148
123	0x3c3cf9d5	0.011534174
124	0xbd5fc105	-0.054627437
125	0xbdadfb8b	-0.08495244
126	0x3dd99d67	0.10625725
127	0x3d7607a1	0.06006587
