lstm_svd_inst.pt (torch, 401181 bytes, 5 tensors)

lstm.weight_ih_l0 f4 [512, 64]
000000 c2 57 da 3d 24 19 eb 3d ba f1 86 3c a8 34 e8 3d
       0.1066127 0.114794046 0.016472686 0.113381684
000010 3e da 1f 3c 34 9a 41 3d 22 d3 0e bc ab dd b8 3d
       0.009756623 0.0472662 -0.00871733 0.09026655
000020 9f 02 ec 3d ae 7c 02 bd ca 0b e0 3d 11 1a 43 3d
       0.115239374 -0.031857185 0.109397486 0.04763228
000030 4b a1 c3 3d a9 9d 47 3d e3 12 9e 3d 3d 5f a2 3c
       0.095522486 0.04873434 0.07718446 0.019820804
000040 77 13 cc 3d 74 0b 3a 3d fd fb 3c bc 95 51 52 3d
       0.0996465 0.04542108 -0.011534688 0.051347334
000050 e1 32 20 bc 32 89 a2 3c 69 e5 a2 bb a3 6a b7 3d
       -0.0097777555 0.01984081 -0.0049711955 0.08955886
000060 1b cc 24 bd 6e 0d ae bb 51 f7 d9 3b 67 42 ae bc
       -0.040233713 -0.0053116595 0.006651797 -0.021271897
000070 de d1 1b 3d ff bd 66 bd f6 df e6 3d c0 91 2e bd
       0.03804194 -0.05633354 0.11273186 -0.042619467
000080 e2 63 d3 3d c6 d8 61 3d d5 6a 09 3c 22 85 bb 3d
       0.103217855 0.055138372 0.008387287 0.091562524
000090 2c b9 42 3d cc ce d1 3d c5 5d 38 3d 5a 75 86 3b
       0.047539875 0.102445215 0.0450113 0.004103345
0000a0 49 e0 67 3d 19 4f db 3b 4f d8 8a 3d 01 c4 e0 3d
       0.05661038 0.006692779 0.06779539 0.10974885
0000b0 3b 37 a6 3d e5 11 30 bc 79 ad a2 3d 2f f8 27 3d
       0.08116003 -0.010746454 0.079432435 0.04100817
0000c0 3b 99 8f 3d fa 6d e7 bc 30 83 78 bd fd 4a 2a bc
       0.07011648 -0.028250683 -0.060671985 -0.010393855
0000d0 d7 e9 3e bd 57 28 c3 3d 75 e4 4b 3d e9 58 75 3d
       -0.046609726 0.095291786 0.04977842 0.059899244
0000e0 45 a2 45 3d 6a aa 6c 3c ec 87 a2 3d 85 65 68 bd
       0.048250455 0.014444927 0.07936081 -0.05673744
0000f0 a4 c5 0f 3c 2b 9f 76 bd b6 22 bd 3c e4 d9 19 bd
       0.008775149 -0.06021039 0.02308784 -0.037561312
000100 d3 50 ae 3c 4c 5c a9 bc b5 35 93 3d 24 8a 5f bd
       0.021278774 -0.020673893 0.07187978 -0.0545751
000110 66 37 49 bd 57 fa 33 bd 0f f1 b6 3d 48 d5 1f 3d
       -0.049125098 -0.043939915 0.08932697 0.03902176
000120 b4 ec bb 3d 44 8f 89 bd 2a bb a8 bd 52 76 86 bd
       0.09176007 -0.06716779 -0.08238824 -0.065655366
000130 58 10 60 bd 31 1b 2d 3d 8e 3d 19 3d b2 23 9d 3d
       -0.054703087 0.04226226 0.03741222 0.07672824
000140 3e 65 2a bd f6 4a 64 bd 0a 3a 51 3d 1b 02 0e bd
       -0.04160046 -0.05573555 0.05108074 -0.034669977
000150 e0 01 5e 3d 7f 3f b0 bc 33 75 3f 3d 05 41 92 bd
       0.054201007 -0.021514652 0.04674263 -0.07141308
000160 4b 32 39 bd 34 09 d8 3c a0 10 98 3c e9 ef bf bc
       -0.04521398 0.026371576 0.018562615 -0.023429828
000170 c7 9a 49 3d 2c 5d 66 3d d8 67 8b bd 16 d2 4f bd
       0.049219873 0.0562412 -0.06806916 -0.050737463
000180 5f ee 9b 3d da 56 13 bd a1 c2 1a bd 1a d6 c1 bd
       0.07613825 -0.0359715 -0.03778327 -0.09464665
000190 03 20 76 bd 49 63 7b 3c 10 6f 8a bc 38 f1 8a bd
       -0.060089123 0.015343496 -0.016898662 -0.0678429
0001a0 76 0f 3c bb e3 36 87 bd f7 66 a0 bd 5f d8 56 bd
       -0.002869574 -0.06602266 -0.07832139 -0.05245244
0001b0 be c7 a4 bd d1 a2 71 bd 32 22 af 3d 54 e1 77 3c
       -0.0804591 -0.058993164 0.08551444 0.015129406
0001c0 64 43 d0 3c 62 c5 b1 bd 08 53 85 bd d7 0f 29 bd
       0.02542276 -0.08680226 -0.065099776 -0.04127487
0001d0 77 dc 56 39 bb ec b8 bd 18 22 4d bd 97 36 80 bd
       0.0002049076 -0.09029528 -0.050081342 -0.06260412
0001e0 38 fb aa bb b3 4a 0e bd 17 7f bd bb 32 ce 63 bd
       -0.005217936 -0.034739207 -0.0057829726 -0.055616565
0001f0 fe 8b 57 bd 38 a7 25 bd 55 dc 8a bc f9 4f 51 bd
       -0.05262374 -0.040442675 -0.016950766 -0.05110166
000200 f1 84 9e 3d 59 08 22 bc dd c0 af 3d f6 d4 11 3d
       0.077402 -0.009889686 0.085817076 0.035603486
000210 80 5f 7c bd 54 6d a3 3d 63 24 ea ba 57 fd 2b bc
       -0.061614513 0.07979837 -0.0017863627 -0.010497413
000220 3c 9c 5c bd 46 59 92 bd 13 57 22 3d 4b 38 c8 bb
       -0.053859934 -0.07145934 0.03963382 -0.0061102263
000230 54 d6 45 3d b5 6c 60 bd 0d a7 ac 3d d0 eb 49 bd
       0.048300102 -0.05479117 0.084303 -0.049297154
000240 8d cc 71 3a 32 46 13 3d ba 61 82 3d b6 46 ad 3d
       0.0009223901 0.035955615 0.06366296 0.08460753
000250 63 9a c0 3d 4a 68 66 bd 14 25 0a 3d 45 3a d7 bc
       0.09404447 -0.0562518 0.033726767 -0.026272902
000260 24 21 1c 3b 96 14 5e bd 7f b0 be 3d 1b d4 5a bd
       0.0023823464 -0.05421885 0.09311008 -0.053424936
000270 dd 0b 6b 3d ce c3 2a 3d 88 98 25 3d 5d c9 0f bd
       0.05738436 0.04169064 0.04042867 -0.035104144
000280 5e b9 b9 3d f6 86 e3 3c 75 67 9c 3c 18 26 92 bd
       0.09068559 0.027774315 0.0190923 -0.07136172
000290 ed 85 30 3d 67 58 cd bb 0e 6f 06 bd 38 ef ae 3d
       0.04309647 -0.006266642 -0.032820754 0.08541721
0002a0 4b dc e2 3c 31 6c 28 bd a7 da 06 bd 0b cb 0c 3c
       0.027692934 -0.041118804 -0.032923367 0.008593331
0002b0 c5 5f 82 3d d8 98 fa bb 05 17 0c bd 10 ae 3e bc
       0.06365923 -0.007647615 -0.03420164 -0.011638179
0002c0 87 56 42 bd 24 c0 40 3d f1 4d a5 3d 2d 72 9e bd
       -0.0474458 0.04705824 0.08071507 -0.07736621
0002d0 29 8d bc 3c c1 25 44 3d 3a 4e 92 3c 84 08 e7 bc
       0.02301653 0.047887567 0.017859567 -0.028202303
0002e0 fd 3a 5a 3d 90 09 6c 3d 19 58 41 3d 58 45 58 3b
       0.05327891 0.057626307 0.047203157 0.0033000316
0002f0 69 3f 8c ba 6c 62 09 3d c6 0d 1a 3c 86 d2 24 3b
       -0.001070005 0.033541128 0.009402698 0.0025149896
000300 a6 c0 8b 3d f6 ca b3 3d 36 db 81 ba 45 fa 88 bc
       0.06823854 0.08778946 -0.0009907249 -0.0167209
000310 fa 61 90 bb 57 f3 72 bc e8 aa 44 3c ef 32 93 3c
       -0.004406211 -0.014828525 0.012003638 0.017968623
000320 31 96 a9 bd 02 5f 13 bd c6 b3 92 3d 8e 09 fd 3c
       -0.082806 -0.03597928 0.07163195 0.030888345
000330 2b 81 3a bc 00 dc 6b bd 15 88 78 bd 1a 63 b5 bd
       -0.011383335 -0.057582855 -0.060676653 -0.08856793
000340 78 bd 1c bd 32 e5 c2 3c 92 fd 49 3d 54 65 12 3d
       -0.03826663 0.02379093 0.04931409 0.035741165
000350 f5 75 a9 bd fb 47 6b bd 8d fc 79 bc 42 0e ab 3d
       -0.08274452 -0.057441693 -0.015257967 0.08352329
000360 89 65 35 3c 01 ad 9c bc ca 32 18 3d d8 fe 0b bd
       0.011071571 -0.019125463 0.03715781 -0.034178585
000370 cb aa 73 bd 0e 48 84 3d 7f 2c 18 bd 98 c2 6b bc
       -0.059489053 0.06459056 -0.03715181 -0.0143896565
000380 0a e4 a5 bd 45 79 91 3d 15 79 9e 3d fa db 35 3d
       -0.081001356 0.071032085 0.07737938 0.04439924
000390 9a aa 59 bd c1 5d a7 bd 8d 27 82 bd 78 f5 8d 3d
       -0.053141214 -0.08172179 -0.063552 0.06931585
0003a0 12 9c 3f 3d 2e 56 9c 3d d0 5f 3a 3d 74 36 a2 3c
       0.0467797 0.07633625 0.04550153 0.019801356
0003b0 31 87 cb bb 36 ce 98 bd de 0a a9 bd 55 9b bb bd
       -0.0062111844 -0.074612066 -0.08254026 -0.091604866
0003c0 d4 19 f0 3c fe 21 40 bd c3 62 8b bc 83 c1 48 bd
       0.02930919 -0.046907417 -0.017014867 -0.049012672
0003d0 d1 d6 78 bc 83 ac 7b bd b7 28 64 bd 44 e2 df 3c
       -0.015187935 -0.061443817 -0.05570289 0.027329572
0003e0 cd 0f 16 bd 2b 6d 16 3d b8 8f 5b bd 4f fb c8 bd
       -0.036636163 0.036725204 -0.053603858 -0.09813558
0003f0 00 62 61 bd f5 2f b3 bd fa 4f 9c bd c5 93 0d be
       -0.0550251 -0.087493815 -0.07632442 -0.13825901

lstm.weight_hh_l0 f4 [512, 128]
000000 e1 04 86 bc 3d 88 39 bd d2 3b 01 3d 35 4a 07 bc
       -0.016359748 -0.045295943 0.03155119 -0.008257438
000010 84 75 92 bc db cb 30 3d 09 a5 f5 bc 25 7a 78 3d
       -0.017878301 0.04316316 -0.029985921 0.06066336
000020 e2 d0 a2 bc a1 c8 0d ba 2b f2 c9 3b ac 29 af 3d
       -0.019874994 -0.0005408619 0.006162902 0.0855287
000030 42 d1 c6 bc 01 8f e7 bd e4 d7 06 bc 9b 7b 47 bd
       -0.024269704 -0.11306573 -0.008230183 -0.048701864
000040 63 7f 7a 3d a1 77 1b bc 3d 9a b5 bc ba 03 6d 3c
       0.06115664 -0.009488971 -0.022168273 0.0144662205
000050 d6 21 d2 3c d1 ff dd 3c 1e f8 19 bd 74 25 89 bc
       0.0256509 0.027099522 -0.03759014 -0.016741492
000060 c3 51 1d 3c 25 73 20 bd fa 70 bd bc 8d 6b f0 3c
       0.009602013 -0.03917231 -0.02312516 0.02934816
000070 e3 c5 8a 3d df fd 65 bd f7 73 af 3c f4 f9 38 3b
       0.06776025 -0.056150313 0.021417601 0.0028225156
000080 17 fb d7 3d 5c 49 1c bc bd 71 97 bc f1 8a c5 bc
       0.105459385 -0.009538975 -0.018486852 -0.024114104
000090 06 6d dc bd 9d 39 47 3a e5 e2 7e bd ab b5 64 bc
       -0.10762982 0.00075998326 -0.062228102 -0.013959329
0000a0 17 dd 92 bd f0 d5 5d bd e6 22 1d bd bf 7b 38 bd
       -0.07171076 -0.054159105 -0.03836336 -0.04503989
0000b0 f0 89 7a bd 21 ae 46 bc 51 e4 f6 bd 94 c0 80 bd
       -0.061166704 -0.0121264765 -0.12055267 -0.06286731
0000c0 c6 61 1b bd 5a 2e a4 bd 37 49 51 3d be ff be 3d
       -0.03793504 -0.08016653 0.051095214 0.09326123
0000d0 ac 7e 83 bc 0f cb 8f bd bc 39 d5 3d de 0c 4b bd
       -0.016051613 -0.07021152 0.104114026 -0.049572818
0000e0 f4 06 ac 3b 9a 11 67 3d fd 01 2e bd 71 e7 1e bd
       0.0052498523 0.05641327 -0.042482365 -0.03879494
0000f0 95 26 15 3d ef 49 a7 3c 31 2a 9d bd 86 c8 be 3b
       0.036413748 0.020420996 -0.07674063 0.005822244
000100 31 5e 2f bd 96 3c c1 3d c0 fa 94 3c 8f 03 92 3d
       -0.042814437 0.09435384 0.018185973 0.07129585
000110 0c f0 1b 3c 61 de a0 ba fc 1f ac bc c3 01 8c 3d
       0.009517681 -0.0012273305 -0.021011345 0.068362735
000120 c2 6c 3f bd 32 e0 60 bd d4 14 cc 3d 44 6d a7 3c
       -0.04673458 -0.05490131 0.0996491 0.020437844
000130 77 3b ae 3c 39 23 bd bd dd 2b f7 3d 97 7e 36 3d
       0.02126859 -0.09235234 0.12068913 0.04455432
000140 8d b1 16 3d 71 2d 12 bc da 56 bb 3d 74 f9 57 bd
       0.03679042 -0.008921967 0.09147425 -0.05272813
000150 76 9b 04 3e 75 6b 2c bd 32 e6 bd bc c3 88 2e 3d
       0.12949929 -0.042094667 -0.023181055 0.042610895
000160 55 5e 75 3d 56 ae 46 bc 89 06 cf 3d f4 b7 ec bc
       0.059904415 -0.012126526 0.10108668 -0.02889631
000170 ac be 3d bd a9 62 18 3d e5 62 45 bc 3d cb 84 bd
       -0.046324417 0.037203465 -0.012047504 -0.06484077
000180 73 ae 8b bd 08 d5 7e bd 33 93 1c 3c a6 19 b5 3c
       -0.06820383 -0.06221488 0.009556579 0.022106957
000190 7c f4 8f 3d 15 da 89 3d f3 07 25 3c e8 a1 8a bc
       0.070290536 0.06731049 0.010072696 -0.016922906
0001a0 74 9a ef bd 2e a8 5e 3d 32 8b 9c 3b 20 e7 84 3d
       -0.116993815 0.054359607 0.0047773356 0.06489396
0001b0 1f 69 b8 3d 89 d0 9d bd e8 4d 5e 3d 8d bb e0 3c
       0.09004425 -0.077057905 0.054273516 0.027433181
0001c0 90 b2 f8 bd b3 98 51 bc ed a8 82 bd 32 75 d9 3d
       -0.12143433 -0.012792754 -0.06379876 0.10618056
0001d0 07 51 72 bd 2c 2d 60 3d 96 d0 cc bc a0 ab 90 3d
       -0.059159305 0.05473058 -0.025001805 0.07063985
0001e0 9a 0c 91 3d 98 01 e6 3d 7d 45 a8 bd fb 47 9d 3c
       0.07082482 0.11230773 -0.08216379 0.019199362
0001f0 71 6c c7 ba b9 c8 47 3d ef 2e 3b bc a6 75 c3 3d
       -0.0015214813 0.04877541 -0.011424764 0.09543924
000200 a6 c1 95 bd f0 7b 0c 3d e5 66 e7 3c 26 80 8e 3d
       -0.07312326 0.034297884 0.028247306 0.06958036
000210 65 60 0f 3d 25 bd 07 bd 74 d8 c4 3b 0e d6 e8 bc
       0.03500404 -0.033139367 0.0060072485 -0.028422382
000220 f5 42 16 3c 79 1a 72 3c 3d cd a8 3d b8 cb 8e 3d
       0.009171237 0.014776819 0.08242271 0.0697245
000230 28 48 66 bd ba 47 91 3d 9e 55 54 bd 3e 4b e8 3c
       -0.056221157 0.07093759 -0.051839463 0.02835619
000240 a2 dc 1b 3d 0c 35 08 3d 88 76 a2 3d 2a 20 a1 bc
       0.03805221 0.033253714 0.07932764 -0.019668657
000250 22 aa 95 3d 43 1a da 3c f1 7d 71 bc bb 09 2e bc
       0.07307841 0.02662385 -0.014739499 -0.010622437
000260 86 e8 bb bd ea bf b1 bb 77 36 f9 3b e5 8d 4f 3c
       -0.0917521 -0.0054244893 0.0076053697 0.012668108
000270 cd 80 f7 3a dd 6d 9a bb 78 3f 81 3c c4 fa 8e bd
       0.001888299 -0.0047128038 0.015777335 -0.069814235
000280 d9 f2 7e 3a 5c 44 9c bd 1f 51 74 bc ce 7c 93 3d
       0.0009725518 -0.07630226 -0.014911919 0.07201539
000290 38 41 93 bd 81 8c 7d 3d 2d 41 11 bd 06 fd 0d bd
       -0.07190174 0.061901573 -0.035462547 -0.03466513
0002a0 ab a9 24 3d 1f e2 bc bd 85 44 4c 3d d6 e9 3e 3d
       0.04020087 -0.09222817 0.049870033 0.046609722
0002b0 f2 f0 03 3d 2e 2d d2 3b 54 13 51 bd 85 0e 8f bd
       0.032212205 0.0064140772 -0.051043823 -0.06985191
0002c0 7d 7a cc 3d b7 14 c6 3c a4 ca b3 3d bb 35 58 bd
       0.099843 0.0241798 0.08778885 -0.052785616
0002d0 26 b2 3c 3d 21 34 33 bd b5 7a 9d 3d c2 55 9a 3d
       0.046068333 -0.043750886 0.0768942 0.07535888
0002e0 30 07 4f bd 29 3f 8e bd 40 2c af bd 2e dd 86 bd
       -0.050543964 -0.069456406 -0.08553362 -0.065851554
0002f0 90 38 74 3d 4b 3c ac bd 8a d9 a3 3d fd 53 3c bd
       0.059624255 -0.084099375 0.08000477 -0.045978535
000300 7e 99 57 bd 09 3d 06 3d 31 86 19 bd 28 02 23 3c
       -0.052636616 0.03277305 -0.03748149 0.009949245
000310 57 0e 9d bd 1c c3 bf bd 54 66 dc 3b 51 43 9f bb
       -0.07668751 -0.09363386 0.0067260657 -0.0048603197
000320 d4 95 f5 3c d1 01 3b bd f9 15 5f 3d e4 83 53 3d
       0.02997867 -0.04565603 0.054464314 0.051639453
000330 00 20 39 bd ae 7d 96 bc 54 f7 25 3d d2 67 83 bd
       -0.045196533 -0.018370476 0.040519074 -0.064162865
000340 80 11 1c 3d 15 a8 b3 bc 75 c2 84 bc b0 20 7d bd
       0.038102627 -0.021930734 -0.016206006 -0.06179875
000350 ab ad a9 3d 50 c3 a9 bd 9a cd 21 bc f3 92 39 3d
       0.08285078 -0.08289206 -0.009875679 0.045306157
000360 27 7d 44 bd 7c 96 13 3b d8 2f d5 3d 27 3b 1d 3d
       -0.047970917 0.0022520116 0.10409516 0.03838649
000370 fe d8 53 3d ce c7 51 bd be b5 83 3d 46 a9 61 3b
       0.05172061 -0.05121594 0.06431149 0.003443317
000380 cf 56 34 bb 5d ad 21 bd c8 28 2a bc 7d 4d c3 3d
       -0.0027517562 -0.039471973 -0.0103857 0.09536264
000390 ee 61 66 3d 2f e7 82 bd 5c 9f d9 3d 24 87 a3 3d
       0.056245737 -0.06391751 0.106260985 0.079847604
0003a0 d2 e3 2f bd 10 56 03 3c d2 51 ae 3d 14 52 bf bd
       -0.042941876 0.008016124 0.085117 -0.09341827
0003b0 ef 56 84 3d 92 f2 84 3d f1 98 26 bc 7a aa 39 bd
       0.06461894 0.06491579 -0.0101683 -0.045328595
0003c0 30 9d a0 bd fd 24 a5 3d ff 15 4d bc 8a fd a3 3b
       -0.07842481 0.080636956 -0.012517451 0.0050045894
0003d0 c3 d7 5d 3c e6 d6 1d 3d aa d9 42 3d 4d aa 58 3c
       0.013540211 0.03853502 0.047570862 0.013224197
0003e0 bb 6b b3 bd 50 1f ad 3d 8b 67 6e 3d 06 30 3a 3c
       -0.08760782 0.08453238 0.058204215 0.011363989
0003f0 e1 05 5f bd 91 06 4e bc 53 d3 1c 3d 59 02 88 3d
       -0.054448966 -0.012574808 0.038287472 0.06641073

lstm.bias_ih_l0 f4 [512]
000000 6c 3c c3 3d 05 f3 2f 3c b6 02 03 bc 2f a9 26 bc
       0.09533009 0.010739093 -0.007996252 -0.010172172
000010 cc a4 cc 3b cb 76 c0 3d 85 61 c3 3d 68 23 93 bd
       0.0062452313 0.09397658 0.09540085 -0.071844876
000020 f1 0a a0 bd db 11 94 bd b7 dd 16 bb 18 43 11 bc
       -0.07814587 -0.07229968 -0.0023020336 -0.008866094
000030 bb f0 f7 3c 1d 7a 92 bd 90 e0 ea 3d 30 13 53 bd
       0.030266156 -0.071521975 0.11468613 -0.05153197
000040 f9 99 c2 3d a8 30 ef 3d cc 6d a4 bb fd 81 64 3d
       0.09502024 0.11679202 -0.0050179716 0.05578803
000050 2b 57 2a 3d 46 83 da 3d f2 a4 bd 3d f5 03 2c bd
       0.041587036 0.1066957 0.092599764 -0.04199596
000060 c9 2f 9d 3d 6a bf 79 bd 6d cd 89 3d 3a 92 89 3d
       0.0767513 -0.060973562 0.06728635 0.06717344
000070 24 73 db 3d 96 1e c0 3c e5 00 98 bd 11 ba 10 bc
       0.10715321 0.023452085 -0.074220456 -0.008833424
000080 7b 46 8f bd a3 a2 50 3d 2d 08 6b bd f4 69 c9 3c
       -0.06995865 0.050936352 -0.057380844 0.024586655
000090 31 c4 a9 bb 47 7a 9c 3d 2a 72 08 bd b3 af 51 bd
       -0.0051808585 0.0764051 -0.033312 -0.05119295
0000a0 59 6e 83 3d 27 b8 e5 bd 70 c4 f5 3c d4 e9 bc 3d
       0.064175315 -0.11216765 0.030000895 0.09224287
0000b0 db 6b 94 bd 48 ed bf 3b 97 c1 52 3d 22 24 02 3e
       -0.07247134 0.0058571436 0.051454153 0.12709096
0000c0 69 7e 97 bc dd f9 92 3d f8 1d af 3d 90 dc 88 bd
       -0.018492894 0.07176564 0.08550638 -0.06682694
0000d0 2d 53 17 3d 0d 35 99 3d fb ea 11 bd 38 31 92 3c
       0.036944557 0.07480822 -0.035624485 0.017845735
0000e0 d3 b3 4c 3d 40 89 ba 3b cc 72 f9 bc 6e 81 e9 3c
       0.04997618 0.005692631 -0.030450247 0.0285041
0000f0 16 7c 59 bd 7a 14 83 bd 48 87 ea 3c 9d 83 9c bd
       -0.053096853 -0.0640039 0.02862896 -0.07642291
000100 aa 23 9d 3d ba 60 12 bd 05 30 73 bd 36 76 8f bd
       0.07672818 -0.035736777 -0.059371967 -0.07004969
000110 96 2c 04 bd 64 d8 c1 3d 45 fd a3 bd b7 c9 81 3d
       -0.032269083 0.09465101 -0.08007292 0.06337302
000120 e5 36 26 3d 8c 28 9e 3d f1 8b b7 3c b8 e5 6f bd
       0.040579695 0.077225775 0.022405596 -0.058568686
000130 1f d3 98 3d e7 ed 9d ba 80 a3 f3 bc af 2c b4 3c
       0.07462143 -0.001204905 -0.029741049 0.021993963
000140 12 46 d4 3d 13 fc b0 bd 12 44 47 bd 0a cf a5 3c
       0.10364927 -0.08641829 -0.0486489 0.020240325
000150 47 68 87 3c 53 46 d1 3c de d1 7a bd e0 27 a3 bd
       0.016529215 0.025546229 -0.0612353 -0.0796659
000160 e8 db 3f bd 08 6b 76 bd 9f 0f 6c 3d 79 c9 1f bd
       -0.04684058 -0.060160667 0.057632085 -0.0390105
000170 e4 35 25 bd 00 b6 df bc 57 af 8c 3d 15 99 bc 3b
       -0.040334597 -0.027308464 0.06869381 0.0057555535
000180 9c 1c 39 3d 31 37 81 bd 0b e0 85 bd 92 75 71 39
       0.0451933 -0.06309355 -0.065368734 0.0002302735
000190 29 f2 0a 3e 34 75 71 bd 4e 66 36 bd 37 d7 30 3c
       0.1356894 -0.058949664 -0.04453116 0.010793499
0001a0 a2 5e 76 bc 8c 02 0b bd 52 ad b7 3d ed 97 4f 3d
       -0.015037211 -0.033937976 0.08968605 0.050681997
0001b0 71 30 40 bd ab 9c 7e 3c 2d 8c c8 3d 31 c1 7d 3c
       -0.046921197 0.015540282 0.097923614 0.015487955
0001c0 65 7e c9 bd ae 16 59 bc b8 28 23 bd 3b cb f6 bc
       -0.09838561 -0.013250036 -0.039833754 -0.030126205
0001d0 97 79 cf bc 18 85 90 bd 6f 85 18 bd 5e bd 4a 3d
       -0.025326533 -0.070566356 -0.037236627 0.049497
0001e0 f8 f5 37 3d 4e 72 88 bd 71 ab 9f 3d eb 23 fc bc
       0.04491231 -0.06662427 0.07796372 -0.030778846
0001f0 f9 e1 b0 3b 35 ce 1a 3c 94 52 53 bd cd 8a 74 3c
       0.005398032 0.009448578 -0.051592425 0.014925671
000200 b6 6c ed 3d b5 d5 4f 3d 17 06 8d bb c3 c4 29 3c
       0.115930006 0.050740916 -0.0043037045 0.010361853
000210 13 ce 38 3d b3 b7 56 3d 1e 4b e0 3c 7a fa 2d bd
       0.045118403 0.052421283 0.027379569 -0.0424752
000220 6c da 03 38 c6 ca 92 3d de 4c 9b bc 5d e4 0c bd
       3.1436255e-05 0.07167582 -0.018957552 -0.03439747
000230 39 23 65 3d f0 7a 5e bd c7 59 d7 3d 84 b0 78 3d
       0.055941794 -0.05431646 0.105151705 0.060715213
000240 ee 2c 99 3d db 74 34 3d d0 32 a7 3d 6b ea e4 bb
       0.07479273 0.044056755 0.081639886 -0.0069859526
000250 42 b8 c9 3d ed b5 79 bd ca 8f 09 bd b2 f8 19 3d
       0.098495975 -0.060964514 -0.033584394 0.03759069
000260 9f d3 21 3d 54 88 07 3d ed 35 28 3d e4 c5 bc bd
       0.03950846 0.033088997 0.041067053 -0.09217432
000270 0a 3f bc 3d 1e d3 06 bd 18 62 30 3d 21 cc 80 bd
       0.09191711 -0.03291618 0.0430623 -0.062889345
000280 29 03 12 bd 02 ba 5b 3d 99 60 11 bd 55 49 6f 3d
       -0.035647545 0.053644188 -0.035492513 0.058419544
000290 7b 92 51 bd cb bf 92 bd 32 13 7b bd 89 3d ab 3d
       -0.051165085 -0.07165488 -0.061297603 0.08361346
0002a0 29 0a 05 3d c5 a7 1f bd 2b 87 94 bd 96 8f 86 3d
       0.032480393 -0.038978357 -0.07252344 0.065703556
0002b0 51 3e 02 3d c0 97 7e bd 97 35 83 3d 23 17 d2 bc
       0.03179771 -0.06215644 0.06406706 -0.025645798
0002c0 5f 5b e4 bc b8 51 b0 3d 13 9a ee bc 40 7a 51 3d
       -0.0278756 0.086093366 -0.029126203 0.051141977
0002d0 74 c9 98 3d 37 02 e2 bc be dd 1b bd 01 1f 57 bd
       0.07460299 -0.027588947 -0.038053267 -0.052519802
0002e0 da d1 9c 3d f5 8b a1 bb 06 1a ad bb df 70 c1 3c
       0.076572135 -0.0049300143 -0.0052826433 0.023613391
0002f0 a6 47 81 3c a2 86 a8 bd fa 38 7f 3d c1 97 b2 3c
       0.015781235 -0.08228804 0.062310196 0.021800878
000300 b5 5a 26 3c f3 25 be bb e4 0a 59 bd 0d cb 2e bd
       0.010153462 -0.0058028637 -0.0529889 -0.042674113
000310 ca 7e 16 bd 3c 8f 2c 3c 71 5f 68 3d 9b cf 28 bd
       -0.03674201 0.010532197 0.056731645 -0.041213613
000320 7c 3b aa bc 2a f5 b9 3c 5d a0 71 3c e4 4a a4 3d
       -0.020780317 0.022699911 0.014747706 0.08022097
000330 57 7c 59 3d 1e 0c b0 bd 65 41 7f bd 54 7f 05 3c
       0.053097095 -0.08596061 -0.062318224 0.008148033
000340 63 e3 9d 3d 9a 13 e5 3c 5f 76 98 3c 68 0f 71 3d
       0.07709386 0.027963448 0.018611131 0.058852583
000350 54 c7 cc 3d 8b 64 84 3d 0c 3a 02 3d 61 0b a3 bd
       0.09998956 0.064644895 0.03179364 -0.07961155
000360 75 9e 72 bc d2 89 01 bd 0a fb 8f bd 59 78 a0 bd
       -0.014808287 -0.031625576 -0.07030304 -0.078354545
000370 30 3b ff bc b5 04 a2 3d 84 45 b1 3c 86 36 1c 3c
       -0.031156152 0.07911054 0.021639593 0.009534484
000380 4e 51 22 3d 72 32 a7 bd bf 4f 6b bc bd 22 87 bd
       0.03962832 -0.081639186 -0.014362275 -0.06598423
000390 83 72 29 bc 05 0f 93 bc 8d de 1c bd 99 9d f3 3c
       -0.010342243 -0.017951498 -0.03829818 0.029738234
0003a0 f0 66 29 3d 77 d4 c2 3d 71 69 12 bb c4 49 2c bd
       0.041357934 0.09513181 -0.002234068 -0.042062536
0003b0 43 82 77 3d 19 5d 5e bd e9 5d 88 3d fe c4 a4 3d
       0.06042696 -0.054288004 0.06658537 0.08045386
0003c0 3c ac bd bd 01 0d d8 3d 28 8a ab bd 60 f6 e0 3b
       -0.09261367 0.10549355 -0.083759606 0.0068653077
0003d0 59 75 bc 3d fe 70 c0 bd 4c 9b 7e bc 2e 27 95 3d
       0.0920207 -0.093965515 -0.015539955 0.072828636
0003e0 05 4b 4f 3d 02 1d 0b 3c 8d e8 83 bd a2 bf 1f 3d
       0.050608654 0.008490803 -0.0644084 0.039001115
0003f0 b1 cc 54 3d 9d 56 51 3b 6e 67 72 3d 15 e6 1f bd
       0.05195302 0.0031942495 0.05918067 -0.039037783

lstm.bias_hh_l0 f4 [512]
000000 3a ab b4 3d 4f 4c 7c 3d db c3 e2 3c 63 f3 6c bd
       0.088217214 0.06159621 0.027681282 -0.0578493
000010 34 60 53 3d 40 39 26 bd 76 27 a2 3d 73 c5 ca 3c
       0.05160542 -0.04058194 0.07917683 0.024752354
000020 75 4a 4d 3d b8 26 6a bd 58 a2 c2 bc c3 71 eb bc
       0.050119836 -0.05716583 -0.023759052 -0.02874077
000030 96 d0 52 bd 98 5d 07 3d d3 40 34 3d c5 6a 17 bd
       -0.051468454 0.033048242 0.044007134 -0.036967058
000040 a6 48 11 3d 90 91 9d 3d 5b 2c 5b bd ad 48 a3 bd
       0.035469674 0.076937795 -0.053509098 -0.07972846
000050 56 78 9f 3d f0 3d 52 3d 28 b6 aa 3c 2a b2 b7 bc
       0.07786624 0.0513286 0.020838812 -0.022423822
000060 41 7e b8 bd 4d 87 fa bb 4b 5f 65 3d 5c 46 a0 bd
       -0.09008456 -0.0076455236 0.05599908 -0.0782592
000070 42 8c ae 3d ec 60 bc 3a d4 44 21 bb c4 b3 d3 bc
       0.08522846 0.0014372147 -0.0024607675 -0.025842555
000080 a3 d1 b1 bd e5 11 67 3d 7c 67 e3 bc 5c 62 ae bd
       -0.08682563 0.05641355 -0.027759306 -0.08514854
000090 50 d2 91 3d 20 07 5f bc ef 1c a1 3d e3 a8 9d bd
       0.07120192 -0.013612539 0.07866847 -0.07698228
0000a0 c4 ca 49 bd 26 53 4c 3d 7e 37 07 bd 75 59 8f bd
       -0.049265638 0.049883984 -0.033011906 -0.069994844
0000b0 77 de b2 bd 55 d6 1c bd f4 e8 93 bd c4 0e 13 3e
       -0.08733838 -0.03829034 -0.07222167 0.14361101
0000c0 e5 e5 8e 3d 71 d7 85 3a 0e 34 ae bd 10 1d be bd
       0.06977443 0.0010211301 -0.085060224 -0.09282887
0000d0 18 b0 a3 bc 5f f3 a2 bd 67 bd 79 3d c1 b7 22 bb
       -0.019981429 -0.079565756 0.060971644 -0.0024828764
0000e0 d2 c3 cc 3c 4b 8f bf 3b 5a 66 3c 3d ae c0 f0 3c
       0.024995718 0.0058459393 0.045996048 0.029388752
0000f0 90 65 13 bc 69 b3 a1 bc 20 43 1c 3d e3 8d b9 3c
       -0.008996382 -0.01973887 0.038149953 0.022650665
000100 4e f2 35 bc 36 c7 76 bc ac 98 93 bb 28 4a 80 bd
       -0.011105133 -0.015062144 -0.004504284 -0.06264144
000110 5c 38 43 bd d7 b7 a4 3d 63 82 a8 3d dd 91 8f bd
       -0.04766117 0.08042877 0.08227994 -0.07010243
000120 fe d2 9b 3d 7e 71 58 3d b5 74 96 bd a3 2d 78 bc
       0.07608603 0.05284261 -0.07346479 -0.015147599
000130 26 52 d1 3c 60 bf a2 bc 7d e0 f3 3b e2 01 bc 3d
       0.025551867 -0.019866645 0.0074425326 0.091800466
000140 76 e6 c2 3b c7 5c 62 3b 1e 1a c2 3d 86 1a 9e 3d
       0.0059478832 0.0034540163 0.09477638 0.07719903
000150 0e 83 06 3c b5 19 8b 3d 6d 01 86 bd 28 23 15 3d
       0.008209957 0.067920126 -0.06543241 0.03641048
000160 f5 2a c6 bc 31 1f 8d 3d 9b 52 1b bd 48 81 0a bd
       -0.024190405 0.06890715 -0.037920576 -0.0338147
000170 f0 a5 c3 3c 0b 62 8a bc ac fd a2 3c 4a a0 b1 bd
       0.023882836 -0.016892454 0.01989635 -0.08673151
000180 d5 1a 67 3b 13 33 93 bc 94 f0 61 bd 14 a0 ad bc
       0.0035263796 -0.01796869 -0.055161074 -0.021194495
000190 66 8b d9 3c ca 66 71 3d fc e7 8a bd 89 2a ab 3d
       0.026555728 0.058935918 -0.06782529 0.08357722
0001a0 48 8c 8c bd 3f dd f6 3d fa c5 5d bd c7 19 70 bc
       -0.06862694 0.12053918 -0.054143883 -0.014654583
0001b0 52 19 90 bd 90 a0 76 3c 4a 04 21 bd 3d e9 7a bd
       -0.070360795 0.0150529295 -0.03931073 -0.06125759
0001c0 b9 82 ef 3c 93 d6 f3 3c 30 1f 46 3d c1 27 8d 3d
       0.029237138 0.029765403 0.048369586 0.06892348
0001d0 11 29 d9 bc 19 82 01 bc 6e 90 fe bc 5c 4e 52 bd
       -0.02650884 -0.007904553 -0.031074729 -0.05134426
0001e0 35 b8 16 3d 97 0c cf 3c 27 1b 8e 3d 6b 4c f4 3c
       0.036796767 0.025274558 0.06938773 0.029821595
0001f0 7c 82 9e 38 f5 d0 a6 3a 21 03 44 3d f1 c1 96 bd
       7.558332e-05 0.0012727069 0.047854546 -0.0736121
000200 b9 b2 ec 3d 13 f5 35 bd 63 8e 5b 3d 26 c3 31 3d
       0.11557526 -0.044423174 0.053602587 0.043399
000210 c1 17 b2 3d 64 32 0e 3d e8 7c 9c bc 5e 00 56 3d
       0.08695937 0.034716025 -0.019102529 0.052246444
000220 b6 2e 8d 3d c9 0f be bd 2e e9 a6 3c c4 c4 38 bd
       0.06893675 -0.092803545 0.02037486 -0.045109525
000230 03 41 60 bd c6 32 b9 3d 79 29 b9 3d a4 05 8b bc
       -0.0547495 0.090428874 0.090411134 -0.016970463
000240 9c 96 8c 3c 81 01 09 3d 68 67 a1 3d 32 8e 35 3d
       0.01716166 0.0334487 0.07881051 0.04432506
000250 07 07 88 3c 70 b3 d7 3d c3 57 45 bc b7 c3 c7 3d
       0.016604913 0.10532272 -0.01204485 0.097541265
000260 e9 c5 48 3c 6d c4 48 bd ee 27 7e bd 68 50 a4 3d
       0.012254217 -0.04901545 -0.0620498 0.08023149
000270 ec eb 62 3d d7 ae 4f 3d 71 f4 b9 3c 63 14 9c bc
       0.055400774 0.05070385 0.022699567 -0.01905269
000280 05 7f ef 3c 4d 0b 7b 3c 80 6a 95 3d 1b 94 8f 3c
       0.029235372 0.015322519 0.07295704 0.017526677
000290 65 d9 d3 bc 3c dd e8 bc 3c fc 52 3d e4 3c 39 bd
       -0.025860498 -0.028425805 0.05151008 -0.045224085
0002a0 6e dd 17 bb 6f e9 2d 3d fa 4a 90 bd b7 46 07 3d
       -0.0023172754 0.042458948 -0.07045551 0.033026423
0002b0 ce 56 ae bd 10 a0 84 bc 4e 34 e9 bc fe 12 bb 3d
       -0.085126504 -0.016189605 -0.028467324 0.09134482
0002c0 88 b7 5d bd a1 d2 90 bc 6e 47 a2 bd 03 cd c8 ba
       -0.054130107 -0.01767856 -0.079237804 -0.0015319887
0002d0 2b 91 f0 3c 3d c9 74 3d 3d d5 88 3d 11 d3 50 bc
       0.029366096 0.05976223 0.06681297 -0.012745635
0002e0 88 30 ac bc d5 8b b6 3d 1e dc 8c 3d 8c 9e 85 bd
       -0.021019235 0.089133896 0.068779215 -0.06524381
0002f0 3f 63 ae bc 4c 54 44 bd 2c 55 91 3d dc a3 b4 bb
       -0.021287559 -0.047931954 0.07096323 -0.0055126976
000300 2e eb 35 bc 03 78 e2 3c d5 2b 91 3c e6 9f b4 bc
       -0.0111034345 0.027645117 0.017721096 -0.022048902
000310 fe cb 72 3c 14 d5 dd bc 45 2f d1 bb 86 f3 b2 bd
       0.014819143 -0.027079143 -0.006383809 -0.08737855
000320 13 e7 3b bd f6 39 b8 3d 45 87 7d 3d b2 86 1c 3d
       -0.045874666 0.0899543 0.06189658 0.038214393
000330 33 fa ab bd 55 b1 76 3d 92 04 1e bb 30 c4 85 bd
       -0.08397331 0.06022771 -0.002411161 -0.065315604
000340 e0 00 5d bd 0c ee 16 3d 40 f3 b6 3d 15 31 bd 3b
       -0.053955913 0.036848113 0.08933115 0.0057736733
000350 f3 e5 df bc 89 a2 a2 bd f8 93 94 3d fe 1e 89 bd
       -0.027331328 -0.07941157 0.07254785 -0.066953644
000360 a0 89 d4 3c 57 87 94 3c 7d 22 a6 bc 3f 02 b2 3d
       0.025944531 0.018130941 -0.020280117 0.08691835
000370 33 24 c8 bc 51 b0 29 bd 08 43 ea 3c 6b 8d 26 3d
       -0.024431324 -0.041427914 0.028596416 0.04066221
000380 d2 20 24 bd 20 aa 8e bd b6 1c 31 3d 03 cd 5d 3d
       -0.040070362 -0.069660425 0.04324027 0.054150593
000390 61 a0 9c 3b 24 31 98 bb bb 54 b6 3d 47 5a 2c bd
       0.004779861 -0.00464453 0.0890288 -0.042078283
0003a0 a2 fd 16 bd e1 a6 e8 3c 37 0e cd 3d 9b f5 59 bd
       -0.036862977 0.028399887 0.10012477 -0.053212743
0003b0 7b d2 e9 3c c8 83 6a bd f5 53 87 bd f8 73 ff 3c
       0.028542748 -0.057254583 -0.066078104 0.031183228
0003c0 23 6b b1 3c e5 51 3c 3d 32 c8 56 bd c1 c6 9c 3c
       0.021657532 0.04597654 -0.052437015 0.019137742
0003d0 15 c7 b7 3c 11 1a be bd 6a 5b 2f 3d 05 b4 57 3d
       0.022433797 -0.092823155 0.04281179 0.052661914
0003e0 1e f1 43 bd 81 52 74 bd d6 3f 22 3d 05 55 4b 3c
       -0.04783737 -0.059648994 0.03961166 0.012410407
0003f0 4f 34 bb 3d e8 c3 3f 3d f7 3d 1b bc 3d 65 2e 3d
       0.091408364 0.04681769 -0.009475223 0.042577017

head.0.weight f4 [1, 128]
000000 87 5f a9 bd 2e 8b f6 3d f3 0a ac bd 0b 94 d7 bd
       -0.082701735 0.12038265 -0.08400526 -0.10526284
000010 e6 b9 97 bc d0 f3 88 3d 72 1d 8c 3d ca 71 a5 3d
       -0.01852126 0.066871285 0.06841554 0.08078344
000020 4a 40 91 3d 3e 57 c2 3d d8 d4 b8 bd d9 b0 af bd
       0.0709234 0.094892964 -0.09024972 -0.08578653
000030 d8 a3 54 3d 42 7b 70 3d b6 c7 ba 3d 5b a6 54 3c
       0.051914066 0.058711298 0.09120123 0.012979115
000040 0e 77 2a 3d 82 d4 51 bd 58 6a ce 3c bd aa 7f 3d
       0.041617446 -0.051228054 0.025197193 0.062418688
000050 39 49 bd bd ab 8f e5 3d 32 ff dd bd e4 4b e1 3c
       -0.09242482 0.11209043 -0.1083969 0.027502008
000060 ee 26 b4 3d 30 7f f4 3c 15 fa b8 bd 13 0a 19 bd
       0.08796488 0.029845804 -0.09032074 -0.037363123
000070 35 7b ab 3d 93 0c dd 3d c2 a1 1d bd aa 6c de bd
       0.08373109 0.10793414 -0.038484342 -0.1086057
000080 a5 7d 4f 3c a0 27 9b 3d 84 53 19 bc 7e 9c d4 3c
       0.012664233 0.07575917 -0.009358291 0.025953528
000090 85 43 cb bd f5 d3 6d 3d aa 77 81 3d c4 e0 90 3d
       -0.09924988 0.058063466 0.06321652 0.07074121
0000a0 96 e8 f9 bc 11 36 9c bc 3b a0 62 3d 8e 62 5e bd
       -0.030506413 -0.01906875 0.05532859 -0.054293208
0000b0 bb 11 cc bc 54 ae 60 bb 9b 27 d3 bc 3b 1f f8 3d
       -0.024910798 -0.0034283595 -0.025775721 0.12115332
0000c0 3c ba 2d 3d 95 ae 89 3a a0 f0 d2 3d 84 e9 6e bc
       0.042413935 0.00105043 0.10299802 -0.014582042
0000d0 e4 dd 20 3d a1 6b 32 3d 23 30 fd 3d 6f c8 b5 bd
       0.03927411 0.043559674 0.12362697 -0.0887612
0000e0 40 92 9d 3d 35 43 a9 3d 9e d2 d7 3d 36 66 af bd
       0.076939106 0.08264772 0.10538219 -0.08564417
0000f0 c7 a4 00 3d ac 1e a7 3c 81 a4 d7 3d 5e 7c a0 bc
       0.031407144 0.020400368 0.105294235 -0.019590553
000100 d3 84 de bd 92 df 1e 3d 02 15 80 3d 0b 5f b6 3d
       -0.10865178 0.038787432 0.06254007 0.08904847
000110 db 9a 0f bd b5 89 e0 bd 8c fe a9 bd dd c4 da 3d
       -0.03505979 -0.109637655 -0.08300504 0.1068208
000120 2d 40 c1 bd 6c 72 74 bd 17 57 27 bd 87 6c 62 bd
       -0.09436069 -0.059679434 -0.04085454 -0.05527928
000130 17 f1 b9 3d 51 65 ba bc bf 3c 4c 3d 57 54 94 bd
       0.09079187 -0.02275339 0.04986262 -0.07242649
000140 c3 d3 d5 3d 6a a6 a1 bd cf f9 1b bd a8 f3 c6 bd
       0.10440781 -0.07893069 -0.038080033 -0.097144425
000150 8b f3 c9 3d 34 48 75 3d 66 ad 48 bd 78 d5 ab 3d
       0.09860905 0.05988331 -0.04899349 0.08390325
000160 8c fc 62 3d 07 49 22 3d 76 0c 8e 3d f2 5d af 3d
       0.05541663 0.039620426 0.069359705 0.085628405
000170 86 9f 75 bd 05 98 bd 3d c8 29 86 3d 94 5a 7e bd
       -0.059966587 0.09257511 0.06550938 -0.0620981
000180 e4 8d 4c bd a8 3d df bd 6b 18 b9 3c 25 49 ae bc
       -0.049940005 -0.10900432 0.022594651 -0.021275112
000190 78 24 df bd c0 54 56 3d e6 ba a8 3d ce 16 b0 bd
       -0.10895628 0.052326918 0.08238773 -0.085981
0001a0 17 e4 a4 bd c6 41 ce 3d 9f 3b ea 3d 63 01 6c 3d
       -0.08051317 0.10071139 0.11437153 0.05761851
0001b0 cf 0d 69 bb 2b 6c ad bd 59 a2 1b 3d 97 aa 80 3d
       -0.003556121 -0.08467897 0.037996624 0.062825374
0001c0 3d da 9a bd d8 dc e1 3d 36 0d b2 3c a2 f9 ab bd
       -0.07561157 0.11028451 0.021734815 -0.08397223
0001d0 22 ba ee 3d 2e b1 8d bd 6f b3 4e bd 75 60 bb 3d
       0.11656596 -0.0691856 -0.05046409 0.09149257
0001e0 bd 1c e6 3d c8 ca a4 3d f2 5e a6 bd 01 d2 3e bd
       0.1123595 0.0804649 -0.08123578 -0.046586994
0001f0 6e 8c d1 bd d8 5e 5c bc ee 9a 92 3d f0 ae 79 3c
       -0.10231863 -0.013450347 0.07158457 0.015239462
